logs/a1_amp_example/exported/policies/policy_1.pt (torch, 250632 bytes, 8 tensors)

weight f4 [256, 69]
0	0x3e8ad6f8	0.27117133
1	0x3d6d9b74	0.05800958
2	0x3e4afc3a	0.1982278
3	0x3e09e6fa	0.13467017
4	0xbeb2b9b4	-0.34907305
5	0xbdd7fecf	-0.10546648
6	0xbbb042cd	-0.005379057
7	0xbcc9edcb	-0.024649521
8	0xbc03f196	-0.008053204
9	0x3e2de3f1	0.16981484
10	0xbe24cef2	-0.16094568
11	0x3c52c3e7	0.01286409
12	0xbd3cd096	-0.04609736
13	0x3dca8148	0.0988794
14	0xbdd249dc	-0.10267994
15	0xbe2dbee6	-0.16967353
16	0x3e8698ee	0.2628855
17	0x3dfe113b	0.1240563
18	0x3d4f1e3f	0.050565954
19	0xbe0fcb74	-0.14042455
20	0xbdcca0c1	-0.09991599
21	0xbe4a9930	-0.19784999
22	0xbcf04679	-0.029330479
23	0xbe03b587	-0.12862216
24	0x3c0ad20e	0.0084729325
25	0x3e05166d	0.12996836
26	0xbce90453	-0.028444445
27	0xbd71d214	-0.059038237
28	0xbd84ef2d	-0.06490932
29	0x3d768cf8	0.060193032
30	0xbd4a61fd	-0.049409855
31	0x3e0d7aa7	0.1381632
32	0xbb9a4f74	-0.0047091786
33	0x3e020a0e	0.12699148
34	0x3d685e89	0.05673078
35	0xbd93f402	-0.07224275
36	0xbe123a6f	-0.14280103
37	0xbdde9fba	-0.10870309
38	0x3d6c917b	0.05775593
39	0xbe2333e4	-0.15937763
40	0x3e0437a1	0.12911846
41	0x3d4fdd6d	0.050748277
42	0xbd3c5693	-0.045981
43	0xbdbc0a92	-0.091817036
44	0x3c4cca81	0.012499453
45	0xbd2a57c0	-0.04158759
46	0xbda79b7b	-0.081839524
47	0x3b5b4c4a	0.003346222
48	0x3cec4891	0.028843196
49	0xbbbbd088	-0.005731646
50	0x3a8677f7	0.0010259141
51	0x3dee2503	0.11628153
52	0xbe04436a	-0.12916341
53	0xbd1d0e45	-0.038343687
54	0x3b61b669	0.0034441
55	0x3d985e02	0.074398056
56	0xbd9c72b0	-0.076390624
57	0x3dd826b8	0.1055426
58	0xbce1bafc	-0.027554981
59	0x3d0c5f7d	0.034270752
60	0x3bdf5d04	0.0068165082
61	0x3d68ddd3	0.056852173
62	0xbdf3cfa0	-0.11904836
63	0x3b9ff3df	0.0048813666
64	0x3b89d2c6	0.0042060344
65	0x3e056ccc	0.13029784
66	0x3dd5755e	0.10422777
67	0x3d8d09e5	0.06886653
68	0x3d8399c7	0.06425815
69	0xbe4c6e6b	-0.19963996
70	0xbde2ba4a	-0.11070688
71	0xbe493fd8	-0.1965326
72	0x3c455c1b	0.012045885
73	0x3e8afdc5	0.27146736
74	0xbdd1aaa7	-0.102376275
75	0x3da5bdbe	0.08092831
76	0x3d408742	0.047003992
77	0x3c699441	0.014256538
78	0xbe89c573	-0.26908454
79	0xbd9d71f8	-0.076877534
80	0x3befb12a	0.007314821
81	0xbdc570ff	-0.09640693
82	0x3d9a1a63	0.07524564
83	0x3bfc1470	0.007692866
84	0x3e8b83b7	0.27248928
85	0x3e0cfd2d	0.13768454
86	0x3dc94fe8	0.09829694
87	0x3e05d46b	0.13069312
88	0xbdfe8a37	-0.12428706
89	0x3de2066c	0.11036381
90	0xbde598a7	-0.11210757
91	0x3de09c59	0.10967321
92	0xbdf128fb	-0.117753945
93	0x3dc98ae4	0.098409444
94	0x3e080fcb	0.13287275
95	0x3df45f65	0.119322576
96	0x3d4696fd	0.048483837
97	0xbd7b666b	-0.06137697
98	0xbc779f63	-0.015113684
99	0x3d5c02fd	0.053713787
100	0xbdb4b48f	-0.08823501
101	0xbd2e5332	-0.04255981
102	0xbe2dc32a	-0.1696898
103	0xbcc5c194	-0.024140157
104	0xbdc12aa7	-0.094319634
105	0x3d9ef15a	0.07760878
106	0x3dcce450	0.10004485
107	0x3d735b6a	0.05941335
108	0x3e2e4add	0.17020746
109	0x3e40eb4c	0.18839759
110	0x3e2b6abf	0.16739939
111	0x3c19913b	0.009373005
112	0xbdea73b7	-0.11447852
113	0xbe3f680b	-0.18692033
114	0x3d7d3e67	0.06182709
115	0x3d818aab	0.06325277
116	0x3c6913a8	0.014225878
117	0xbd61c5b7	-0.055120196
118	0xbd88de34	-0.06683007
119	0x3e4c8d26	0.19975719
120	0x3d6aa14f	0.057282742
121	0x3d727f34	0.05920334
122	0x3d0514be	0.032490484
123	0x3daa5a9f	0.08318066
124	0x3d7358b3	0.059410762
125	0xbd9ef6a5	-0.077618875
126	0x3d4b3da6	0.04961934
127	0xbd81fa2b	-0.06346544
128	0xbd0a611c	-0.033784017
129	0x3d347a18	0.04406175
130	0x3d7e3e57	0.06207117
131	0x3df24960	0.118304014
132	0x3dc8c5fa	0.09803386
133	0x3dc67693	0.09690585
134	0xbdf43355	-0.11923853
135	0x3dd2d444	0.10294393
136	0xbd0c6b2c	-0.034281895
137	0x3d4a6d77	0.0494208
138	0xbe85a995	-0.26105943
139	0xbd0b9dfb	-0.03408621
140	0x3e7c5bfd	0.24644466
141	0xbc78fc97	-0.015196941
142	0x3d29f27e	0.041491024
143	0x3dbf9207	0.093540244
144	0x3ca9375d	0.020656282
145	0x3d9cdcb8	0.07659286
146	0xbe234799	-0.15945281
147	0xbdb85c08	-0.090019286
148	0x3ddf11de	0.1089208
149	0xbc31dc99	-0.010855817
150	0x3de3469c	0.11097452
151	0xbb56e632	-0.0032791016
152	0xbd2e1301	-0.042498592
153	0xbd16b2bf	-0.03679156
154	0xbe01001a	-0.12597695
155	0xbd8cf98b	-0.06883534
156	0x3e00ccc3	0.1257811
157	0xbe4a504f	-0.19757198
158	0x3d00f1f4	0.031480744
159	0xbc967d7b	-0.01837038
160	0x3b8e2aa7	0.0043385806
161	0x3da4dedb	0.08050319
162	0x3e2db5d8	0.16963899
163	0xbd9b1db4	-0.07574025
164	0x3d3becc0	0.04588008
165	0xbe1d5a22	-0.15366414
166	0xbe4150b2	-0.18878439
167	0xbe71e364	-0.23621899
168	0x3e0ce66c	0.13759774
169	0x3d8aae1e	0.067714915
170	0xbd4638bd	-0.048393954
171	0x3c8006b1	0.01562819
172	0x3dbb19d9	0.091357894
173	0x3ca754ce	0.02042618
174	0x397eef73	0.0002431253
175	0xbb500d57	-0.0031746232
176	0xbd04cfa2	-0.032424577
177	0xbbf6fc5e	-0.0075374087
178	0xbcf607d3	-0.030033028
179	0xbce7ff64	-0.028320022
180	0x3c99e834	0.01878748
181	0xbc8fe56b	-0.01756545
182	0xbd424acf	-0.047434624
183	0xbd429cdf	-0.047512885
184	0xbbc8afca	-0.0061244713
185	0xbd26517d	-0.040605057
186	0xbbd0a656	-0.006367485
187	0xbd3919d1	-0.045190636
188	0xbdf1f3d7	-0.11814087
189	0xbdf0e96c	-0.11763272
190	0xbdabe89b	-0.08393975
191	0x3e03cfc0	0.12872219
192	0x3dc381e0	0.09546256
193	0xbc7836eb	-0.015149812
194	0x3d9977d9	0.07493562
195	0xbd8ebb69	-0.069693394
196	0x3dc26a1f	0.09492897
197	0xbd8d1853	-0.06889405
198	0xbc4790b6	-0.012180498
199	0x3da36644	0.0797849
200	0x3d74a62e	0.059728794
201	0xbe01f00c	-0.12689227
202	0xbbe2c811	-0.0069208224
203	0xbcdfc1f3	-0.027314162
204	0xbda06f4c	-0.07833728
205	0x3d97a000	0.074035645
206	0x3d9a35b6	0.07529776
207	0xbd07d396	-0.03316077
208	0xbe21e86a	-0.15811315
209	0xbc85d27a	-0.016335715
210	0x3e1c3168	0.15253222
211	0x3a3742fb	0.0006990877
212	0x3e0eb8b3	0.13937645
213	0x3d1a7142	0.037705667
214	0x3d89b5aa	0.06724103
215	0x3c94bcae	0.018156376
216	0x3e0e607c	0.13903993
217	0x3de6999f	0.1125977
218	0xbda2bccc	-0.079461664
219	0x3d85c503	0.06531718
220	0x3e12d9ed	0.14340945
221	0x3dcf1b76	0.1011266
222	0xbd08aeca	-0.033369817
223	0xbd115ffe	-0.035491936
224	0xbd9fdc00	-0.078056335
225	0x3dbe06d7	0.09278648
226	0xbe3e31ee	-0.18573734
227	0x3d3f9c34	0.046779826
228	0x3e711c22	0.23545888
229	0xbd3eeaae	-0.046610527
230	0xbd6656b9	-0.05623505
231	0x3e395eef	0.1810262
232	0x3c7fdbf6	0.015616408
233	0x3d2c8e3b	0.04212783
234	0xbdb23aaa	-0.087025955
235	0xbd9f1ae5	-0.077688016
236	0xbdeeb291	-0.116551526
237	0xbdf9722f	-0.12179982
238	0xbdedd621	-0.116131075
239	0x3b1db77b	0.0024065662
240	0x3e21009a	0.15722886
241	0x3d5b30bf	0.053513285
242	0xbb249d86	-0.0025118305
243	0x3df4443f	0.119270794
244	0xbd0592a8	-0.032610565
245	0x3d4d3ff1	0.050109807
246	0xbdf89156	-0.12137096
247	0x3d28fc26	0.041256092
248	0x3b972acb	0.0046132556
249	0x3bff8e33	0.007798934
250	0xbd61c3ff	-0.055118557
251	0xbd9782f4	-0.07398024
252	0x3c0f6d32	0.008754062
253	0xbd47fb48	-0.048823625
254	0xbcbb5761	-0.022868814
255	0xbddf9852	-0.10917725

bias f4 [256]
0	0xbc416a03	-0.01180506
1	0x3c9c3263	0.019066995
2	0xbd781be8	-0.06057349
3	0xbd4d35eb	-0.05010025
4	0xbdd6c38d	-0.10486517
5	0x3dbf373d	0.09336708
6	0x3d160c86	0.036633037
7	0xbb5ee6fc	-0.003401219
8	0xbdcb029d	-0.09912608
9	0xbda6077d	-0.08106897
10	0xbc9a35cc	-0.01882448
11	0xbd961d4b	-0.07329806
12	0x3ceeb71c	0.029140048
13	0x3d589605	0.052877445
14	0xbcb5aae6	-0.022176217
15	0xbb2b9f26	-0.002618739
16	0x3dbe70cb	0.09298857
17	0x3c833bce	0.016019728
18	0xbdd46565	-0.10370902
19	0xbd977898	-0.07396048
20	0x3d2c5839	0.042076323
21	0x3c1c3346	0.009533709
22	0xbbe4bc7d	-0.0069804774
23	0x3dfedd2d	0.1244453
24	0x3c377f1c	0.011199739
25	0x3cdb0277	0.026734574
26	0xbdb15f11	-0.086607106
27	0x3d8d4adf	0.06899046
28	0xbb3148d2	-0.002705146
29	0x3ce6af13	0.028159654
30	0xbd64b77c	-0.055839047
31	0x3dd122cc	0.10211715
32	0x3cca5e02	0.02470303
33	0x3dd0165e	0.10160516
34	0xbe00d544	-0.12581354
35	0x3d97ddaa	0.07415326
36	0xbb9a8065	-0.004715013
37	0x3d94fffc	0.07275388
38	0x3d27fea1	0.041014317
39	0xbd716f21	-0.05894387
40	0x3d327230	0.04356593
41	0xbd28da53	-0.041223835
42	0x3d6f71c3	0.0584581
43	0x3db34e35	0.08755151
44	0xbd3396ea	-0.043845095
45	0x3cca7718	0.024714991
46	0xbdf13bd3	-0.11778989
47	0xbcb385b4	-0.02191434
48	0x3db48211	0.08813871
49	0xbdb6f9b9	-0.089343496
50	0xbdc0a353	-0.094061516
51	0x3da30f80	0.07961941
52	0x3d8d416f	0.06897246
53	0xbd8f592d	-0.06999431
54	0xbc495cab	-0.01229016
55	0xbcf0a719	-0.029376553
56	0x3c181381	0.009281994
57	0xbdb903e9	-0.09033949
58	0x3ce0f8af	0.027462332
59	0xbd9e4092	-0.077271596
60	0x3cb32875	0.021869877
61	0xbde78c84	-0.11306098
62	0x3dc9bea2	0.098508134
63	0x3d1c8781	0.038215164
64	0xbcb7bda1	-0.02242929
65	0x3d0c84b4	0.034306243
66	0xbdce0f99	-0.10061569
67	0x3df9482c	0.12171969
68	0xbd074821	-0.03302777
69	0xbdc3e7e2	-0.095657125
70	0x3cf0ec8a	0.029409666
71	0xbe022fc6	-0.12713537
72	0x3cf58dca	0.029974837
73	0xbdbd4cbb	-0.09243151
74	0x3d1c8dc7	0.038221147
75	0xbd9df4aa	-0.077126816
76	0x3da88189	0.08227832
77	0xbdf6ef49	-0.12057359
78	0x3db1f38e	0.086890325
79	0xbe0cb533	-0.13740997
80	0x3da58485	0.08081917
81	0x3c4e9298	0.012608193
82	0xbd3bfdb9	-0.045896266
83	0x3cb9eaf7	0.022695048
84	0xbc0ac92c	-0.008470815
85	0xbdcd9585	-0.10038284
86	0x3d9e0dcf	0.077174775
87	0x3dafc1ec	0.085819095
88	0xbd757897	-0.059929457
89	0xbcc574c9	-0.024103539
90	0x3d8b01cb	0.06787451
91	0xbde45cc5	-0.11150507
92	0x3ddc8766	0.10768013
93	0xbd696c37	-0.056987967
94	0xbd91f27f	-0.071263306
95	0x3d23b3c7	0.03996637
96	0xbe0541ff	-0.13013457
97	0x3c5c2bb9	0.013438159
98	0x3c7d2094	0.015449662
99	0x3d392f96	0.045211397
100	0x3cb63f4f	0.022246985
101	0xbe0a01a3	-0.13477187
102	0xbdeca041	-0.115540035
103	0xbe1d82d6	-0.15381941
104	0xbe017cf7	-0.12645327
105	0xbdc1604d	-0.09442196
106	0x3d8318a9	0.06401188
107	0xbdfb20d7	-0.12262123
108	0xbde0d80f	-0.1097871
109	0xbd9d5ea8	-0.0768407
110	0x3d8764a6	0.06610994
111	0xbd228af9	-0.039683316
112	0x3c179f52	0.0092542935
113	0x3d33eb87	0.04392579
114	0xbd30bab1	-0.043146793
115	0xbe184ec5	-0.14873798
116	0xbcc984ab	-0.024599394
117	0x3e004c82	0.12529185
118	0xbd72b654	-0.059255913
119	0xbdf1f88a	-0.11814983
120	0x3dc75856	0.097336456
121	0x3d91ea6e	0.07124792
122	0x3cf7f57d	0.030268425
123	0xbdc64551	-0.0968119
124	0x3ca2c763	0.019870466
125	0x3c91c009	0.017791765
126	0x3ce6fc35	0.028196434
127	0xbddc7050	-0.107636094
128	0xbd1d3c41	-0.03838754
129	0x3d889381	0.06668759
130	0x3c86910f	0.016426591
131	0x3da6509f	0.08120846
132	0xbd42fc8c	-0.04760413
133	0x3e07721b	0.13227122
134	0xbdd97bc9	-0.10619313
135	0xbd0c09d7	-0.03418907
136	0x3d04fcfb	0.032467823
137	0xbda0d9c3	-0.07854035
138	0x3d60c88b	0.054878753
139	0x3d8db071	0.06918419
140	0xbdf6b563	-0.120463155
141	0x3da4e8ff	0.08052253
142	0xbdb19886	-0.0867167
143	0x3d993076	0.07479946
144	0x3d71681e	0.058937185
145	0xbcdf7e54	-0.027281918
146	0xbdd8fdc0	-0.10595274
147	0x3d88f16d	0.06686673
148	0x3dd85c52	0.10564484
149	0x3db09d5c	0.08623764
150	0x3d909013	0.0705873
151	0xbdb9bd56	-0.09069316
152	0x3dc2e09a	0.095154956
153	0xbca73101	-0.02040911
154	0xbd40f77b	-0.047111016
155	0xbd08a97b	-0.033364754
156	0xbd1b57c7	-0.037925508
157	0x3cf126bc	0.029437415
158	0x3c8604a2	0.016359631
159	0xbd1f5065	-0.03889503
160	0x3dfcd9e9	0.123462506
161	0xbd3cb9ae	-0.046075515
162	0xb9deebd6	-0.0004251885
163	0xbd120555	-0.035649616
164	0xbe0dcea4	-0.13848358
165	0x3ddcd7e7	0.107833676
166	0x3d0f8db4	0.035047248
167	0xbd21948a	-0.0394483
168	0x3d91cf16	0.07119577
169	0xbaf6c58f	-0.0018827188
170	0x3d76c289	0.060244117
171	0xbd9480c6	-0.07251124
172	0xbd351baa	-0.044215836
173	0x3da8bc46	0.08239035
174	0x3d03db42	0.032191522
175	0x3dbe122f	0.09280812
176	0x3dec8e84	0.1155062
177	0x3e00eab6	0.12589535
178	0x3bd5bec7	0.0065229866
179	0x3dc575e2	0.09641625
180	0x3d842dfd	0.06454084
181	0xbbd94144	-0.0066300947
182	0x3e04b28a	0.12958732
183	0x3c12704a	0.008937905
184	0xbda3c1de	-0.079959616
185	0xbc913904	-0.017727382
186	0xbc325140	-0.010883629
187	0xbe045a13	-0.12924986
188	0xbd521c55	-0.05129655
189	0xbd1da0f1	-0.038483564
190	0xbcd1cd2e	-0.025610533
191	0xbcca603f	-0.024704097
192	0xbd92ef16	-0.07174508
193	0xbddad6d2	-0.10685505
194	0x3c1d7b5c	0.009611931
195	0x3c104cfc	0.008807417
196	0x3ddcda09	0.107837744
197	0x3d891e11	0.06695188
198	0x3c8db88d	0.017299915
199	0x3d7a1d48	0.06106308
200	0x3d2113f2	0.039325662
201	0xbc584366	-0.013199663
202	0xbd3aa33e	-0.045565836
203	0x39bdd596	0.00036208023
204	0xbd40e681	-0.047094826
205	0x3d9f0f45	0.07766584
206	0x3df0c779	0.117567964
207	0x3a3cb342	0.00071983424
208	0xbd8ba54d	-0.06818638
209	0x3c62bd5d	0.013839093
210	0x3d96174d	0.07328663
211	0x39dea596	0.0004246651
212	0x3e070459	0.13185252
213	0xbd3c465c	-0.045965537
214	0xbe146b57	-0.14494072
215	0xbdd3e1dd	-0.103458144
216	0x3dab5531	0.08365858
217	0x3df65fdf	0.12030005
218	0x3b868d29	0.004106183
219	0xbdce6a57	-0.100788765
220	0xbd6d252c	-0.057896778
221	0x3d573d25	0.052548546
222	0x3dc36883	0.095414184
223	0x3b7f79b0	0.0038982444
224	0x3cd354f0	0.025797337
225	0x3be29825	0.0069151097
226	0x3dbdd2a6	0.092686936
227	0x3d5f271e	0.054480664
228	0xbdabe7c2	-0.08393814
229	0xbbe13aa9	-0.006873448
230	0x3e06be91	0.13158633
231	0x3d73106c	0.059341833
232	0x3e0a3691	0.13497378
233	0x3dda7d40	0.10668421
234	0x3dd69559	0.104777046
235	0xbc3a771f	-0.01138094
236	0xbb1b91ab	-0.0023737948
237	0xbe0d8fbb	-0.1382436
238	0xbd807cbc	-0.06273791
239	0x3dc21e6e	0.0947846
240	0xbc3712bb	-0.011173899
241	0xbcfe652d	-0.031054104
242	0xbc9168c1	-0.017750146
243	0x3d1c366c	0.03813784
244	0x3c362134	0.011116315
245	0xbde087cf	-0.109634034
246	0x3d55ed6a	0.05222837
247	0x3cb3e1d1	0.021958264
248	0x3dfbfd7e	0.12304209
249	0xbdbca15b	-0.092104636
250	0x3e050db6	0.12993512
251	0xbcf52b9b	-0.02992802
252	0x3dd60cc2	0.10451652
253	0xbda3ed22	-0.08004214
254	0x3d7fa44a	0.062412538
255	0x3d81496b	0.063128315

weight f4 [128, 256]
0	0x3d19ae0a	0.037519492
1	0xbd2785d8	-0.040899128
2	0x3d33022a	0.043703236
3	0xbd35c1d0	-0.044374287
4	0xbd1af7e7	-0.037834074
5	0x3ca92ccb	0.020651242
6	0x3b66ae50	0.0035199113
7	0xbd172f4c	-0.03691034
8	0x3b0da570	0.00216135
9	0xbcef3a04	-0.029202469
10	0xbd14b9b7	-0.036309924
11	0x3cb1442f	0.021638958
12	0x3d8331a8	0.064059556
13	0x3c4dbfab	0.012557904
14	0xbd8fd208	-0.07022482
15	0x3d0c7e47	0.034300115
16	0x3db0d8b0	0.0863508
17	0xbd9187f4	-0.07106009
18	0x3d8b5587	0.068034224
19	0xbd76a7ad	-0.0602185
20	0x3d0dcb4a	0.0346177
21	0x3d1c17cf	0.038108643
22	0xbcf8ee15	-0.030386964
23	0x3bf4ed5e	0.0074745854
24	0x3be9d8e8	0.007136453
25	0xbccba73f	-0.024860023
26	0xbd13968b	-0.03603224
27	0x3d96b79d	0.0735924
28	0x3b29a5b2	0.0025886116
29	0x3ddbed27	0.107385926
30	0x3d36afe9	0.044601355
31	0x3d2e336c	0.04252951
32	0xbbbe3431	-0.0058045615
33	0xbd7c3c93	-0.061581206
34	0x3c62b40f	0.013836875
35	0xbd99c562	-0.07508351
36	0xbd083d84	-0.03326179
37	0x3da20766	0.079115674
38	0x3b6b3239	0.003588809
39	0xbd796f98	-0.06089744
40	0xbd9e995d	-0.077440955
41	0x3cd25aa2	0.025677983
42	0x3d8d0d9a	0.0688736
43	0x3db7b352	0.089697495
44	0x3d78bbfc	0.06072615
45	0x3c237b3b	0.009978111
46	0xbcc5b7a8	-0.024135426
47	0xbda08c04	-0.07839206
48	0x3d9657c4	0.07340959
49	0xbd8dc568	-0.06922418
50	0xbd916ff9	-0.07101435
51	0xbd2e4fd4	-0.0425566
52	0x3d607e48	0.05480793
53	0x3d29a6c3	0.041418802
54	0x3d9d1b17	0.076711826
55	0x3d65ac33	0.056072425
56	0xbc260be7	-0.010134674
57	0xbda71e89	-0.08160121
58	0x3bb7bd90	0.0056073144
59	0xbe2b44a9	-0.1672541
60	0x3dc84bed	0.09780107
61	0xbd9dd480	-0.07706547
62	0xbd0582bc	-0.03259538
63	0x3d75151e	0.059834592
64	0xb98f4f73	-0.0002733428
65	0x3d88a64a	0.06672342
66	0xbcfd5941	-0.030926349
67	0x3d1e14eb	0.038594168
68	0xbc2a8c8d	-0.0104094865
69	0x3d0a2eca	0.033736028
70	0x3d69853c	0.057011828
71	0xbd8595cc	-0.06522712
72	0x3cff6ea7	0.031180693
73	0x3d9f5c6c	0.077813
74	0x3d1e44df	0.0386399
75	0x3d65ce6b	0.05610506
76	0x3d564179	0.052308533
77	0x3cb885d0	0.022524744
78	0x3d51595a	0.051110603
79	0xbca6ecf3	-0.020376658
80	0xbbfdefc6	-0.0077495305
81	0x3b4e8820	0.0031514242
82	0x3d45b29d	0.048266042
83	0x3d5ec441	0.05438638
84	0xbc4e4d7e	-0.012591718
85	0xbb216967	-0.0024629475
86	0x3d1c7994	0.038201883
87	0x3dbc8626	0.09205274
88	0x3bec0702	0.007202984
89	0x3d5a1314	0.05324085
90	0xbd0d68d0	-0.034523785
91	0x3cd640bb	0.026153913
92	0xbd7c2e65	-0.061567683
93	0xbb90ac5d	-0.0044150786
94	0x3cd5a89f	0.026081381
95	0x3d4830ea	0.048874773
96	0xbd26c031	-0.04071063
97	0xbc465fe9	-0.012107828
98	0x3d3b2320	0.045687795
99	0x3c8d42c7	0.017243756
100	0x3d28dbaf	0.04122513
101	0x3c917211	0.017754586
102	0xbdcfe61e	-0.10151313
103	0x3c4ac23c	0.012375411
104	0x3dbbc29f	0.091679804
105	0x3c3dfe9c	0.011596348
106	0x3ddf2aa6	0.108968064
107	0xbc4cc339	-0.012497717
108	0xbd899b3b	-0.06719061
109	0x3c8b445c	0.01700037
110	0xbd907a1d	-0.07054541
111	0x3b66f1b0	0.0035239272
112	0xbc7cb4ca	-0.015423963
113	0x3c974194	0.018463887
114	0xbaddb33e	-0.001691438
115	0x3d1e9e97	0.03872546
116	0x3c8d3841	0.017238738
117	0xbd0adb36	-0.033900462
118	0xbc3baaac	-0.011454266
119	0x3c4fa3d5	0.012673338
120	0x3d9037bc	0.070418805
121	0xbd933536	-0.071878836
122	0xbdd71a18	-0.10503024
123	0x3da75fc5	0.081725635
124	0xbdd60cfa	-0.10451694
125	0x3d675127	0.056473877
126	0x3cac1597	0.021006389
127	0xbd84bf0e	-0.06481753
128	0x3dad992d	0.084764816
129	0xbd18326e	-0.03715747
130	0x3d76e6cb	0.060278695
131	0x3d85ae26	0.06527357
132	0x3dbe3c70	0.09288871
133	0x3cd29efe	0.025710579
134	0xbca1d50c	-0.019754909
135	0xbd0c0cca	-0.034191884
136	0x3d1608b6	0.0366294
137	0xbc8c75ae	-0.017145958
138	0xbd2c5365	-0.04207172
139	0x3b2ece2f	0.0026673188
140	0xbc4bd58f	-0.012441053
141	0x3baa358f	0.005194373
142	0x3d9c4ad0	0.07631457
143	0x3d73d5af	0.059529956
144	0x3c741260	0.014896959
145	0xbcaeb26d	-0.021325314
146	0x3d1864c9	0.03720549
147	0x3d0003b7	0.031253543
148	0x3af4829e	0.001865465
149	0x3c8f57ad	0.017497862
150	0xbd63c5d0	-0.05560857
151	0xbd067d44	-0.032834306
152	0xbd48f631	-0.04906291
153	0xbd9869f2	-0.074420825
154	0xbd5d2937	-0.053994384
155	0x3de13f28	0.10998374
156	0xbc8260ed	-0.015915358
157	0x3b99ed36	0.004697467
158	0x3be06503	0.006847979
159	0xbd062532	-0.032750316
160	0xbd619afd	-0.05507945
161	0xbd31f833	-0.04344959
162	0xbba800d5	-0.0051270523
163	0x3ab8e316	0.0014105763
164	0x3cd9078c	0.026492856
165	0x3d22b5f0	0.03972429
166	0x3d8d3812	0.0689546
167	0x3bd0a03a	0.0063667567
168	0xbc9077d7	-0.01763527
169	0xbcdaaf71	-0.026694985
170	0x3d4224bc	0.047398314
171	0xbd41c705	-0.04730894
172	0xbd91e328	-0.07123405
173	0x3d6fc40a	0.058536567
174	0x3acd1ab4	0.0015648217
175	0xbc22b69c	-0.009931233
176	0x3db95ddb	0.09051105
177	0x3def891f	0.11696076
178	0xbdcffb8c	-0.10155401
179	0xbd52bc09	-0.051448856
180	0xbb33cb4d	-0.002743441
181	0xbcacd431	-0.021097274
182	0x3c3677bb	0.011136944
183	0xbd9fa509	-0.0779515
184	0x3d01aee8	0.031660944
185	0x3d73ef2a	0.059554256
186	0x3d09cf61	0.033645038
187	0x3b90139a	0.004396868
188	0xbd289b6e	-0.041163854
189	0x3b684e28	0.0035446975
190	0x3bdf86d1	0.0068214913
191	0x3dea4fe2	0.11441018
192	0x3d99bd54	0.075068146
193	0x3d1cd479	0.038288567
194	0x3dd4ba0b	0.103870474
195	0xbcf40a61	-0.029790105
196	0x3d2b29be	0.041787855
197	0xbd71e959	-0.05906043
198	0x3d596a2c	0.05307977
199	0xbc88bf16	-0.01669268
200	0x3d612cff	0.054974552
201	0x3dc26aac	0.09493002
202	0x3cfb9124	0.030708857
203	0x3d16f4a2	0.036854394
204	0x3d0d2640	0.034460306
205	0x3b53112b	0.0032206278
206	0x3d32fb0e	0.043696456
207	0xba84d6be	-0.0010134799
208	0x3a418cdf	0.0007383357
209	0xbc094352	-0.008377867
210	0x3d8d1044	0.06887868
211	0x3d6eee97	0.058333006
212	0x3d932c7c	0.07186219
213	0x3d668996	0.056283556
214	0xbb6fc93d	-0.0036588453
215	0x3cd0816d	0.02545234
216	0xbc5ea347	-0.013588733
217	0x3d215f64	0.039397612
218	0x3cf7ab88	0.03023316
219	0xbd4dec8e	-0.050274424
220	0x3caa8d56	0.020819347
221	0xbd96dae1	-0.073659666
222	0x3d385a36	0.045007907
223	0xbc8e4dec	-0.01737114
224	0x3c656c59	0.014002883
225	0xbd90c131	-0.07068098
226	0x3ccae19a	0.024765778
227	0x3d0fed2a	0.035138287
228	0x3adb81f5	0.0016747104
229	0xbc484a5e	-0.012224762
230	0xb9caf6a0	-0.00038712192
231	0xbaa0f392	-0.0012279621
232	0x3d2f7ab9	0.042841647
233	0x3d873627	0.066021256
234	0xbcb56d27	-0.022146774
235	0x3c38ff04	0.011291269
236	0x3d3d05e2	0.04614819
237	0x3ce3ebcf	0.027822403
238	0xbd4d54b3	-0.050129604
239	0xbd4a31ed	-0.04936402
240	0xbcef1cde	-0.02918857
241	0x3d1ea028	0.038726956
242	0x3da6d762	0.0814655
243	0xbd850892	-0.06495775
244	0x3bb77e17	0.005599748
245	0xbd55417e	-0.05206441
246	0x3caf0bdd	0.021367962
247	0xbc6feb44	-0.014643494
248	0x3d8b69f1	0.06807316
249	0x3d3aaa5f	0.045572635
250	0x3d5ff53e	0.05467724
251	0x3ce2d052	0.027687225
252	0xbbe37fe2	-0.006942735
253	0x3ca5c6dd	0.020236427
254	0x3c7540ca	0.01496906
255	0xbc0233c6	-0.007946914

bias f4 [128]
0	0x3dacafb8	0.08431953
1	0xbc8b5c88	-0.017011896
2	0xbc68c8fd	-0.014208076
3	0x3bc476d1	0.0059956093
4	0xbc009a56	-0.007849297
5	0xbd52f29c	-0.0515009
6	0xbd2387de	-0.039924495
7	0x3b461add	0.0030228414
8	0xbbb429e8	-0.0054981597
9	0x3cf67c8c	0.030088685
10	0x3b103aa5	0.002200761
11	0x3d482527	0.048863556
12	0x3d46045d	0.048344005
13	0x3b0737fe	0.002063274
14	0xbd51f51d	-0.05125915
15	0xbcc763a1	-0.024339499
16	0xbd08762d	-0.033315826
17	0xbcd2f74e	-0.02575269
18	0xbc83b8c4	-0.016079314
19	0x3d17b452	0.0370372
20	0xbc4cf6ba	-0.012509996
21	0xbd8c391e	-0.06846832
22	0x3d0a4fef	0.033767637
23	0xbd5017ac	-0.050803825
24	0xbd4088aa	-0.047005333
25	0xbcb57554	-0.022150673
26	0x3cbfe22a	0.023423273
27	0x3d854d14	0.06508842
28	0x3af630ff	0.0018782913
29	0xbc5b574a	-0.013387511
30	0xbcd9cc2d	-0.026586616
31	0x3d30730e	0.043078475
32	0x3bc1c1f8	0.0059130155
33	0x3d002d05	0.031292934
34	0xbd742d4d	-0.059613515
35	0xbd74e9dd	-0.059793342
36	0x3d25b4b4	0.040455535
37	0x3ce19b42	0.027539853
38	0x3cd8fd0f	0.026487855
39	0xbbd743e3	-0.006569372
40	0x3bca0902	0.0061656246
41	0xbd583c06	-0.052791618
42	0x3c81afc6	0.015830886
43	0xbc6526c1	-0.01398629
44	0xbbaec07e	-0.0053330055
45	0xba8bbb3c	-0.0010660659
46	0x3bae31b8	0.0053159855
47	0x3bdb79e0	0.0066978782
48	0x3d87cfbc	0.06631419
49	0xbb4bacd6	-0.003107836
50	0x3d6cc3a4	0.057803765
51	0xbc9677b9	-0.018367635
52	0x3ca99089	0.020698803
53	0x3d537514	0.051625326
54	0xbb60abc8	-0.0034282077
55	0xbc55b086	-0.013042575
56	0xbbf0ed46	-0.007352504
57	0x3c85bc11	0.016325029
58	0x3bb01dc3	0.0053746416
59	0x3c4a5932	0.012350367
60	0xbbf0bf32	-0.007347011
61	0x3c30bb7c	0.010786887
62	0xbd1496af	-0.036276516
63	0x3d8b88e7	0.068132214
64	0xbd999b9d	-0.07500384
65	0x3d1a702c	0.03770463
66	0x3cce4eb9	0.025184022
67	0x3d6b01f5	0.057374913
68	0x3d2b016f	0.041749414
69	0x3cbb368a	0.022853155
70	0x3c2cf556	0.0105565395
71	0xbd926386	-0.07147889
72	0x3d9470c2	0.07248069
73	0x3d586f97	0.052840795
74	0xbd842e30	-0.06454122
75	0xbcdcbf65	-0.026946733
76	0x3d8b84c3	0.06812432
77	0x3d9a2be7	0.07527905
78	0x3cbffac6	0.023435008
79	0xbccb44e2	-0.02481312
80	0xbd0fe2c8	-0.035128385
81	0xbb47a015	-0.0030460407
82	0x3d3dfbf5	0.046382863
83	0xbd4a5634	-0.049398616
84	0xbcacb956	-0.021084469
85	0x3ca98e09	0.02069761
86	0x3d91b10d	0.07113848
87	0x3da0c0ff	0.07849311
88	0xbd5c10af	-0.05372685
89	0x3d124303	0.03570844
90	0x3c23b17a	0.009991044
91	0x3d53d137	0.051713195
92	0xbbe79145	-0.007066878
93	0xbd114fa6	-0.03547635
94	0xbd259abb	-0.040430766
95	0x3c16e640	0.009210169
96	0x3c8d809f	0.017273245
97	0x3d7419bf	0.059594866
98	0xbd8982c7	-0.06714397
99	0xbdaefe03	-0.08544543
100	0x3d087989	0.03331903
101	0x3d3e06ce	0.04639321
102	0x3cd14ef3	0.025550341
103	0x3caa9e8f	0.02082756
104	0xbdd40415	-0.10352341
105	0x3cb61ec0	0.02223146
106	0x3d2f2f0b	0.042769473
107	0x3c486d7e	0.012233136
108	0x3cd03782	0.025417093
109	0xbd5ee42b	-0.054416817
110	0xb97d4584	-0.00024153857
111	0x3d16be2e	0.036802463
112	0x3cf17a18	0.029477164
113	0x3c9c9e52	0.019118462
114	0xbcf3add1	-0.029745968
115	0x3d49f386	0.049304508
116	0xbc6c4ba1	-0.014422328
117	0xbcdc7156	-0.026909512
118	0xbcf13bc8	-0.029447451
119	0xbc34009d	-0.010986474
120	0xbd3bace3	-0.045819174
121	0xbd3609b1	-0.044442836
122	0xbce2df28	-0.0276943
123	0xbda455c9	-0.08024175
124	0xbd4f4d0b	-0.050610583
125	0xbac5c944	-0.0015089889
126	0x3d2a7169	0.041612063
127	0x3cadd5a1	0.02122003

weight f4 [64, 128]
0	0xbd7db042	-0.06193567
1	0xbcaba4dd	-0.020952636
2	0x3c4d2bae	0.012522621
3	0x3d3eddb9	0.04659817
4	0xbd661494	-0.05617197
5	0x3dac3248	0.08408028
6	0xbdac71b5	-0.084201254
7	0xbd2c69e5	-0.042093176
8	0x3e056c42	0.13029578
9	0xbcebde79	-0.028792607
10	0x3cf5037d	0.02990889
11	0xbd3d7b27	-0.046260025
12	0x3c7cfbfb	0.015440936
13	0xbdf6bbc3	-0.120475315
14	0x3d394b3b	0.04523776
15	0x3d9c551b	0.0763342
16	0x3dab41fd	0.08362196
17	0x3ce1b882	0.0275538
18	0xbe1d384a	-0.15353504
19	0xbb558205	-0.0032578718
20	0xbd7705ba	-0.060308196
21	0x3e0aea50	0.13565946
22	0xbd949d09	-0.072565146
23	0x3c0a56ef	0.008443578
24	0xbd9d439d	-0.07678912
25	0x3cf8e3f6	0.030382138
26	0xbe111bb6	-0.14170727
27	0xbdc2c048	-0.09509331
28	0x3e331d63	0.17491679
29	0x3d7549df	0.059884902
30	0xbd8d82d3	-0.06909718
31	0xb9b6731c	-0.00034799508
32	0xbc04223f	-0.0080648055
33	0xbcf3c1da	-0.029755522
34	0xbdcfe822	-0.10151698
35	0xbe2fcc3a	-0.1716775
36	0xbe0c4cb9	-0.13701142
37	0x3c0a1d4f	0.008429839
38	0x3d049d0f	0.032376345
39	0xbe1c1edf	-0.15246151
40	0xbbff2e79	-0.0077875224
41	0x3d82090e	0.06349383
42	0x3dd4a894	0.10383716
43	0x3d667ef6	0.056273423
44	0xbcb562ae	-0.02214178
45	0xbdb0ab1d	-0.08626387
46	0xbdf91931	-0.12163008
47	0xbd6587ba	-0.056037642
48	0xbad8946f	-0.0016523729
49	0xbdb4a507	-0.08820539
50	0xbd4bf24c	-0.04979162
51	0xbc758bed	-0.014986974
52	0x3c994e58	0.018714115
53	0xbe08506e	-0.13311931
54	0xbd35ba8a	-0.04436735
55	0xbe104b98	-0.14091337
56	0x3cd81755	0.026378313
57	0xbcf98b44	-0.030461915
58	0xbd8a1f42	-0.06744243
59	0xbcc6c669	-0.024264531
60	0xbc84a6a0	-0.016192734
61	0xbd89db2c	-0.06731257
62	0x3e1edb70	0.15513396
63	0x3d34ee7f	0.04417276
64	0xbcd55d78	-0.026045546
65	0xbd03fa34	-0.032221034
66	0x3c4411bd	0.01196712
67	0x3ca61182	0.02027202
68	0xbd1fef94	-0.03904684
69	0x3c9f262b	0.01942738
70	0xbde16049	-0.11004693
71	0x3ddbe6c2	0.10737373
72	0x3cc80d8c	0.024420522
73	0xbd2e7103	-0.042588245
74	0x3d991bf7	0.07476037
75	0xbe03aa06	-0.12857828
76	0xbba58558	-0.005051296
77	0x3d1e6c46	0.038677476
78	0xbca79408	-0.020456329
79	0x3c5314be	0.012883363
80	0xbd451ca5	-0.04812302
81	0xbabbd4c9	-0.0014330383
82	0xbcfaaa05	-0.03059865
83	0xbd58cfef	-0.052932676
84	0x3dd1d2b6	0.10245268
85	0xbd3e70dc	-0.04649435
86	0xbe04b98e	-0.12961408
87	0xbdf4d44b	-0.11954554
88	0x3dc06168	0.09393579
89	0x3d8c165d	0.06840203
90	0xbd84ec19	-0.064903446
91	0xbd1accac	-0.037792847
92	0x3d9bbc12	0.07604231
93	0x3d825bdb	0.06365176
94	0x3d7df47e	0.062000744
95	0xbce8dc64	-0.028425403
96	0x3c16c434	0.009202052
97	0xbce51ada	-0.027966905
98	0x3c73c975	0.014879574
99	0xbde21a52	-0.110401765
100	0xbd4f037d	-0.050540436
101	0xbd9f3362	-0.07773472
102	0xbd297c4b	-0.0413783
103	0x3cbacb07	0.02280189
104	0x3d70ffe2	0.05883778
105	0xbc56681e	-0.013086347
106	0xbdddb1e9	-0.10824949
107	0x3c9cb00d	0.019126916
108	0x3d96aa82	0.073567405
109	0xbd5c4728	-0.053778797
110	0xbd0fc8f9	-0.03510377
111	0xbd707624	-0.058706418
112	0xbdbcf45a	-0.09226294
113	0x3da76ba9	0.081748314
114	0xbbb91bfe	-0.005649089
115	0x3d829a01	0.0637703
116	0xbc78175d	-0.015142289
117	0x3d0e93e0	0.034808993
118	0xbc61fef6	-0.013793698
119	0xbdf46a61	-0.11934353
120	0x3d4b7c1e	0.049678914
121	0x3c317a45	0.010832374
122	0xbd9946c5	-0.07484201
123	0x3d9cd304	0.076574355
124	0x3d48a3d5	0.048984367
125	0xbcebfa9f	-0.028806029
126	0x3d82330e	0.06357394
127	0xbd280831	-0.041023437
128	0x3d22460c	0.039617583
129	0xbdd27ca6	-0.10277681
130	0x3c57c7e2	0.013170214
131	0x3b43f29f	0.0029899252
132	0xbdda9ba8	-0.1067422
133	0xbd095a14	-0.03353317
134	0xbe2979a8	-0.16550314
135	0xbdb79e27	-0.08965712
136	0x3d8f85cb	0.07007941
137	0xbd9887bc	-0.07447764
138	0x3d1c1ce3	0.038113486
139	0x3db23622	0.08701731
140	0xbd234c40	-0.03986764
141	0xbd8bcf18	-0.068266094
142	0x3dd3c336	0.10339968
143	0xbd35ffcc	-0.0444334
144	0xbd5947a9	-0.053046856
145	0xbd76c6eb	-0.060248297
146	0xbda5847a	-0.080819085
147	0x3c3d6517	0.011559746
148	0xbbf6eb01	-0.007535339
149	0x3d8f4315	0.06995217
150	0x3d95e67c	0.07319352
151	0xbc54f20e	-0.012997163
152	0xbd41e3f2	-0.047336526
153	0x3c2b8b5c	0.010470238
154	0x3d719b00	0.05898571
155	0x3d8c3274	0.06845561
156	0x3db3e7f1	0.08784474
157	0x3c25a8c8	0.010111041
158	0x3bff80d7	0.0077973413
159	0xbc4a7688	-0.012357362
160	0x3d2ae17f	0.041718956
161	0x3d857cfb	0.06517979
162	0x3dbaf957	0.09129589
163	0x3dedd858	0.1161353
164	0xbdaa73b2	-0.083228484
165	0xbcec6456	-0.028856438
166	0xbd8f74ba	-0.07004686
167	0x3bcd6ecc	0.0062693115
168	0x3cfa3562	0.030543033
169	0xbdd44657	-0.10364979
170	0xbd11f8f3	-0.035637807
171	0xbc3d1143	-0.01153976
172	0xbbff4d7f	-0.0077912207
173	0xbd34b788	-0.04412034
174	0x3c67632e	0.014122767
175	0xbdca9acb	-0.09892806
176	0x3bddf87d	0.006774007
177	0x3cbc1864	0.02296085
178	0x3cb13f92	0.021636758
179	0x3d4167d4	0.04721816
180	0x3dc2e807	0.09516912
181	0x3dca00a0	0.098634005
182	0xbc2592ff	-0.010105847
183	0xbc10bdd9	-0.008834326
184	0x3c0c6062	0.008567901
185	0xbdc87c43	-0.09789326
186	0x3d01a7c8	0.03165415
187	0x3d2e3532	0.0425312
188	0x3dd9341e	0.10605644
189	0x3d0fe4b2	0.03513021
190	0xbc1e9b57	-0.009680591
191	0xbd39d1cc	-0.045366094
192	0x3d3edd8e	0.04659801
193	0x3bb125c5	0.005406114
194	0xbd6d1c88	-0.057888538
195	0xbbb9b8ce	-0.0056677824
196	0xbd3c0325	-0.045901436
197	0xbdd89d27	-0.105768494
198	0x3d17efff	0.037094112
199	0xbc8b543c	-0.01700794
200	0xbd1718f1	-0.03688902
201	0xbd5fec1e	-0.05466854
202	0xbd4591af	-0.048234638
203	0xbd1a81ff	-0.03772163
204	0x3c151481	0.009099127
205	0x3dcf7108	0.10128981
206	0x3c99ea93	0.018788612
207	0x3d9d333d	0.076757886
208	0xbd1a9609	-0.03774074
209	0x3d9f8ea9	0.07790882
210	0xbdf4fe82	-0.11962606
211	0x3d55aaab	0.052164715
212	0x3d85bc1c	0.0653002
213	0xbda9a214	-0.08282867
214	0xbdb1b742	-0.08677532
215	0xbbb30207	-0.005462888
216	0xbdc25c8a	-0.09490307
217	0x3d37ab6b	0.04484121
218	0xbd11944b	-0.035541814
219	0x3ccd9955	0.025097528
220	0x3d843980	0.0645628
221	0xbd004d5f	-0.031323787
222	0x3d25a19d	0.04043733
223	0x3cd654a8	0.026163414
224	0xbd5d099d	-0.053964246
225	0xbd380630	-0.044927776
226	0x3c874dd0	0.016516596
227	0xbab5d3ee	-0.0013872364
228	0xbd9b4c12	-0.07582869
229	0x3ca4ffd7	0.020141525
230	0x3d1b52c7	0.03792074
231	0xbd1d5e0b	-0.038419764
232	0x3a99d23c	0.0011735628
233	0xbcda9816	-0.026683848
234	0xbdb0c67e	-0.086316094
235	0x3d841d37	0.06450885
236	0xbe0156b4	-0.12630731
237	0xbda46e84	-0.08028892
238	0xbde05669	-0.109539814
239	0x3dbd95de	0.092571005
240	0x3da82184	0.082095176
241	0xbc3e6b63	-0.011622283
242	0xbdf4541b	-0.11930104
243	0xbcbbb7ee	-0.022914853
244	0x3df5cb31	0.12001646
245	0xbd706710	-0.058692038
246	0x3dd04989	0.10170276
247	0x3b8865b6	0.0041625155
248	0xbdf0e369	-0.11762125
249	0x3bab3802	0.0052251825
250	0xbda7dfa2	-0.081969514
251	0x3de1d053	0.11026063
252	0x3d8d73b4	0.06906834
253	0xbba13285	-0.0049193525
254	0x3d52f53d	0.05150341
255	0x3d62816f	0.05529922

bias f4 [64]
0	0xbd7f5145	-0.062333364
1	0x3cde7a7d	0.027158016
2	0x3d988bf0	0.07448566
3	0xbdde9099	-0.108674236
4	0xbd4dcf7f	-0.05024671
5	0x3d0be7df	0.034156676
6	0x3d16da7f	0.036829468
7	0x3d1eed03	0.03880025
8	0xbde183c2	-0.11011459
9	0x3dcdfdea	0.10058196
10	0xbdd39b8d	-0.10332403
11	0x3d230f4c	0.03980951
12	0xbd92cb40	-0.07167673
13	0x3dbd4d97	0.09243315
14	0x3dc8cf57	0.09805172
15	0x3d655065	0.055984873
16	0xbb4256d2	-0.00296538
17	0xbadd3406	-0.0016876466
18	0x3d92f3f2	0.07175435
19	0x3dde433f	0.1085267
20	0x3d8b437d	0.06799982
21	0xbd4a3b13	-0.049372744
22	0xbb6771ee	-0.003531571
23	0xbbd2ac60	-0.00642924
24	0xbd3b4b7a	-0.045726277
25	0xbaba0db3	-0.0014194757
26	0xbd9a06e7	-0.07520848
27	0xbdaf1f4d	-0.08550892
28	0xbd81eb38	-0.063436925
29	0x3d843771	0.06455887
30	0xbdf22da5	-0.11825112
31	0xbda2f696	-0.07957189
32	0x3d846f4e	0.06466542
33	0xbdafbc3a	-0.08580823
34	0x3dbe9e76	0.09307568
35	0x3dc6e5b2	0.0971178
36	0xbd3699cf	-0.044580277
37	0xbd7bab88	-0.06144288
38	0xbdb01031	-0.08596838
39	0x3bfed3f9	0.007776734
40	0xbd68e7e4	-0.056861773
41	0xbc45b9c8	-0.0120682195
42	0xbd8568b7	-0.065141134
43	0xbd8184f8	-0.0632419
44	0xbc337883	-0.010954025
45	0xbe079559	-0.13240565
46	0x3e0f2acd	0.13981171
47	0xbdaf3baf	-0.085563056
48	0xbd5bd5ff	-0.05367088
49	0x3d2dfa18	0.042474836
50	0x3d67d3c0	0.056598425
51	0x3c747eb9	0.014922791
52	0x3dacd461	0.084389456
53	0x3d8f731a	0.07004376
54	0xbd14ca4b	-0.036325734
55	0xbc36b0e6	-0.011150574
56	0x39f01326	0.00045790634
57	0x3d15abfa	0.036540963
58	0xbddb85dc	-0.10718891
59	0xbd4a79a7	-0.049432423
60	0x3b96fe2a	0.0046079354
61	0xbd76414c	-0.060120866
62	0x3cdc8499	0.026918696
63	0x3d47b895	0.048760016

weight f4 [12, 64]
0	0x3e1d3928	0.15353835
1	0x3ca1abc4	0.019735225
2	0xbc60309f	-0.013683467
3	0xbe0eea60	-0.13956594
4	0xbca499e8	-0.02009292
5	0x3ccfc162	0.025360767
6	0xbd434276	-0.047670804
7	0xbe19196a	-0.14951101
8	0x3d55a638	0.05216047
9	0x3da0ac04	0.078453094
10	0x3c0657b6	0.008199623
11	0xbc284219	-0.010269665
12	0x3e3751de	0.17902324
13	0x3df49f3b	0.11944433
14	0xbca12fb5	-0.019676069
15	0xbd02774e	-0.03185206
16	0xbdbca429	-0.092109986
17	0xbd8999d6	-0.06718795
18	0xbdf206a7	-0.11817675
19	0xbd8c1c2d	-0.068413116
20	0x3c9c52ff	0.019082544
21	0x3d3b8a6d	0.04578631
22	0xbc9189d9	-0.017765926
23	0xbda14cee	-0.07876001
24	0xbe04bddc	-0.1296305
25	0xbe1eefe0	-0.15521193
26	0xbd1142f0	-0.035464227
27	0xbd153108	-0.036423713
28	0x3e3cda72	0.18442705
29	0x3d9d639a	0.07685013
30	0x3dae1700	0.08500481
31	0xbe0fa66f	-0.14028333
32	0xbdc606a7	-0.096692376
33	0xbc58fb0e	-0.01324345
34	0x3d302580	0.043004513
35	0x3dd52410	0.10407269
36	0x3d9b8632	0.07593955
37	0xbdc15dcd	-0.09441719
38	0x3ce045be	0.027377006
39	0x3dfc4ad6	0.12318961
40	0xbd8d8704	-0.06910518
41	0x3b635bfa	0.0034692273
42	0x3c97b098	0.018516824
43	0x3dd045da	0.10169573
44	0xbe0bf03c	-0.13665861
45	0xbdcf75c6	-0.101298854
46	0xbdf184c5	-0.11792902
47	0x3d44d17b	0.04805134
48	0x3d4710da	0.048600055
49	0x3da219ba	0.07915063
50	0x3d466626	0.04843726
51	0xbc87b6ac	-0.016566597
52	0xbe313f05	-0.17309196
53	0x3d06cd68	0.032910734
54	0xbc53779e	-0.012906937
55	0xbe29717d	-0.16547199
56	0xbde0004c	-0.109375566
57	0xbe0dddf7	-0.13854204
58	0xbdbc3807	-0.09190374
59	0xbd506fcb	-0.050887864
60	0xbd362582	-0.044469364
61	0xbd937c8e	-0.07201491
62	0xbc8cf718	-0.017207667
63	0x3e1c95e4	0.15291554
64	0xbe7494b7	-0.23884855
65	0x3de540cc	0.11194
66	0x3e881eda	0.26586038
67	0xbd226a0f	-0.039651927
68	0x3e8d1511	0.27555135
69	0xbdf1435e	-0.117804274
70	0xbe9554bd	-0.29166213
71	0xbe34933b	-0.17634289
72	0xbe6de10b	-0.23230378
73	0x3cfee8e3	0.031116908
74	0xbe358204	-0.17725378
75	0x3db70a9f	0.08937573
76	0x3d28a81a	0.04117594
77	0x3e69e155	0.22839864
78	0x3ddc135b	0.10745879
79	0x3d744a22	0.05964101
80	0xbdf2ccb1	-0.11855448
81	0x3c15687a	0.009119147
82	0x3de49a23	0.11162212
83	0xbdd5486c	-0.10414204
84	0xbde8e4d5	-0.11371771
85	0xbe5aacb1	-0.21354939
86	0xbde71150	-0.11282599
87	0x3bd42f65	0.0064753764
88	0x3e95de35	0.29271093
89	0x3e4fff34	0.20312196
90	0x3e1a80ff	0.1508827
91	0xbdb71274	-0.089390665
92	0xbe8cbab1	-0.27486184
93	0x3e19f6c1	0.15035535
94	0xbe98d70c	-0.29851568
95	0xbe2e92d5	-0.170482
96	0x3e08d86a	0.13363805
97	0x3e29e0b8	0.1658963
98	0xbdee057a	-0.11622138
99	0xbe57ca5f	-0.21073292
100	0xbd6223b3	-0.055209827
101	0x3e31e06c	0.17370766
102	0x3d50223d	0.050813902
103	0x3d47b8dc	0.04876028
104	0xbdeea42f	-0.11652409
105	0xbd000ddb	-0.031263214
106	0x3dc0a062	0.094055906
107	0xbe9a552d	-0.3014311
108	0x3ddf0b8b	0.108908735
109	0xbe11a601	-0.14223482
110	0x3d96e432	0.073677436
111	0xbe7104da	-0.23537007
112	0xbe25bd55	-0.16185506
113	0x3e1cbb91	0.15305926
114	0x3e56c277	0.2097262
115	0x3d2aba82	0.041681774
116	0xbd5cb51b	-0.053883653
117	0x3d299b05	0.041407604
118	0x3d996713	0.07490363
119	0xbe314561	-0.17311622
120	0xbdbad48f	-0.091225736
121	0x3e579bf2	0.21055582
122	0xbe2a3a31	-0.16623761
123	0xbd051b13	-0.032496523
124	0xbe632380	-0.22181511
125	0xbe85d18c	-0.26136434
126	0x3e4cca8e	0.19999143
127	0xbcb97e8e	-0.022643354
128	0x3d8c3a52	0.06847061
129	0x3dc58bf4	0.096458346
130	0xbe1efd3d	-0.1552629
131	0x3de6978a	0.112593725
132	0x3ed2929c	0.4112748
133	0x3ea558d0	0.3229432
134	0xbf040c51	-0.51581293
135	0xbe4c761e	-0.19966933
136	0x3e650268	0.22364199
137	0xbebc5dbf	-0.36790273
138	0x3e2a1562	0.1660972
139	0x3d2849e2	0.041086085
140	0x3eb0d598	0.3453796
141	0xbe52c613	-0.20583372
142	0xbe4e1f76	-0.20129189
143	0x3ca98e57	0.020697756
144	0x3dbcdc49	0.092217036
145	0x3de84559	0.11341352
146	0xbdaf2385	-0.08551697
147	0xbee21a35	-0.4416062
148	0xbeb376be	-0.3505153
149	0x3e2f52f7	0.17121492
150	0x3e7bb491	0.245806
151	0xbe385b5b	-0.180036
152	0xbe102429	-0.14076294
153	0xbe11359a	-0.14180604
154	0x3e245501	0.16048051
155	0xbc72377b	-0.014783735
156	0xbe6eebba	-0.2333211
157	0xbec50436	-0.38479775
158	0x3e3389d8	0.17533052
159	0xbe17ec96	-0.14836344
160	0x3c788b8a	0.015169987
161	0x3ed2fb6b	0.41207442
162	0x3deed546	0.116617724
163	0xbed6e1aa	-0.41969043
164	0x3eaaee9a	0.33385164
165	0x3e0aef84	0.1356793
166	0x3d756688	0.059912235
167	0x3e828f35	0.25499883
168	0x3dcf1b60	0.10112643
169	0xbe3f919d	-0.18707891
170	0xbd4c0bcf	-0.04981595
171	0x3d033f3e	0.032042734
172	0x3e8e6c25	0.27816883
173	0x3e70bb58	0.23508966
174	0xbe9f0df4	-0.31065333
175	0x3e7e115f	0.24811314
176	0x3e8dfa62	0.2773009
177	0xbe733d56	-0.23753867
178	0xbe90dde5	-0.28294292
179	0xbe9e8f45	-0.3096868
180	0xbd76554e	-0.060139947
181	0xbe587281	-0.2113743
182	0xbe2a9bb5	-0.1666096
183	0xbe9389e9	-0.28816155
184	0x3e61f969	0.22067799
185	0x3e01d9ac	0.12680691
186	0x3e14f072	0.14544848
187	0x3e4d15b8	0.20027816
188	0xbe4a90fe	-0.19781873
189	0x3dcf638b	0.10126408
190	0xbc8c4bc9	-0.01712598
191	0xbd79f292	-0.06102235
192	0x3de82cae	0.11336647
193	0xbdb35c42	-0.08757831
194	0xbda02168	-0.07818872
195	0xbe01fcec	-0.12694138
196	0x3c5deaf9	0.013544791
197	0xbd2d46b0	-0.04230374
198	0x3c613c21	0.013747246
199	0x3dcba2fd	0.09943197
200	0x3d0a7525	0.033803124
201	0xbd0feae9	-0.035136137
202	0x3c778334	0.015106965
203	0x3df8b390	0.12143624
204	0x3c72ae80	0.014812112
205	0xbe206f2a	-0.15667406
206	0x3de0b351	0.10971702
207	0xbdbd8181	-0.092532165
208	0x3ccd8888	0.025089517
209	0xbcb09e5a	-0.021559883
210	0xbb0a2f6d	-0.0021085397
211	0x3d0bbb5e	0.034114234
212	0xbd56a7d2	-0.05240614
213	0x3e0f0fdf	0.13970898
214	0xbe11a2e9	-0.14222302
215	0xbe65930f	-0.2241938
216	0x3d066354	0.03280957
217	0x3d3cc11c	0.0460826
218	0x3cb16991	0.021656783
219	0x3e2cc9aa	0.16873804
220	0x3dd559e6	0.104175374
221	0x3d2e9647	0.042623784
222	0x3da35a4c	0.07976207
223	0xbe041074	-0.12896901
224	0x3d643c69	0.055721674
225	0x3c64a3cd	0.013955069
226	0x3bfd5d23	0.00773205
227	0xbd1d689b	-0.038429838
228	0x3d14370c	0.03618531
229	0xba27f2de	-0.00064067345
230	0x3d53eaae	0.05173748
231	0xbd91da7b	-0.0712175
232	0xbd9f1532	-0.077677146
233	0x3e0ea7fd	0.1393127
234	0x3db153d0	0.08658564
235	0x3b32da40	0.0027290732
236	0x3e4452ae	0.19172165
237	0xbcbcf529	-0.02306612
238	0xbdcad1b4	-0.09903279
239	0xbdb126be	-0.086499676
240	0x3d758e5f	0.05995023
241	0xbdd0f49a	-0.10202904
242	0xbb888279	-0.004165944
243	0x3d21933f	0.039447065
244	0x3cb22ffa	0.021751393
245	0xbdf76946	-0.12080626
246	0x3cfe1cbf	0.031019567
247	0xbe1914d2	-0.14949349
248	0x3d798c98	0.060925096
249	0xbcb262b5	-0.021775583
250	0x3c86f70b	0.016475221
251	0xbdbfb79b	-0.09361192
252	0xbd8408ed	-0.06447015
253	0x3ce6ecf3	0.028189158
254	0x3e6093cc	0.2193138
255	0x3e034e36	0.12822804

bias f4 [12]
0	0x3cd5476b	0.026035031
1	0x3e8ef614	0.27922118
2	0xbe3b474a	-0.18288913
3	0x3d95c0d9	0.073121734
4	0x3e076540	0.13222218
5	0xbcc40181	-0.023926498
6	0x3d1f679f	0.03891718
7	0x3d5abef0	0.05340475
8	0x3c5133f4	0.012768734
9	0x3c074e32	0.008258389
10	0xbe100cdb	-0.14067404
11	0xbd6bf477	-0.057606187
