logs/a1_amp_example/exported/policies/policy_1.pt (torch, 253704 bytes, 8 tensors)

weight f4 [256, 72]
-0.04096085 0.0072968425 -0.026837366 0.008233415 0.10578467 -0.15515554 -0.0025977853 0.03162354
-0.095729515 0.018325023 0.014032891 0.20211725 -0.45811996 0.23167318 0.19298548 0.13565743
0.048548024 -0.062508866 -0.2706465 0.26158664 0.0054706982 0.50171393 0.24038719 -0.067940146
-0.041575085 0.102244265 -0.007765975 -0.00050542457 0.054244652 -0.042919043 0.0465545 0.18190242
0.047881544 -0.013144402 0.27023056 -0.08745408 -0.017847272 0.10521334 -0.0035292183 0.0632112
-0.023729205 -0.05598357 0.044210102 -0.022867654 -0.05050058 0.013114394 -0.04969262 0.08418234
-0.008955945 0.04181164 -0.011074835 0.07807406 0.0021334635 0.00513083 -0.13555324 -0.117254205
-0.037074845 -0.012188797 0.044709638 0.07955365 -0.055016395 0.028176473 0.026135515 -0.06580715
0.04941953 0.12561603 -0.067404285 0.019482305 -0.07117838 0.006861951 -0.02852026 0.053347357
0.09350231 0.06362177 0.03714492 -0.04130105 -0.08616111 -0.071012616 -0.06490425 0.10881634
-0.0071727964 0.059805993 0.057744317 0.05358379 -0.11504252 -0.16887903 -0.051424418 0.15609917
-0.1243344 -0.120680146 0.17280817 -0.24996372 -0.2102891 -0.18313617 0.12963663 -0.15576255
0.37201217 0.114639126 -0.07484153 -0.30539408 -0.17004699 -0.037810307 -0.1511502 -0.025694696
0.07808352 -0.2620688 0.09371459 0.1521178 -0.08524763 -0.074026704 0.08899187 -0.094701536
-0.051223323 -0.13440268 0.053034846 -0.012047826 0.007682682 0.043126773 -0.03627821 -0.052852802
-0.0005900948 -0.026857372 -0.057578932 0.015734537 0.0726882 -0.00035562745 0.03819254 0.018025976
-0.10397487 0.021861583 -0.055280354 0.03681459 -0.11417087 8.222455e-05 0.09835344 -0.023500621
0.009138332 -0.032963645 -0.06221252 0.014549171 0.014637358 0.03488389 -0.0486527 -0.054497145
0.011581169 -0.15706858 -0.03774219 -0.01402732 0.044524424 0.0470021 0.3230567 -0.12508631
-0.12886438 -0.051398102 -0.04371673 0.05251344 -0.068169735 -0.2632986 0.021454794 -0.18667327
0.3383062 0.040705327 0.026294509 0.234185 -0.04176615 -0.04922001 -0.24720755 -0.13591328
-0.08762643 0.15228546 -0.10256337 -0.06312262 0.039265614 0.12246301 -0.25724643 -0.013553972
-0.025005568 -0.082809106 0.17647801 -0.20873424 -0.036336876 -0.0034675207 -0.0462 0.07287408
-0.102379754 0.022958066 -0.059449736 0.031111406 -0.046279605 -0.05825503 0.060740236 -0.11154184
0.052980606 0.042781804 -0.025378287 -0.0659981 -0.032517303 -0.048121735 -0.05972005 -0.015167478
0.03927682 0.069524825 0.060524378 -0.004224121 0.008459762 0.0356094 -0.10823599 -0.017115282
-0.0019430161 0.093133345 0.040180884 0.058721364 -0.07803692 0.012246833 0.009775306 0.030137138
-0.011360624 -0.080597475 -0.022676023 -0.08824243 -0.34261367 0.06753455 -0.048170492 -0.11867823
-0.037570942 -0.08076173 -0.030889992 -0.14991069 -0.15382905 0.28441077 -0.05676886 0.30857685
0.054491356 -0.13142183 0.36612365 -0.10413001 -0.1542254 -0.267364 -0.19357197 0.028662525
0.16696797 0.1771122 -0.01840935 0.31075498 0.021916144 -0.0627555 -0.04234709 0.11939977
-0.14531775 0.14674588 -0.03720968 -0.11510366 0.090053864 0.044453595 0.013890525 0.077747256
00000000: 90c6 27bd 5a1a ef3b 09da dbbc 72e5 063c
00000010: a2a5 d83d 18e1 1ebe 9b3f 2abb af87 013d
00000020: d60d c4bd 5c1e 963c 36ea 653c d3f7 4e3e
00000030: b38e eabe bc3b 6d3e fc9d 453e c8e9 0a3e
00000040: 4bda 463d a604 80bd 2e92 8abe afee 853e
00000050: 8b43 b33b 5370 003f 0f28 763e 3424 8bbd
00000060: a34a 2abd 7165 d13d b879 febb 787e 04ba
00000070: a42f 5e3d e1cb 2fbd eeaf 3e3d a144 3a3e
00000080: 701f 443d 9e5b 57bc a95b 8a3e 201b b3bd
00000090: 7134 92bc 177a d73d 754a 67bb e074 813d
000000a0: c063 c2bc 074f 65bd a715 353d f254 bbbc
000000b0: b2d9 4ebd c1dd 563c 7d8a 4bbd ca67 ac3d
000000c0: f5bb 12bc af42 2b3d 3a73 35bc 4be5 9f3d
000000d0: 94d1 0b3b 8620 a83b 78ce 0abe f922 f0bd
000000e0: cbdb 17bd 85b3 47bc 7421 373d 06ed a23d
000000f0: df58 61bd 59d2 e63c 261a d63c e6c5 86bd
00000100: 226c 4a3d 7da1 003e 420b 8abd 5b99 9f3c
00000110: f8c5 91bd 38da e03b 52a3 e9bc c282 5a3d
00000120: 247e bf3d 214c 823d 4625 183d 4a2b 29bd
00000130: 3c75 b0bd 106f 91bd 85ec 84bd 1adb de3d
00000140: c709 ebbb 21f7 743d 4e85 6c3d ad7a 5b3d
00000150: 6a9b ebbd a0ee 2cbe 69a2 52bd 76d8 1f3e
00000160: 09a3 febd 2727 f7bd a0f4 303e 7df6 7fbe
00000170: 0756 57be 0c88 3bbe 77bf 043e 3880 1fbe
00000180: 6178 be3e ebc7 ea3d 8446 99bd 9d5c 9cbe
00000190: cc20 2ebe fbde 1abd 1ec7 1abe af7d d2bc
000001a0: 41ea 9f3d e22d 86be 6fed bf3d c5c4 1b3e
000001b0: 4f96 aebd 509b 97bd 5f41 b63d e1f2 c1bd
000001c0: 8ccf 51bd dba0 09be 113b 593d 3f64 45bc
000001d0: 02bf fb3b b3a5 303d 7698 14bd 2e7c 58bd
000001e0: 97b0 1aba fe03 dcbc e3d7 6bbd b7e5 803c
000001f0: 8ddd 943d 8273 bab9 c86f 1c3d 36ab 933c
00000200: c7f0 d4bd 1017 b33c a76d 62bd e5ca 163d
00000210: 6bd2 e9bd f86f ac38 876d c93d 6084 c0bc
00000220: f1b8 153c e304 07bd 8ed2 7ebd a55f 6e3c
00000230: 87d1 6f3c 69e2 0e3d 0e48 47bd 6638 5fbd
00000240: f2be 3d3c 96d6 20be 8e97 1abd d8d2 65bc
00000250: 3e5f 363d 4685 403d b067 a53e a016 00be
00000260: 06f5 03be d186 52bd 5010 33bd 5518 573d
00000270: 939c 8bbd 13cf 86be f7c1 af3c 4727 3fbe
00000280: 7836 ad3e a1ba 263d 9567 d73c 31ce 6f3e
00000290: fc12 2bbd ec9a 49bd fa23 7dbe da2c 0bbe
000002a0: 7c75 b3bd b8f0 1b3e be0c d2bd 6f46 81bd
000002b0: fbd4 203d e3cd fa3d ceb5 83be 7b11 5ebc
000002c0: 7ad8 ccbc d297 a9bd a7b6 343e 6ebe 55be
000002d0: fad5 14bd 583f 63bb 363c 3dbd 013f 953d
000002e0: 7aac d1bd 8e12 bc3c 9181 73bd 59dd fe3c
000002f0: af8f 3dbd d49c 6ebd c1ca 783d 0c70 e4bd
00000300: 3102 593d f93b 2f3d 20e6 cfbc 032a 87bd
00000310: dd30 05bd 4c1b 45bd 039d 74bd 0381 78bc
00000320: bbe0 203d 0863 8e3d 69e8 773d 7f6a 8abb
00000330: d09a 0a3c 2adb 113d d5aa ddbd 5935 8cbc
00000340: cdac feba b2bc be3d b694 243d d085 703d
00000350: d2d1 9fbd f1a6 483c 9b28 203c 29e2 f63c
00000360: e921 3abc 4a10 a5bd 11c3 b9bc 72b8 b4bd
00000370: 0f6b afbe 8e4f 8a3d 6c4e 45bd 920d f3bd
00000380: fde3 19bd 6866 a5bd 020d fdbc 3082 19be
00000390: 5d85 1dbe 4a9e 913e 7786 68bd c9fd 9d3e
000003a0: 5432 5f3d 7293 06be 8f74 bb3e 1d42 d5bd
000003b0: 43ed 1dbe efe3 88be bb37 46be accd ea3c
000003c0: a7f9 2a3e e75c 353e 35cf 96bc 471b 9f3e
000003d0: 7c89 b33c f585 80bd 2474 2dbd de87 f43d
000003e0: 2dce 14be 8d44 163e 2d69 18bd 78bb ebbd
000003f0: 296e b83d f914 363d 1695 633c f439 9f3d

bias f4 [256]
-0.038434334 -0.08546812 -0.029598035 0.0026172753 -0.047551993 0.043254204 0.097837575 -0.07967768
-0.059239056 0.09215198 0.022388205 -0.018504014 0.030082248 -0.055911306 -0.08309195 0.10927514
0.021030694 -0.0829344 -0.08465346 -0.07176965 -0.028491782 -6.529348e-05 -0.020834453 0.029399363
-0.05323191 -0.06271122 -0.04028686 0.039874177 0.12875012 0.059920702 -0.06869651 -0.08667647
-0.050287016 0.0711795 0.03243346 -0.10840937 -0.16157134 -0.07915397 -0.030442521 0.029973092
0.05175088 -0.04183296 -0.10085079 -0.07783992 -0.01694746 -0.03309864 0.06795911 0.011950411
-0.071278416 -0.03334553 -0.0014390138 -0.04898249 -0.03210425 -0.1530064 0.018325245 -0.029678011
-0.04134715 0.039847046 -0.08916645 0.04918627 0.0492387 -0.042617522 0.05881897 0.06499436
-0.117011964 0.030718597 0.04576905 -0.0039146408 -0.08485372 -0.09903487 -0.01844705 -0.058643274
-0.051169276 -0.03716265 0.109752364 0.053830408 -0.07749028 0.092317194 -0.0885071 0.024510847
0.053480394 -0.06023783 -0.05624646 0.03304934 -0.028240105 -0.07197208 -0.04833149 -0.12312228
-0.119909495 -0.1530285 -0.010788772 0.06681807 0.12172798 -0.008537275 0.064376384 -0.034627598
0.07647594 0.046716116 0.085614234 -0.00440268 0.04783588 0.040855803 -0.0044363756 0.10169406
-0.022738716 0.06055644 0.041432258 0.09439851 -0.13898195 -0.036022097 0.09175929 0.07861707
-0.05663881 0.08506934 0.0039274306 -0.08069096 0.059586402 -0.12351996 -0.06075949 0.07101385
-0.02389838 -0.04396827 0.066002764 -0.0036533857 -0.11998985 -0.11516173 -0.05159893 -0.07515742
0.012475474 -0.010718452 0.040587645 -0.11044439 -0.019652732 -0.06988148 -0.0016417904 -0.005414071
-0.018068027 -0.06549457 0.04204049 0.073023 0.05094637 0.011995002 0.06368925 -0.09573361
0.08406665 0.04979541 0.045919027 -0.02253601 0.022870172 -0.09072394 -0.007988633 0.08124462
-0.018626604 -0.031857587 0.0084591545 -0.015687875 0.13583559 0.06361559 0.027793733 0.056858882
-0.03911061 -0.019768212 -0.01085231 0.07319085 -0.0825077 0.1231032 -0.10640742 -0.13701609
-0.016498351 -0.00068394124 -0.038013842 0.0491486 -0.0796144 0.08861627 0.098641604 -0.08618162
-0.035169464 -0.09655649 -0.048814278 -0.08852309 -0.052361112 -0.0037317208 0.033271845 -0.12296054
-0.022584587 -0.04472276 0.035227943 -0.04739138 -0.10293589 -0.11057903 0.051200323 -0.0010618697
0.02858298 0.004531946 0.0065940106 -0.026958838 -0.09457684 -0.016599525 -0.07044053 -0.02521142
0.046149556 -0.06360081 0.05461105 -0.07042199 -0.0746375 -0.06589746 -0.10813053 -0.043876838
0.023314204 -0.084211215 -0.10995317 0.0059203985 0.14568509 0.043812506 0.035361525 0.066320464
0.05538512 -0.06644624 -0.1427774 0.105414 0.01351681 0.022909036 -0.008194637 0.011935038
0.047863077 0.012714448 0.07513435 -0.059452616 0.0899521 -0.028674202 0.09018679 -0.116071865
-0.07931988 -0.019105177 -0.113074504 0.052875433 -0.046830792 -0.10683662 0.05503888 -0.09095278
0.018200181 0.03909659 0.012319561 -0.0070018093 -0.0069868085 0.020614784 0.087523274 -0.06546418
0.07694664 -0.124772325 0.021398524 0.005072019 -0.104575664 0.008446701 -0.0013187949 -0.12980452
00000000: 526d 1dbd e909 afbd 9477 f2bc 9886 2b3b
00000010: e1c5 42bd 522b 313d 115f c83d 0d2e a3bd
00000020: a7a4 72bd 2dba bc3d 7867 b73c bb95 97bc
00000030: 0c6f f63c 4103 65bd 1d2c aabd a5cb df3d
00000040: 9048 ac3c 83d9 a9bd cb5e adbd f7fb 92bd
00000050: 9967 e9bc 2cee 88b8 04ad aabc efd6 f03c
00000060: b409 5abd bd6e 80bd d603 25bd 1b53 233d
00000070: 12d7 033e 696f 753d c1b0 8cbd 6f83 b1bd
00000080: c2f9 4dbd 8fc6 913d f3d8 043d bb05 debd
00000090: f572 25be 7a1b a2bd 9862 f9bc 218a f53c
000000a0: bbf8 533d 0a59 2bbd dc8a cebd 896a 9fbd
000000b0: 66d5 8abc 7192 07bd 252e 8b3d a8cb 433c
000000c0: 6bfa 91bd 5395 08bd 4a9d bcba dda1 48bd
000000d0: bf7f 03bd b6ad 1cbe d31e 963c 4d1f f3bc
000000e0: a15b 29bd a836 233d e69c b6bd 8b77 493d
000000f0: 85ae 493d b68f 2ebd 29ec 703d c31b 853d
00000100: f8a3 efbd 91a5 fb3c 5478 3b3d 6346 80bb
00000110: cac7 adbd cbd2 cabd 451e 97bc ee33 70bd
00000120: e096 51bd dd37 18bd d9c5 e03d 467d 5c3d
00000130: 39b3 9ebd cc10 bd3d 3643 b5bd f9ca c83c
00000140: 420e 5b3d f1bb 76bd b062 66bd bf5e 073d
00000150: cb57 e7bc 1966 93bd 3ef7 45bd 8927 fcbd
00000160: 1c93 f5bd 81b3 1cbe 64c3 30bc ead7 883d
00000170: 854c f93d eddf 0bbc c4d7 833d abd5 0dbd
00000180: 6b9f 9c3d 6659 3f3d 8456 af3d 5b44 90bb
00000190: 8eef 433d 6a58 273d 045f 91bb fa44 d03d
000001a0: 8b46 babc 080a 783d dfb4 293d 0254 c13d
000001b0: 4951 0ebe e88b 13bd 4bec bb3d fd01 a13d
000001c0: 19fe 67bd d638 ae3d adb1 803b 4d41 a5bd
000001d0: df10 743d 08f8 fcbd f1de 78bd b66f 913d
000001e0: 89c6 c3bc 1318 34bd 752c 873d a46d 6fbb
000001f0: 3dbd f5bd ead9 ebbd 6659 53bd 22ec 99bd
00000200: ee65 4c3c 729c 2fbc 3b3f 263d ab30 e2bd
00000210: c4fe a0bc 051e 8fbd 5831 d7ba 8568 b1bb
00000220: 6603 94bc 0422 86bd a632 2c3d 158d 953d
00000230: 24ad 503d af86 443c 826f 823d fc0f c4bd
00000240: 232b ac3d 46f6 4b3d 9715 3c3d 709d b8bc
00000250: 3a5a bb3c 79cd b9bd c1e2 02bc 9463 a63d
00000260: d296 98bc 1a7d 02bd 4498 0a3c dc83 80bc
00000270: 7c18 0b3e e448 823d afaf e33c dce4 683d
00000280: 7232 20bd f2f0 a1bc e3cd 31bc 16e5 953d
00000290: ccf9 a8bd 881d fc3d 22ec d9bd f24d 0cbe
000002a0: 8d27 87bc 854a 33ba 67b4 1bbd 0b50 493d
000002b0: e00c a3bd 727c b53d 9c04 ca3d fd7f b0bd
000002c0: db0d 10bd 69bf c5bd 7bf1 47bd 984b b5bd
000002d0: 9b78 56bd e38f 74bb 0f48 083d bcd2 fbbd
000002e0: 5003 b9bc 362f 37bd 2d4b 103d 771d 42bd
000002f0: 0dd0 d2bd 4277 e2bd 6eb7 513d 6f2e 8bba
00000300: db26 ea3c b880 943b 9212 d83b c8d8 dcbc
00000310: 81b1 c1bd bafb 87bc 2043 90bd 2e88 cebc
00000320: 5107 3d3d 2441 82bd d6af 5f3d 6739 90bd
00000330: 8cdb 98bd 3ff5 86bd 8a73 ddbd 33b8 33bd
00000340: 6efd be3c ee76 acbd 212f e1bd e7ff c13b
00000350: 792e 153e be74 333d 3fd7 103d 06d3 873d
00000360: 82db 623d f714 88bd 3d34 12be 4ce3 d73d
00000370: 9c75 5d3c bbab bb3c cc42 06bc 2d8b 433c
00000380: 130c 443d 4350 503c 0ae0 993d 9684 73bd
00000390: ce38 b83d 29e6 eabc dab3 b83d 16b7 edbd
000003a0: 7672 a2bd 7682 9cbc 9b93 e7bd e993 583d
000003b0: a5d1 3fbd 28cd dabd 7370 613d 7345 babd
000003c0: 8c18 953c bf23 203d fcd7 493c 6f6f e5bb
000003d0: 99f1 e4bb 56e0 a83c 673f b33d 1612 86bd
000003e0: 3396 9d3d a288 ffbd f54b af3c 2e33 a63b
000003f0: c42b d6bd 0864 0a3c 6adb acba 7aeb 04be

weight f4 [128, 256]
0.06727163 -0.0044661025 0.031806506 0.07405692 0.10327408 0.047260776 0.0073455013 0.03462212
-0.10158956 0.018231163 -0.085812785 -0.010667223 -0.03320967 0.031180898 -0.028488139 0.03558133
-0.040552504 -0.086240984 0.054151315 0.02349129 0.046736773 -0.055097427 0.0034005519 0.01479325
0.004159963 0.026789581 -0.028806085 -0.066562794 0.029976036 -0.023370666 0.0881149 0.0185775
0.05945695 -0.0145808235 0.012289626 -0.042567562 -0.08043598 -0.03744619 0.105600834 0.029527565
-0.011852625 0.083584405 -0.0017126006 -0.09098372 0.0531134 0.019759335 0.10360798 -0.035437047
-0.108521834 -0.06714972 -0.04476605 0.012541461 -0.06180913 -0.038819164 -0.01034474 0.09917533
-0.07765795 -0.06741033 -0.0013097466 -0.09675768 -0.025477123 -0.04544351 -0.064652845 0.0015600985
-0.058045663 -0.04728444 0.04804943 0.061293375 -0.05699885 -0.046084672 -0.046117578 0.0038785792
-0.08666861 -0.074130595 -0.07356008 0.08639667 -0.074209236 -0.094279036 0.03724794 0.078722335
0.08404322 0.0383485 -0.00572478 -0.026533553 0.048551474 0.059928533 0.056462012 -0.040402554
0.051733118 -0.061589997 -0.001677181 -0.10090202 0.0005682417 -0.09999978 -0.033694815 0.008616071
0.06680292 0.0747603 0.049980447 0.072384976 0.09097228 -0.009219839 -0.103874005 0.008633089
0.08682434 0.058938537 -0.07484199 -0.0017546783 -0.04781415 0.025267208 -0.03215428 0.043506075
0.032766882 -0.013396662 0.043737903 0.05588987 -0.02485652 -0.0059414445 -0.0012241188 0.047015354
-0.021454535 -0.03067471 0.02569532 -0.04040354 0.08566253 0.04624041 -0.039507296 -0.02271668
0.01733285 0.056335278 -0.019508975 0.03343702 -0.052284263 -0.028975185 -0.0014354393 0.10391594
-0.08391538 0.0066544395 0.046468668 0.011757229 0.08077554 -0.011126228 -0.038986955 -0.058548175
-0.07928321 -0.036918998 -0.05441354 -0.0030949116 -0.04820384 0.0067292745 -0.07021115 0.11261087
-0.10504137 0.087367885 -0.033510853 -0.026790673 -0.07902885 -0.005067296 -0.014498397 -0.012079267
0.001614971 -0.039368037 0.004932425 0.054035973 0.050927803 -0.047644556 0.026325325 0.077207536
0.015210984 0.003309877 0.012280052 -0.017440576 -0.057133134 -0.090390325 -0.07049062 -0.007330539
-0.0028601221 -0.09415102 0.081522405 0.0023241555 0.075509734 0.04236635 0.014119128 -0.025478104
-0.027957292 -0.048365798 0.030357484 0.09896291 -0.03314074 0.0068850243 -0.006548563 0.0062345644
0.0295577 0.10879308 0.068864465 0.043432314 0.051704 0.02336599 0.034517813 0.021817137
-0.09532781 0.029561838 0.052385435 -0.023879925 -0.02053263 -0.001765605 -0.07033917 -0.039963055
0.101695076 -0.049809985 -0.017202199 -0.024630202 -0.13933223 0.044452775 0.00074070954 -0.038957756
-0.06697807 -0.14641078 -0.12825188 -0.0021762396 0.030500978 -0.060868245 0.023060054 -0.054825444
0.04143113 0.043384183 -0.056060307 0.039372668 -0.033635624 0.010324106 -0.024562739 -0.007646516
-0.06299156 0.031149203 -0.07481665 0.023468304 0.049984835 0.06511219 -0.029949347 -0.034247294
-0.047668077 0.10327777 0.006071239 0.12199265 -0.05596733 -0.047382522 -0.013531723 -0.019568264
-0.022087114 0.009368572 0.06849132 -0.0032513873 -0.091835834 0.04622527 -0.021796467 -0.027342025
00000000: b5c5 893d 6258 92bb 8a47 023d 28ab 973d
00000010: 5c81 d33d 8494 413d 88b2 f03b edcf 0d3d
00000020: 300e d0bd 8559 953c 9dbe afbd 93c5 2ebc
00000030: dd06 08bd 156f ff3c f55f e9bc bbbd 113d
00000040: 621a 26bd 1d9f b0bd c5cd 5d3d ce70 c03c
00000050: 0f6f 3f3d d7ad 61bd cbdb 5e3b 635f 723c
00000060: 4d50 883b d375 db3c bdfa ebbc 1352 88bd
00000070: 4e90 f53c d773 bfbc 9675 b43d d72f 983c
00000080: 2189 733d 68e4 6ebc 6d5a 493c 535b 2ebd
00000090: 9ebb a4bd 2d61 19bd 4045 d83d cbe3 f13c
000000a0: 8331 42bc 4d2e ab3d 5779 e0ba ac55 babd
000000b0: 708d 593d 54de a13c 6c30 d43d 7026 11bd
000000c0: b240 debd cb85 89bd 9b5c 37bd b37a 4d3c
000000d0: 922b 7dbd d800 1fbd fc7c 29bc 6f1c cb3d
000000e0: 220b 9fbd 6d0e 8abd ceab abba e428 c6bd
000000f0: 66b5 d0bc f922 3abd b668 84bd 387c cc3a
00000100: 4ac1 6dbd 54ad 41bd 7bcf 443d c30e 7b3d
00000110: a077 69bd 48c3 3cbd c9e5 3cbd c32f 7e3b
00000120: 507f b1bd c8d1 97bd aba6 96bd bdf0 b03d
00000130: 03fb 97bd 5e15 c1bd 4c91 183d 2d39 a13d
00000140: da1e ac3d 5113 1d3d ef96 bbbb e55c d9bc
00000150: e9dd 463d 9f77 753d b644 673d 267d 25bd
00000160: 1be6 533d cb45 7cbd dbd4 dbba b8a5 cebd
00000170: 0ef6 143a afcc ccbd 9303 0abd 6c2a 0d3c
00000180: f8cf 883d ee1b 993d 4cb8 4c3d 933e 943d
00000190: ad4f ba3d cf0e 17bc e5bb d4bd cd71 0d3c
000001a0: f6d0 b13d 8969 713d c246 99bd 3cfd e5ba
000001b0: c5d8 43bd 2dfd ce3c 35b4 03bd 6d33 323d
000001c0: 9136 063d ac7d 5bbc 8426 333d c7ec 643d
000001d0: e79f cbbc 73b0 c2bb 9c72 a0ba 2c93 403d
000001e0: 6cc1 afbc 8849 fbbc fe7e d23c 2f7e 25bd
000001f0: d66f af3d 9666 3d3d 67d2 21bd 5518 babc
00000200: 9ffd 8d3c d2bf 663d 49d1 9fbc 42f5 083d
00000210: 0628 56bd 5e5d edbc 5a25 bcba e1d1 d43d
00000220: d4db abbd 7c0d da3b ee55 3e3d 65a1 403c
00000230: a56d a53d c84a 36bc c9b0 1fbd 36d0 6fbd
00000240: 3c5f a2bd 6038 17bd bbe0 5ebd 00d4 4abb
00000250: 6471 45bd 3f81 dc3b ddca 8fbd 87a0 e63d
00000260: ee1f d7bd efed b23d ad42 09bd 1d78 dbbc
00000270: e1d9 a1bd 8f0b a6bb af8a 6dbc 1ee8 45bc
00000280: 6fad d33a 6140 21bd 2ea0 a13b d354 5d3d
00000290: ac99 503d f026 43bd 35a8 d73c fc1e 9e3d
000002a0: 7e37 793c 85ea 583b 4532 493c 8adf 8ebc
000002b0: 6f04 6abd 901e b9bd 635d 90bd 0535 f0bb
000002c0: e370 3bbb 40d2 c0bd 38f5 a63d dc50 183b
000002d0: d9a4 9a3d 5688 2d3d ea53 673c 75b7 d0bc
000002e0: b106 e5bc 371b 46bd 42b0 f83c 11ad ca3d
000002f0: 96be 07bd c59b e13b 5495 d6bb 514b cc3b
00000300: fd22 f23c e8ce de3d d008 8d3d 15e6 313d
00000310: 93c7 533d 086a bf3c 8d62 0d3d dab9 b23c
00000320: 3a3b c3bd ab2b f23c 1c92 563d d59f c3bc
00000330: 0c34 a8bc df6b e7ba fc0d 90bd 4db0 23bd
00000340: 8245 d03d 8e05 4cbd a0eb 8cbc 47c5 c9bc
00000350: 1cad 0ebe 1d14 363d 2d2c 423a 2b92 1fbd
00000360: cc2b 89bd b5ec 15be 7654 03be 3e9f 0ebb
00000370: 30dd f93c fb50 79bd 70e8 bc3c a590 60bd
00000380: b0b3 293d 9db3 313d 7e9f 65bd 3c45 213d
00000390: 82c5 09bd 7026 293c cc37 c9bc a08f fabb
000003a0: b801 81bd 9d2c ff3c 7939 99bd 9a40 c03c
000003b0: e6bc 4c3d 8a59 853d 5558 f5bc e446 0cbd
000003c0: 9a3f 43bd 4c83 d33d 3ef1 c63b 48d7 f93d
000003d0: 003e 65bd 2d14 42bd 29b4 5dbc a04d a0bc
000003e0: 09f0 b4bc a47e 193c 2d45 8c3d 3a15 55bb
000003f0: 6d14 bcbd b556 3d3d 818e b2bc 62fc dfbc

bias f4 [128]
-0.023457767 -0.04528558 -0.018012868 0.026195334 -0.036004856 -0.09707777 -0.042066872 -0.061919514
-0.090570085 -0.07369825 -0.038566288 -0.021733651 -0.02999762 -0.012876318 -0.08930351 0.027196985
0.034880858 0.055231474 -0.071610704 -0.042260073 -0.06268352 0.06315215 -0.062747836 -0.011287104
0.00032842424 0.008833196 -0.08297486 -0.08808327 -0.05473535 -0.05258296 -0.05211437 0.009925644
-0.045146942 0.0041301716 -0.035305932 -0.06537263 -0.024336731 0.01266374 0.012868848 0.019822339
-0.08482538 -0.01583281 -0.064413145 -0.009197172 -0.07541668 -0.06638152 -0.031020598 -0.067838915
-0.0019208692 -0.10842451 0.0031331347 -0.0078081307 0.0068799625 -0.038658332 0.0096069975 -0.06809294
-0.0012422228 -0.0795066 -0.015521465 -0.042089418 0.045372277 -0.015962133 -0.015848823 -0.011232501
0.0022661951 -0.07578355 -0.0011029404 0.011585772 -0.026255561 -0.007716398 -0.057774495 0.009423635
-0.074686624 -0.009675008 -0.036479786 -0.07800594 -0.04453164 -0.03180175 -0.034013387 -0.0404917
-0.022064866 -0.01489024 -0.08189338 0.037471835 0.018834157 0.024526833 -0.04077286 -0.0695972
-0.05673157 0.03397122 -0.15774032 -0.034393877 -0.009330724 -0.07235197 0.021470184 0.0026564978
-0.06003174 -0.0688614 -0.021692952 0.012720276 0.004664547 -0.05735519 0.038915586 -0.04040033
-0.027899835 -0.05940675 -0.020863794 0.026589349 -0.012803677 -0.051326502 -0.05040364 0.057959963
-0.022556774 -0.015601314 0.004686359 -0.028786775 0.023909783 -0.107391626 -0.032673858 -0.09137019
0.008209811 -0.0033490348 -0.02915568 -0.06332671 -0.051731434 -0.0038603863 -0.07931242 0.0009686554
00000000: 812a c0bc 5f7d 39bd b98f 93bc 9997 d63c
00000010: d479 13bd b6d0 c6bd 504e 2cbd 519f 7dbd
00000020: cf7c b9bd 1cef 96bd aff7 1dbd c50a b2bc
00000030: 92bd f5bc 31f7 52bc c2e4 b6bd 36cc de3c
00000040: 3bdf 0e3d 663a 623d a2a8 92bd e618 2dbd
00000050: 3860 80bd ea55 813d f081 80bd 8ced 38bc
00000060: 5b30 ac39 1cb9 103c b9ee a9bd 0065 b4bd
00000070: 2d32 60bd 3b61 57bd e175 55bd 2b9f 223c
00000080: 00ec 38bd 6456 873b f49c 10bd 16e2 85bd
00000090: d35d c7bc 937b 4f3c dcd7 523c 7562 a23c
000000a0: eeb8 adbd cfb3 81bc 0aeb 83bd bcaf 16bc
000000b0: 0f74 9abd 09f3 87bd e91e febc 21ef 8abd
000000c0: adc5 fbba ab0d debd 4755 4d3b 59db ffbb
000000d0: 4f71 e13b 3358 1ebd ab66 1d3c 5074 8bbd
000000e0: 15d2 a2ba 5bd4 a2bd be4d 7ebc f465 2cbd
000000f0: 48d8 393d 05c3 82bc 64d5 81bc 8608 38bc
00000100: 7284 143b 6834 9bbd 8a90 90ba 40d2 3d3c
00000110: e715 d7bc d7d9 fcbb f3a4 6cbd 9765 1a3c
00000120: 4df5 98bd ed83 1ebc d46b 15bd 94c1 9fbd
00000130: cf66 36bd 8d42 02bd 9f51 0bbd a0da 25bd
00000140: 61c1 b4bc 31f6 73bc b7b7 a7bd 117c 193d
00000150: 174a 9a3c 7fec c83c 7101 27bd fa88 8ebd
00000160: 5d5f 68bd 6825 0b3d ae86 21be 98e0 0cbd
00000170: e5df 18bc 452d 94bd 3de2 af3c a318 2e3b
00000180: d8e3 75bd 3507 8dbd 6bb5 b1bc b468 503c
00000190: 0ed9 983b 47ed 6abd f365 1f3d d17a 25bd
000001a0: 328e e4bc 7e54 73bd 8cea aabc e8d1 d93c
000001b0: 83c6 51bc bd3b 52bd 0c74 4ebd 6d67 6d3d
000001c0: fcc8 b8bc a79c 7fbc 0790 993b 3ed2 ebbc
000001d0: 73de c33c 24f0 dbbd 06d5 05bd 4b20 bbbd
000001e0: 7182 063c 7b7b 5bbb e5d7 eebc 6fb1 81bd
000001f0: 57e4 53bd 89fe 7cbb 8d6e a2bd 5ded 7d3a

weight f4 [64, 128]
-0.0114794215 -0.02167068 0.062054463 0.027303124 -0.026480554 0.062133558 -0.09623266 -0.042264502
-0.010376608 0.06386787 -0.07893766 0.037838094 0.047563434 -0.016523665 0.05265995 0.035255812
0.0064566503 0.001696974 -0.06152352 0.042608783 0.008382473 0.047947425 0.045480818 0.06858029
-0.038929723 -0.059520774 -0.004903481 -0.0069606327 0.071048096 0.047572393 -0.046756256 0.02049357
0.025948515 -0.025198227 0.0077730506 -0.016949316 -0.0673184 0.0008140956 0.03823233 -0.054595567
0.005477819 0.04131022 -0.061667018 -0.07655968 0.021534748 -0.033338528 -0.043326955 0.04267188
-0.0059822276 0.061535493 -0.09681398 0.010575479 -0.014056974 0.10119442 -0.015884478 -0.012502791
0.06369708 0.037297465 -0.013551126 -0.04373962 -0.005818816 -0.06003121 0.044499177 -0.04510756
0.15614761 -0.097881384 0.05920741 -0.028539343 -0.061645962 0.012984266 -0.066743314 0.044219494
-0.006927263 0.082003094 0.083983555 0.090666264 0.043933775 0.018828299 0.07289826 0.07932066
-0.071945354 0.013627858 -0.040017765 0.05308979 0.079229444 -0.07248871 0.03326842 0.08522912
-0.008021833 -0.035605185 0.00813903 -0.05751799 0.15793356 0.028253453 0.09269065 0.02451095
-0.0071105543 0.097526506 0.09228358 0.01529592 0.11655485 0.039475564 0.078649916 0.03792306
-0.07170655 0.06573442 0.04704083 0.09161022 -0.07383648 0.08149173 0.11926983 0.005833004
-0.04851684 0.03267346 -0.1469852 -0.013449666 0.12465027 0.115182675 -0.008692961 0.010172635
0.037248757 0.024523089 0.054992516 0.04776835 0.047660876 -0.021489441 -0.06402554 -0.023229102
0.09901027 -0.031224985 0.062629074 0.10305329 0.028366938 0.04128336 -0.02886312 -0.021754261
-0.088041104 -0.03715955 -0.06617198 0.028732086 -0.10468449 0.116538905 -0.13046966 0.026134314
-0.021273993 -0.008855176 -0.023955353 -0.045784153 0.03989679 0.04581737 0.0029582225 -0.03872526
-0.02152136 -0.008868872 0.036950048 -0.043084625 0.12571222 0.108240314 -0.029608926 0.061268125
0.028930357 -0.029741818 0.091792695 0.02937486 0.008820333 0.06088233 0.016942807 0.052537035
0.013243273 0.17150097 0.029366372 0.11279163 -0.034546327 0.12579188 -0.0046271486 0.0052721286
-0.08333385 0.11425981 0.09814748 -0.009110089 0.036355946 0.09495568 0.07998436 -0.03481529
0.09983788 0.11498177 0.060599323 0.052947514 0.16901672 0.08100762 0.05688325 0.037872363
0.07176945 0.010375993 0.022725154 0.07980519 -0.094125025 0.022643289 -0.0017202966 -0.0071230466
-0.066289686 0.0658897 -0.064675145 -0.08235456 0.03875999 0.11030053 0.012815833 -0.107040286
0.0013015465 0.07806337 -0.048543382 -0.020069703 -0.026750805 0.018589586 0.071884826 0.022506066
-0.026551545 0.015487878 -0.09861002 0.10078359 0.07848799 0.046509575 0.026282093 -0.036930982
0.021472594 -0.09028175 0.057648867 0.0029842057 -0.1132261 0.024820168 -0.10031218 0.029100236
-0.0611275 0.028126394 0.019030945 -0.09787536 0.0011315334 0.08975892 -0.12739512 0.007977343
-0.089374766 -0.12951232 0.107572354 0.01839517 -0.042473435 0.0825056 -0.0014333088 -0.061482523
0.11424426 0.088396706 -0.046753097 -0.16704474 -0.020924527 0.053573746 -0.21116272 -0.008691261
00000000: 2f14 3cbc b686 b1bc d22c 7e3d cdaa df3c
00000010: bfed d8bc c27f 7e3d a115 c5bd 8b1d 2dbd
00000020: a602 2abc 28cd 823d 11aa a1bd 1efc 1a3d
00000030: e0d1 423d a35c 87bc f6b1 573d 6668 103d
00000040: 4f92 d33b 006d de3a 1600 7cbd 8c86 2e3d
00000050: a456 093c 8564 443d 184a 3a3d d373 8c3d
00000060: c674 1fbd 0ecc 73bd 61ad a0bb 0516 e4bb
00000070: aa81 913d 45db 423d 7d83 3fbd 22e2 a73c
00000080: fb91 d43c 836c cebc 13b5 fe3b 4bd9 8abc
00000090: 3bde 89bd 0869 553a 8199 1c3d 9a9f 5fbd
000000a0: 477f b33b e834 293d 8e96 7cbd 52cb 9cbd
000000b0: a469 b03c fb8d 08bd 9b77 31bd b6c8 2e3d
000000c0: 9006 c4bb a40c 7c3d 6846 c6bd c644 2d3c
000000d0: 394f 66bc 053f cf3d 2a20 82bc 82d8 4cbc
000000e0: 9d73 823d 3ac5 183d 8b05 5ebc 5128 33bd
000000f0: c4ab bebb 49e3 75bd c544 363d b4c2 38bd
00000100: 29e5 1f3e 0976 c8bd 7883 723d 57cb e9bc
00000110: 7a80 7cbd f5bb 543c b8b0 88bd 801f 353d
00000120: 18fe e2bb 3df1 a73d 92ff ab3d 3caf b93d
00000130: e7f3 333d ce3d 9a3c af4b 953d df72 a23d
00000140: 1658 93bd 6147 5f3c abe9 23bd ae74 593d
00000150: 0c43 a23d f674 94bd 7744 083d 9b8c ae3d
00000160: 026e 03bc bed6 11bd 9159 053c fc97 6bbd
00000170: 56b9 213e c973 e73c 98d4 bd3d 30cb c83c
00000180: a7ff e8bb fabb c73d 2cff bc3d bd9b 7a3c
00000190: 4fb4 ee3d 21b1 213d 3513 a13d 3655 1b3d
000001a0: e2da 92bd c59f 863d e3ad 403d 249e bb3d
000001b0: 9537 97bd 23e5 a63d be43 f43d c922 bf3b
000001c0: 98b9 46bd 9bd4 053d 4a83 16be fd5b 5cbc
000001d0: a448 ff3d e5e4 eb3d ec6c 0ebc 20ab 263c
000001e0: 2792 183d a5e4 c83c d53f 613d bfa8 433d
000001f0: 0d38 433d a00a b0bc d31f 83bd f54a bebc
00000200: e5c5 ca3d 8acb ffbc ac43 803d 9a0d d33d
00000210: c861 e83c be18 293d 5a72 ecbc fe35 b2bc
00000220: e54e b4bd 9d34 18bd 2d85 87bd 8d5f eb3c
00000230: d264 d6bd f3ab ee3d d799 05be a117 d63c
00000240: cc46 aebc 4d15 11bc 043e c4bc 2a88 3bbd
00000250: d16a 233d ffaa 3b3d bdde 413b 619e 1ebd
00000260: 904d b0bc bf4e 11bc ef58 173d 8179 30bd
00000270: b4ba 003e 19ad dd3d 6b8e f2bc 49f4 7a3d
00000280: 5bff ec3c 1da5 f3bc cffd bb3d 8ca3 f03c
00000290: 2883 103c c05f 793d a4cb 8a3c 1331 573d
000002a0: 50fa 583c f39d 2f3e bf91 f03c 4cff e63d
000002b0: 7380 0dbd 96cf 003e 569f 97bb d2c1 ac3b
000002c0: f0aa aabd 0c01 ea3d 8c01 c93d 7c42 15bc
000002d0: f9e9 143d 2078 c23d d7ce a33d 7a9a 0ebd
000002e0: cd77 cc3d 907b eb3d ff36 783d 7edf 583d
000002f0: b812 2d3e 53e7 a53d 69fe 683d 0d20 1b3d
00000300: ddfb 923d 1200 2a3c 1a2a ba3c e770 a33d
00000310: 9fc4 c0bd 6b7e b93c 937b e1ba 7268 e9bb
00000320: e3c2 87bd 2ef1 863d 6774 84bd 82a9 a8bd
00000330: ccc2 1e3d 3fe5 e13d 80f9 513c f037 dbbd
00000340: a798 aa3a b0df 9f3d 6dd5 46bd 3869 a4bc
00000350: 8124 dbbc 3049 983c 5a38 933d a45e b83c
00000360: a082 d9bc dec0 7d3c 0df4 c9bd a067 ce3d
00000370: 50be a03d d380 3e3d 8b4d d73c f144 17bd
00000380: 4be7 af3c a3e5 b8bd 3821 6c3d aa92 433b
00000390: 16e3 e7bd aa53 cb3c 7970 cdbd 9e63 ee3c
000003a0: d460 7abd 5369 e63c c9e6 9b3c e072 c8bd
000003b0: f64f 943a 86d3 b73d de73 02be 67b3 023c
000003c0: 1e0a b7bd e19e 04be e54e dc3d 78b1 963c
000003d0: a0f8 2dbd b2f8 a83d dddd bbba 19d5 7bbd
000003e0: e5f8 e93d 5509 b53d 2d80 3fbd c70d 2bbe
000003f0: ea69 abbc 2570 5b3d 0a3b 58be ca65 0ebc

bias f4 [64]
0.08879662 0.018983126 -0.13989145 0.15078579 0.047500934 0.10856299 -0.02056954 0.010906038
-0.05575025 0.011385787 -0.028785022 0.03528361 -0.05386718 0.119859055 0.12277448 0.1216235
-0.09458432 -0.044325065 0.047479838 -0.016194684 0.10988027 -0.116804786 -0.14590031 -0.11047716
-0.07740328 0.030503104 -0.01397974 -0.0391288 0.04489461 -0.060576394 0.030581877 0.08049037
-0.020630173 -0.02360141 -0.16943319 0.07296253 0.19799428 0.08072014 -0.099953726 -0.11373943
-0.08808298 -0.030556494 -0.01840054 0.07254817 0.04572771 -0.09712203 -0.13331841 0.029533781
0.07491991 -0.05303068 -0.0874062 -0.020686427 0.06074528 0.06251897 -0.04391074 -0.12573004
0.082738295 -0.104806654 0.15734622 -0.10964322 -0.09660151 -0.094416186 0.07279388 -0.11249158
00000000: 01db b53d 8082 9b3c b43f 0fbe 9767 1a3e
00000010: 5790 423d 4656 de3d 7481 a8bc 3daf 323c
00000020: 605a 64bd 748b 3a3c 91ce ebbc 8c85 103d
00000030: d5a3 5cbd aa78 f53d 3071 fb3d be15 f93d
00000040: 6db5 c1bd 338e 35bd 387a 423d b7aa 84bc
00000050: e808 e13d 5937 efbd e466 15be d941 e2bd
00000060: 9c85 9ebd a5e1 f93c 480b 65bc 8545 20bd
00000070: 69e3 373d f41e 78bd d886 fa3c 23d8 a43d
00000080: 9c00 a9bc bf57 c1bc e57f 2dbe 616d 953d
00000090: 03bf 4a3e 9a50 a53d 8ab4 ccbd 38f0 e8bd
000000a0: d964 b4bd 9d51 fabc bbbc 96bc 2394 943d
000000b0: fb4c 3b3d eae7 c6bd 9f84 08be d4f0 f13c
000000c0: 9c6f 993d b336 59bd 0602 b3bd 9576 a9bc
000000d0: 0bd0 783d f209 803d c0db 33bd 60bf 00be
000000e0: b272 a93d dfa4 d6bd 5e1f 213e a08c e0bd
000000f0: 03d7 c5bd 465d c1bd f514 953d fc61 e6bd

weight f4 [12, 64]
0.088447414 -0.010261238 -0.051469725 -0.025192067 -0.07161221 0.11282784 0.032733638 0.19933832
-0.14016162 0.029351005 -0.10305902 -0.072574854 0.05024941 -0.12786789 -0.064391494 0.045153428
0.12682499 -0.13887793 0.0646236 -0.005285857 0.05452617 -0.10725833 -0.17795338 -0.13397208
0.03518148 0.12976769 -0.03391107 0.11113887 0.14149958 0.1301806 0.049625665 -0.014607827
-0.0015540563 -0.041812778 0.04563328 -0.10152999 -0.110988855 0.017744206 0.06977386 0.06446945
0.02657788 0.07860297 -0.020755718 -0.020403685 -0.08209888 -0.11371673 -0.030746154 0.11953349
0.0833583 0.019724436 0.04521119 0.04356637 0.16124532 -0.049585298 0.1420427 0.031687815
0.03334765 0.06158234 0.010081206 -0.09311756 -0.05295156 -0.012433509 0.0036603557 -0.14122848
-0.12708212 -0.02890375 0.23469181 0.03930066 0.022667645 0.17684074 -0.14826827 0.09939072
0.14020051 0.044825546 -0.2127429 0.018470818 0.061257847 -0.059886783 0.11255088 0.025862498
0.18716307 0.09700223 -0.02347783 0.08699903 0.040095646 0.1771456 -0.1530834 -0.11499152
-0.02791078 0.055589408 0.234724 0.19260247 -0.0044471878 -0.13217542 0.19279067 -0.009615882
-0.11450255 -0.055775095 0.08485233 -0.010479964 0.004801244 -0.04239295 -0.036012854 0.05098424
0.15886967 0.17888607 -0.079973355 -0.006109452 0.008918105 0.08209893 0.17009482 -0.20662059
-0.043641724 -0.07165114 -0.13989279 0.2794633 -0.0071997894 -0.12992808 0.1071886 0.14332573
0.054188292 0.22824496 -0.09055434 0.098418616 0.24594547 0.091770604 0.07469308 0.047422554
0.07839867 0.067177005 -0.028893908 0.13178095 -0.07208666 -0.051623218 0.1002465 0.014635866
0.010239889 0.113084696 0.012277605 0.0069566783 -0.10451465 0.1602323 0.011023945 0.09915361
0.10812528 -0.055700283 -0.12851709 0.15467092 0.2936302 -0.04786064 -0.05660317 -0.056646485
-0.16079621 -0.08342574 -0.07907967 -0.07668783 0.03354067 -0.040841963 -0.016978607 -0.048821375
0.016572867 -0.012210115 0.016344832 -0.07421124 0.1046896 0.08595112 0.18622044 0.1346206
-0.119028695 -0.25271434 0.16421822 -0.033610985 -0.031267826 -0.21509789 -0.02642746 -0.08018796
0.07991974 0.11517222 0.046628594 0.059567086 0.04239485 0.14583854 0.049310666 0.035878368
0.16189988 -0.0705574 0.19635901 -0.07717969 -0.0540349 0.026030052 0.13944094 -0.1328533
0.0029327758 0.042735606 0.037445698 -0.038672343 -0.07255108 0.053448007 0.07633804 -0.0400659
-0.17726718 -0.06598924 0.13422078 0.13083744 -0.10463795 0.031757865 0.14662057 -0.15373828
0.09190712 0.20128532 -0.011388945 -0.021861536 -0.07338072 -0.038070224 0.08497506 0.11065328
0.1395615 0.050782155 0.07338932 0.012168522 0.00033785048 0.10281925 -0.04771667 0.103111744
-0.08742918 0.0807168 0.023515921 0.017287191 -0.004641254 0.06500923 -0.10766977 -0.1359663
-0.074198626 0.037869964 -0.051488847 -0.12248225 0.082845375 -0.17641701 0.002440569 -0.14891845
-0.004719064 0.010544286 -0.0391461 0.11206319 0.06867657 0.038835004 -0.04196237 0.0029479605
0.030719021 -0.006067681 0.056432657 0.051463075 -0.059145585 0.020361273 0.1388491 -0.075454175
00000000: eb23 b53d c01e 28bc ebd1 52bd 985f cebc
00000010: 6ca9 92bd 4812 e73d b513 063d 581f 4c3e
00000020: 8786 0fbe 8571 f03c 9c10 d3bd 20a2 94bd
00000030: 53d2 4d3d cdef 02be b0df 83bd cdf2 383d
00000040: 69de 013e 0436 0ebe 6159 843d fb34 adbb
00000050: d556 5f3d 41aa dbbd 6939 36be fa2f 09be
00000060: 751a 103d d2e1 043e 56e6 0abd c79c e33d
00000070: 44e5 103e 104e 053e 4844 4b3d ab55 6fbc
00000080: 7ab1 cbba e043 2bbd f6e9 3a3d f5ee cfbd
00000090: 204e e3bd 4c5c 913c 99e5 8e3d 8f08 843d
000000a0: dbb9 d93c 98fa a03d e507 aabc a125 a7bc
000000b0: 7523 a8bd 51e4 e8bd 5cdf fbbc f9cd f43d
000000c0: c2b7 aa3d 2495 a13c 5e2f 393d a672 323d
000000d0: 7e1d 253e f419 4bbd a473 113e 15cb 013d
000000e0: 8c97 083d c43d 7c3d a52b 253c 6bb4 bebd
000000f0: bce3 58bd ebb5 4bbc 94e2 6f3b 339e 10be
00000100: d121 02be 8fc7 ecbc 0d53 703e bbf9 203d
00000110: 7fb1 b93c bd15 353e a3d3 17be 5d8d cb3d
00000120: b990 0f3e fe9a 373d 46d9 59be 1d50 973c
00000130: 82e9 7a3d d84b 75bd 1381 e63d 97dd d33c
00000140: ada7 3f3e 1ba9 c63d 9454 c0bc 8c2c b23d
00000150: 553b 243d a865 353e e5c1 1cbe ad80 ebbd
00000160: 26a5 e4bc b8b1 633d 7d5b 703e 9539 453e
00000170: b7b9 91bb fe58 07be eb6a 453e ef8b 1dbc
00000180: 5080 eabd 6d74 64bd 0fc7 ad3d 28b4 2bbc
00000190: c153 9d3b 3ba4 2dbd 3782 13bd dad4 503d
000001a0: bbae 223e e92d 373e 12c9 a3bd cc31 c8bb
000001b0: 3e1d 123c 7c23 a83d 562d 2e3e 5994 53be
000001c0: aac1 32bd d5bd 92bd 0e40 0fbe d015 8f3e
000001d0: 36ec ebbb de0b 05be b285 db3d fbc3 123e
000001e0: 8bf4 5d3d 0cb9 693e 8e74 b9bd b38f c93d
000001f0: 21d9 7b3e 3af2 bb3d aff8 983d 273e 423d
00000200: 7b8f a03d 1994 893d ebb2 ecbc 96f1 063e
00000210: 2ca2 93bd de72 53bd 094e cd3d 45cb 6f3c
00000220: 35c5 273c f398 e73d 0228 493c d9f4 e33b
00000230: c70b d6bd f013 243e c79d 343c 0c11 cb3d
00000240: c970 dd3d fb25 64bd fc99 03be 0e62 1e3e
00000250: b356 963e 8509 44bd bad8 67bd 2506 68bd
00000260: c3a7 24be 1ddb aabd 86f4 a1bd 820e 9dbd
00000270: f161 093d e749 27bd b816 8bbc ecf8 47bd
00000280: d2c3 873c ef0c 48bc 99e5 853c 10fc 97bd
00000290: 8067 d63d 2407 b03d 92b0 3e3e fcd9 093e
000002a0: 51c5 f3bd c663 81be d228 283e acab 09bd
000002b0: b112 00bd 9f42 5cbe 677e d8bc 9639 a4bd
000002c0: f6ac a33d 6adf eb3d a0fd 3e3d 9efc 733d
000002d0: 39a6 2d3d b356 153e fbf9 493d 32f5 123d
000002e0: 15c9 253e 6680 90bd 5612 493e 6310 9ebd
000002f0: b353 5dbd fa3c d53c 9bc9 0e3e b20a 08be
00000300: d033 403b 880b 2f3d a960 193d e466 1ebd
00000310: a995 94bd 4cec 5a3d 1e57 9c3d 241c 24bd
00000320: 8785 35be 5e25 87bd 2c71 093e 40fa 053e
00000330: 6c4c d6bd 8914 023d b423 163e 916d 1dbe
00000340: cd39 bc3d bd1d 4e3e b398 3abc f716 b3bc
00000350: a248 96bd 86ef 1bbd 6707 ae3d 309e e23d
00000360: 36e9 0e3e f300 503d 244d 963d 7b5e 473c
00000370: 8621 b139 e692 d23d 8e72 43bd 402c d33d
00000380: 120e b3bd da4e a53d 76a4 c03c de9d 8d3c
00000390: a915 98bb 8f23 853d f881 dcbd c03a 0bbe
000003a0: 73f5 97bd 891d 1b3d f8e5 52bd f9d7 fabd
000003b0: d6aa a93d a9a6 34be f4f1 1f3b 147e 18be
000003c0: 61a2 9abb f1c1 2c3c a957 20bd 6381 e53d
000003d0: 4da6 8c3d 7411 1f3d bce0 2bbd 9232 413b
000003e0: 75a6 fb3c 66d3 c6bb ee25 673d f2ca 523d
000003f0: a442 72bd afcc a63c 752e 0e3e b887 9abd

bias f4 [12]
-0.03035955 -0.22516815 0.16193841 0.115937725 -0.0016601309 0.028726963 0.016472908 -0.067558296
0.21695094 0.09847306 -0.028605899 0.094968274
00000000: 97b4 f8bc 7b92 66be 2fd3 253e c270 ed3d
00000010: c098 d9ba cf54 eb3c 31f2 863c 015c 8abd
00000020: 6328 5e3e 3eac c93d eb56 eabc ba7e c23d
