logs/a1_amp_example/exported/policies/policy_1.pt (torch, 253704 bytes, 8 tensors)

weight f4 [256, 72]
00000000: 8369 283e eb89 543d 308f 21be 4633 50be
00000010: f1a3 853e a6c7 cd3d bf58 ad3e ec64 a03e
00000020: 9a6c 8f3c 873c 71bc 80d2 363d 9c6e 233e
00000030: 4329 263d 70fd c93d fb02 15bb 4bbe 87bd
00000040: 3102 953d 8c4f e0bd 40a8 003e 7f7f fbbd
00000050: 97f0 d4bc 2ef7 f6bd 251a c2bc 89c1 133d
00000060: b8ea c4bd 9031 63bd 5af6 5cbd d169 733d
00000070: 929b 27be 5e2e 44bd 780b 95bd b148 df3c
00000080: d362 02bd 4273 4bbe 15dc 54bd 9bcc e83d
00000090: 9868 bd3c 76d7 7a3d fdc5 913d 749d 693d
000000a0: 63bd 143d 49f7 023c 09d6 403d dc36 8fbd
000000b0: 7462 603d 169a 0dbd 13da 1fbb f631 0cbd
000000c0: 014b 98bd 2417 4abc 60d8 efbb d405 073e
000000d0: 11ec 553d 2850 993d 08c0 d13d 2dcb cc3c
000000e0: 911a e5bc a2ef e23d 0719 a5bd 5492 0c3d
000000f0: ad1c f33d 1f1e 17bd 9f6c 1cbd 2889 37bc
00000100: 77dd d2bc 486b 9cbb 91d1 25bd 5266 c03d
00000110: 207a a33d 5b13 18bd 28d0 753d 5d4a b33c
00000120: 1717 903d ddd9 7ebb 26d6 08be bd3d 84bd
00000130: 50b6 a93c e8b8 08bd 9067 3c3e 4f0d 8b3e
00000140: 7f30 87bb a055 953d 3d7b 13bc e360 973d
00000150: 722d 79be 9cf0 b4bd e91b cb3d 9518 da3d
00000160: 417a d6bd fd18 71bc 6894 7f3e 740b 24be
00000170: 470f 47bd bc11 03be 5de7 99be 0ecf b83c
00000180: 80c7 2b3e a2b8 19bd 087b 743d f706 123e
00000190: 6feb cf3d c1c4 f83d bfd6 e6bd 7b20 3ebc
000001a0: ae9f 94bd 7cfe f6be d193 07be 0fcb 92bb
000001b0: 3e23 063d 3b94 d8bd e6ab 413d 5f68 073e
000001c0: 0374 c0bb 77b2 913d 6153 2a3d a886 3dbd
000001d0: bcd0 1dbc d957 90bd 7442 4abd 648e e2bd
000001e0: ade5 afbd a594 063d 23f5 5a3c 7605 f539
000001f0: 551a 8ebd 74dc 463d 5720 d63d 4f31 6a3d
00000200: 7f42 013d a380 9a3d 23d8 7cbd 58f3 37bd
00000210: 2c20 9bbd b565 1c3d bdd4 c43b 3ea0 8e3d
00000220: e014 9cbd d5cc db3d 8ab0 2e3d a625 9e3d
00000230: d62b a2bc aeb0 f73c 0524 94bc 36f7 823d
00000240: 02e6 8c3e 697d 923d 6e76 d6bd 066a 8bbc
00000250: 3324 f83d 4d01 8cbe dda4 7a3e d9a4 f63d
00000260: 50bd bfbd 7fd7 8f3e f7e8 f63d 074f 343e
00000270: 8fd6 0ebd 245f 2bbc c904 66bd 367f 503d
00000280: 3454 a73d f687 62ba 7447 5abd 4aa1 d83d
00000290: 644b 09bd 9dba e4bd 5249 17be 8f50 c23b
000002a0: 89ee d3bd b4e5 f4bd 2b5b 103e 8373 983a
000002b0: ed62 963b 6709 1e3d a6d6 44be 933d 943e
000002c0: a8ea 14be 5d6d 8abd a0fe f9bd eb8b 313d
000002d0: c6f9 97bd 1056 a53d 422e c53c ebeb 943d
000002e0: 462e 9d3d 32b8 86bc f0be 023a 9132 7f3d
000002f0: d621 e5bd 4bb6 89bc e358 d5bd bd9c 6abd
00000300: bca2 44bc d1ac 7a3d 603b 173e 06c5 22bb
00000310: b1b1 08bd 492e 5c3c cacf 483e 4401 433e
00000320: 8d39 d5bd 3f6d dd3c 6726 003e 8c16 c3bc
00000330: 779f c43d 4197 cd3d 1d64 22bd ecf1 bfbc
00000340: 40f5 f13c 7da6 9a3d 0819 963d c5b7 6abd
00000350: ddb2 d4bd 2892 18bd 2326 093c 17b2 4a3d
00000360: 1b14 b63b 422d bebd e9a4 743d 94dd 5d3c
00000370: 5b89 433e 828b 56be 712c 18bc 1b62 a3bd
00000380: 7e55 97bd c6a2 0a3d 10a1 263e 38a0 b53e
00000390: dfb7 e7bd de64 28be 2926 21be de50 30be
000003a0: 7691 eebb cb5f 80bd f8f3 a63e b1db 023e
000003b0: 98d2 ad3e 82df 60be a297 85bd f9ff 29bd
000003c0: b191 67be e50e b03d 8782 803d 078e 7bbe
000003d0: 70a1 423d 53d1 01be 76e2 e63e 11d2 223d
000003e0: 9278 3c3e fb17 15be 4737 f53d 5590 903e
000003f0: db50 77bc 1daa 89bd c99b aabc 2ee8 73bd
0.164465 0.05188934 -0.15777278 -0.2033206 0.2610164 0.100478455 0.3385677 0.31326997
0.01750784 -0.0147239035 0.044634342 0.15960163 0.040566694 0.098627925 -0.0022737372 -0.066280924
0.072758086 -0.10952672 0.12564182 -0.12280177 -0.025993628 -0.120588645 -0.023694107 0.03607324
-0.096150815 -0.05546719 -0.053945877 0.059427086 -0.16367939 -0.04789578 -0.07277578 0.027256342
-0.031832527 -0.19868186 -0.0519677 0.113671504 0.023121163 0.061240636 0.071178414 0.057034925
0.036313426 0.007993528 0.04707912 -0.069928855 0.054781392 -0.034570776 -0.0024391457 -0.034227334
-0.07436181 -0.012334619 -0.007319495 0.13185817 0.052227084 0.07485992 0.10241705 0.024999226
-0.02796677 0.110808626 -0.08061414 0.034319237 0.11870704 -0.03689396 -0.038189527 -0.011202134
-0.025740368 -0.004773531 -0.04048306 0.09394516 0.07982278 -0.037127834 0.060012966 0.021886045
0.07035654 -0.003888718 -0.13362941 -0.06457088 0.020716816 -0.033379465 0.18398881 0.2715859
-0.004125654 0.07291722 -0.00900155 0.073915266 -0.24333742 -0.08834955 0.09917433 0.1064922
-0.10472537 -0.01471543 0.24958956 -0.16019994 -0.048598554 -0.12799734 -0.3005933 0.022559669
0.16775322 -0.037529595 0.059687644 0.1426047 0.10152327 0.12146903 -0.11271428 -0.011604424
-0.07257019 -0.4824103 -0.13239981 -0.004479773 0.032748453 -0.10575148 0.047283076 0.13223408
-0.0058732047 0.071141176 0.041583423 -0.046270996 -0.009632286 -0.070480056 -0.04937978 -0.11062315
-0.08588729 0.032856602 0.013364109 0.0004673411 -0.06938616 0.048550084 0.10455387 0.05717593
0.031557556 0.07544067 -0.06172956 -0.044909805 -0.07574496 0.038182933 0.0060068057 0.069641575
-0.07621169 0.10732428 0.04264883 0.077220246 -0.019796293 0.030235615 -0.018083582 0.06394808
0.27519232 0.07152826 -0.104718074 -0.01701833 0.121162795 -0.27344742 0.24476953 0.12043161
-0.0936228 0.28094098 0.12056153 0.17608272 -0.034872588 -0.010459695 -0.056156907 0.050902568
0.08170357 -0.00086414756 -0.0532908 0.105776384 -0.033519164 -0.11168406 -0.14774063 0.0059300135
-0.10348231 -0.11957875 0.14097278 0.0011631105 0.0045894296 0.038583186 -0.19222507 0.28953227
-0.1454264 -0.06759141 -0.12206769 0.043346327 -0.074206874 0.08073056 0.024069909 0.0727156
0.076748416 -0.016445253 0.00049875583 0.062304083 -0.11188094 -0.016810557 -0.104173444 -0.057278384
-0.0120016895 0.061199967 0.14768744 -0.0024836673 -0.033372585 0.01343877 0.19610515 0.19043452
-0.104113676 0.027029632 0.1251465 -0.023814462 0.09600728 0.10038615 -0.039646257 -0.023430787
0.02953589 0.07551286 0.07328993 -0.057304163 -0.10385678 -0.03724876 0.008370909 0.049486246
0.005556596 -0.09285976 0.059727583 0.013541598 0.19095366 -0.20951656 -0.009287939 -0.079776965
-0.07389353 0.03384664 0.16272378 0.354738 -0.113143675 -0.16444728 -0.15737213 -0.17218348
-0.007280524 -0.06268271 0.32608008 0.12779118 0.33949733 -0.21960261 -0.06523062 -0.04150388
-0.2261417 0.08596591 0.06274896 -0.24565898 0.04751724 -0.12677507 0.4509465 0.039751116
0.18405369 -0.14559929 0.11973434 0.28235117 -0.015094961 -0.067219 -0.020826237 -0.059547596

bias f4 [256]
00000000: 3c89 15bd d089 273c e2a3 d73d a293 81bc
00000010: 9df8 b2bd bbea 213c 3f7b 9dbd a966 923d
00000020: 372f 8d3d 3fee 70bd 0859 8a3d edcf 38bd
00000030: 3f9e f73c fae9 a93d 305e 1c3d b1d8 ee3c
00000040: a664 d2bd ec23 c5bd ac9b a0bd 9ad9 493c
00000050: 64f3 dabd 0eeb 6fbd b39a 9cbd 1ec4 5f3c
00000060: 79e2 313c 7c30 ccbc bc4e b3bd df7f 9d3d
00000070: e164 65bd 04f0 53bd c022 97bd efc6 90bd
00000080: eb52 6b3c b7df 77bd f038 82bc 338e f53c
00000090: 018c b6bd f0a2 4cbc c8a0 a83d fbaf b93d
000000a0: 4ab8 ec3c 1998 89bd 08e9 16bd d069 ddbd
000000b0: 49a8 fbbc d10e 4d3d 7d5b 7b3d f009 963d
000000c0: e815 b9bd 29c1 29bd 682e f3bc 6d5b 6c3d
000000d0: 6a4c a43c 906d c2bd 1193 953d 164d 213d
000000e0: d67b e33c d12c d0bd dec7 59bd 6a2b b9bd
000000f0: 7aa2 a23d d36f b13d 55cc cebc ee17 943d
00000100: fc78 02bd 8b9f 0f3e a013 933d 8458 753d
00000110: 318c c03c 27b3 563d d4fe 133d 8d2b bd3d
00000120: 00e9 923d 4270 383d e53a 883d 7665 f33c
00000130: 3433 eb3d 2df1 63bd 217d 4ebd 1cc1 11be
00000140: a568 c13d ff17 ea3d f511 9bbc 9c71 e03c
00000150: 8b6d 783c 44ac 093e 9f9c 9abd a8f7 a2bd
00000160: 1fd4 6a3d 5aa6 eb3a 3099 70bd 0cf3 92bd
00000170: 71df 82bd 8232 a23d e640 e03c 419b b8bc
00000180: 9f2d e13d 8297 81bd 870c 1c3d e1e7 81bd
00000190: 5a8d 93bd 4f26 a1bd b164 bc3d 6dec b53d
000001a0: 84ec b0bd 00a2 833d 8482 d63c 3049 203d
000001b0: f261 bfbd 7d71 82bd 40c4 c2bd 3132 64ba
000001c0: 1187 813c 5b24 2bbd 1d44 a0bd 6df8 b6bd
000001d0: 7b34 7f3d f4e8 6ebd 94d8 ea3d 392d e5bc
000001e0: a96c 0ebd 41ea a13d 0004 d43d 7841 d33c
000001f0: 8545 96bd 6d4c 01be 222a 5bbc a1b4 80bd
00000200: e020 1cbd 9127 383d 3c5b 9cbd ce0f bfbd
00000210: 695c d83c c38f d2bd 6d16 5cbc 5f5c 933d
00000220: 4102 ef3c 3fa2 fdbd bf3c c73d 97ab d5bd
00000230: 513b 1cbe ec43 72bd ad33 9e3d 1c81 9dbd
00000240: 592e 80bd 90ae bcbd dd9c d03d c23a 433d
00000250: 4929 1a3c e37b 28bd 1f05 de3d c1b7 acbd
00000260: 1977 0cbd 8551 ea3c 131c 92bd 37fb 8d3d
00000270: d8af 70bc a562 d4bd 3dec 3fbc 9381 1dbe
00000280: 4e92 5a3d b4c2 e5bc 467d 5f3c c049 dc3d
00000290: 9e2b 98bd ae00 c4bd 1206 a63c 31a4 f63d
000002a0: 30aa 263d a829 dabd 0074 33bb e5f2 473d
000002b0: 988e 293d 1414 23be b49f b4bc e175 a53c
000002c0: accc 41bc 20a3 fabd c39a 9f3d 3306 08bc
000002d0: 5aac 04be 8a12 f53c f866 01bd b037 d33d
000002e0: bee4 a23d 8020 1c3d 67f8 cf3d 4da8 bdbd
000002f0: bc14 c4bd 1fec 1cbd e791 dfbd 6a5c c7bc
00000300: 07a1 43bd b9cd 04bc 5e09 bd3c 4452 8bbc
00000310: 45a0 a3bd 3bdc 1d3d 6bab 293d 2f81 6a3a
00000320: 575e a53d 2dc9 803d a3f9 d8bc 8a12 d33d
00000330: 08db 4cbd cd87 443c 45d8 aebd 49bb d33d
00000340: 4f69 6ebd 5fb7 64bd 0c39 9fbd be47 41bd
00000350: 746f a7bd 15e0 7dbc 0d3b 843d e278 033e
00000360: f6c9 41bd fd31 2d3d ec61 8f3c 9122 cebd
00000370: 2e1e dcbd 07d4 d0bc a8cb aa3d c3a6 443d
00000380: 0ada cb3d 4cd9 1e3d 73d3 b03b 6a3b a93c
00000390: a971 053d c2ab 1a3e 2f54 6d3d 45e2 973c
000003a0: 7bff c8bd c316 b83c 2df5 af3c 8320 a3bd
000003b0: cce4 41ba c9e5 bcbc 6452 573b ad11 153d
000003c0: 15a3 90bc b0fb 1fbc ebf2 6d3c 749f 88bd
000003d0: 5c13 02bd 4eb2 4fbd d7f8 2a3d 6191 b8bc
000003e0: 694a e8bc b082 6a3c 965c 8d3d b3f9 80bd
000003f0: 37ce 303d 2769 1d3b 5b8f 883c d90e 1dbd
-0.03650783 0.010225728 0.10529305 -0.015817467 -0.087388255 0.009882624 -0.07689523 0.07148487
0.06893771 -0.05882096 0.067552626 -0.04512017 0.030226825 0.082965806 0.03817576 0.02915606
-0.102731034 -0.09625992 -0.07842192 0.012319947 -0.10690954 -0.058573775 -0.07646694 0.013657598
0.010857218 -0.024925463 -0.08755252 0.07690405 -0.05600441 -0.05174257 -0.07379675 -0.070691936
0.014363031 -0.060516085 -0.01589629 0.029975032 -0.089134224 -0.012490019 0.082337916 0.09066769
0.02889647 -0.067184635 -0.03684333 -0.10811198 -0.030719893 0.05006296 0.061366547 0.07326114
-0.090373814 -0.041443978 -0.029685214 0.057704378 0.020055968 -0.09493554 0.07303441 0.039380156
0.02776901 -0.10164798 -0.053169124 -0.09041484 0.07941146 0.08663907 -0.025243917 0.07231127
-0.03185366 0.14025705 0.071814775 0.05989887 0.023504348 0.052416947 0.036131695 0.09236822
0.071733475 0.045028932 0.06651858 0.029711466 0.114843756 -0.055649925 -0.0504123 -0.14233822
0.094437875 0.11430358 -0.018929461 0.027397923 0.015162836 0.1344462 -0.07549404 -0.07957393
0.0573312 0.0017978654 -0.05873984 -0.07175264 -0.06390274 0.0791979 0.027374696 -0.022534968
0.1099503 -0.06327726 0.038097885 -0.063430555 -0.07204695 -0.07868635 0.09198893 0.08882985
-0.08638862 0.064273834 0.026185282 0.039132297 -0.093448535 -0.063693024 -0.09510088 -0.0008704989
0.015811475 -0.04178272 -0.078254916 -0.08934102 0.06230591 -0.05832763 0.1146709 -0.027975665
-0.034771595 0.079060085 0.103523254 0.025788054 -0.073374785 -0.1262681 -0.013376744 -0.06284452
-0.03811729 0.04495961 -0.07634589 -0.093291864 0.026411252 -0.102813266 -0.013433081 0.07195353
0.02917588 -0.123844616 0.09728383 -0.10433119 -0.15257002 -0.059146807 0.077247 -0.07690641
-0.0625884 -0.09212983 0.10186169 0.047663458 0.009409257 -0.041133773 0.108408205 -0.08433486
-0.034293268 0.028603325 -0.07134261 0.06932681 -0.014690362 -0.103703775 -0.011714038 -0.1538146
0.053362183 -0.028046943 0.013640707 0.10756254 -0.07430194 -0.09570442 0.020266566 0.12043036
0.040689647 -0.106524765 -0.0027382374 0.048815627 0.041395754 -0.15925628 -0.022048809 0.02019781
-0.011828583 -0.12238145 0.0779319 -0.008302259 -0.12956372 0.029916067 -0.03159234 0.10313356
0.07953785 0.038116932 0.10154801 -0.092606165 -0.09574267 -0.03831112 -0.109165005 -0.024336059
-0.04776099 -0.008105689 0.023075756 -0.017007 -0.07989553 0.038540106 0.041423243 0.00089456415
0.080746345 0.06288371 -0.026486224 0.103062704 -0.050013572 0.011995268 -0.08537344 0.10338456
-0.0582059 -0.05583894 -0.07774553 -0.04718756 -0.08175555 -0.01549532 0.064565755 0.12839082
-0.047311746 0.042284 0.017502747 -0.10065187 -0.10747944 -0.025491728 0.083396256 0.0480106
0.09953697 0.03878145 0.0053963005 0.020658214 0.032579098 0.15104583 0.05794161 0.01854051
-0.09814354 0.022471791 0.021479214 -0.079651855 -0.0007396459 -0.023058789 0.0032855505 0.03639381
-0.017655889 -0.009764597 0.014523248 -0.06671038 -0.031756744 -0.050707154 0.04174122 -0.02253026
-0.028355794 0.014313385 0.06902425 -0.06297626 0.04316541 0.0024018975 0.01666992 -0.038344238

weight f4 [128, 256]
00000000: 210a 903d f14c 133d 526c 7abd d837 99bd
00000010: 50cc 9abd 5c8b 24bd 3120 97bd f44e 57bd
00000020: dc43 243d 08df 68bd 647f a8bc 7902 0dbd
00000030: e7f8 833d 8a5e b53c de0e b03d 270d 9abd
00000040: c45d 86bb 05ea 98bc 1216 8c3d 024c 543d
00000050: 6d6f 5abd 93bd b4bc 0c37 1f3d d6af c83a
00000060: a629 e93d 9817 84bb d36c 113e 746a ebbd
00000070: 74f0 f1ba 84d3 ba3c 1ee1 15bd 7137 b33b
00000080: eabf 003d 1317 b93d b9e0 473d 8fba 663d
00000090: 10df 6bbd 2743 80bd 3c62 b0bd 2fc0 303d
000000a0: 8c53 31bd 0452 f33c 6cae cd3d ebb5 56bc
000000b0: b765 093c 6d31 62bd 8119 533c 2afd ee3c
000000c0: c034 24bc dd38 6d3c e40f 413d c907 b03c
000000d0: 7e00 223c 7966 b7bd 99e4 9abd 7c50 703d
000000e0: 4c37 85bd ae98 183d 073d 27bd 78f9 1cbe
000000f0: 2460 ebbc c71d 5cbd 1013 5a3c f146 abbc
00000100: b280 ef3c c40f 7fba 1c53 2d3d aa30 59bd
00000110: c788 f4bc 4e72 783d f232 6a3c b698 e4bc
00000120: 136c 7cbb b8b3 84bd d565 4cbd 7436 55bc
00000130: 64fa 9abd bf1c aebc 91d0 363d 7c5f 1dbd
00000140: c45c 88bc 7ac0 913d 88e1 b6bc db21 f93b
00000150: ebb6 c2bd ddaf b3bc 3e46 8bbc 5d2a 183c
00000160: bd19 af3b 1fac 6dbc 8326 babd 88a6 bf3d
00000170: 1639 ad3d 1dfb 353d 6fb9 c6bd 4e6a e53d
00000180: 9d8f 8cbd b858 3fbd f014 b5bd dbab 3f3d
00000190: 2a04 85bd 0c88 b33d 54d4 bbbb 944f e1bd
000001a0: d7b1 163c 245c bdbd a73b edbc 5e73 babb
000001b0: a465 373d a86a cc3c a55e c7bd 3593 1b3c
000001c0: bd20 d8bd 7441 13bd b436 9ebd 921d 4cbc
000001d0: 7cc5 35be 02ac 563d 79e4 373d eb21 093c
000001e0: bb04 283d ba1f 95ba 7db3 2fbc c5a6 c03b
000001f0: fe5b 2c3d f0f0 e3bb 13fa d8bd 4ca9 48bd
00000200: 8fda a13d 7c6f 563d e5c5 453d 14eb 05bd
00000210: 893b 56bc 8064 dfbd 96c2 4ebd aad9 b7bd
00000220: da06 8abd cfd6 a53d 564c 84bd 6060 883c
00000230: 2773 2c3d 64ee 92bd 8df7 7ebc 45b8 3ebd
00000240: b936 0abc 21cd c63d 565a d9bb a1e4 ca3d
00000250: c2d8 fb3c 88e7 6e3c 4385 8bbc d72c ab3c
00000260: acb7 13bd 9779 033d eedd 5ebd cd3d 95bd
00000270: d9d9 50bd d281 a43d 6b05 623c 713d 903d
00000280: 0f2b 9c39 5747 fe3c c325 303b cda7 5d3c
00000290: b790 d9bd f659 64bc c711 24bd 838d bd3c
000002a0: 96ca 87bd 0a10 edbc d696 87bd 8357 b1bb
000002b0: 446f e53c 2351 943b 207d d0bc 7193 95bd
000002c0: 0615 8f3d cbd6 5bbd dc29 95bc 3400 253c
000002d0: 9a64 203c 0676 31bd f9ea 7bbd ee0e d3bd
000002e0: 3f5c cd39 a688 b1bd 688c 07bd 3d34 913d
000002f0: 0079 683c 7c71 503d 58d9 c0bc 1651 c03c
00000300: fd81 9239 91df acbd c858 9ebc 79ef 563b
00000310: e7a6 f83c 09ed 003d 8608 73bc 2b8b 6ebd
00000320: 2ccd 17bd fea4 a5bd 3354 463d c062 6ebc
00000330: 1b79 94bd cbcc b5bd 1575 623d d8ce 12bd
00000340: 5ba4 41bc a10b 853c 5a39 ab3d 5d40 50bc
00000350: b7fa 183d fddf b13c 4c84 bb3d 418b 15be
00000360: 4ef6 aabd 0908 5f3d 3cb3 813c d4e6 aabc
00000370: 5259 0abe b9c8 123d 358a 00bc d42b 203c
00000380: 8f7a 3dbc abd6 443d 3e09 223d 421e 88bc
00000390: c005 48bb e5f4 83bd a665 9f3c eab2 70bd
000003a0: 5249 5e3d 825c cb3c cf21 e53c e1ae d8bc
000003b0: 0fa4 9fbd 4b96 77ba ed8e 573d 035a b2bd
000003c0: 7b23 a2ba e16d 983d 55ab 7abd 675f 203c
000003d0: f247 9fbc 6df9 673c 1d2c d0bb f0a5 603a
000003e0: 825b 6eba 4ab0 34bd 5fab f7bb f6d1 4bbb
000003f0: 9f53 2ebe 00e5 563d d823 83bd f432 60bc
0.07033182 0.03596205 -0.06113846 -0.074813545 -0.07558501 -0.040171966 -0.07379187 -0.05256553
0.04010378 -0.056853324 -0.020568557 -0.034426186 0.06443959 0.022139806 0.08596586 -0.0752204
-0.004100533 -0.018666277 0.06840147 0.0518303 -0.05332892 -0.022063052 0.038870856 0.0015311192
0.11384897 -0.004031133 0.1420167 -0.11494914 -0.0018458501 0.022805937 -0.03659164 0.0054692556
0.031433024 0.09037604 0.048798297 0.05633026 -0.057585776 -0.06262808 -0.08612487 0.04315203
-0.043292567 0.029702194 0.10043034 -0.013104896 0.008386067 -0.055222917 0.012884499 0.029173452
-0.010022342 0.014478889 0.047134295 0.021488087 0.009887813 -0.08955092 -0.07563133 0.058670506
-0.06504688 0.03725498 -0.040829685 -0.1532954 -0.028732367 -0.053739335 0.013310209 -0.020907851
0.029236171 -0.0009729827 0.042315587 -0.053024925 -0.029850377 0.060655884 0.014294373 -0.02790485
-0.0038516566 -0.06479591 -0.049901802 -0.013013471 -0.075672895 -0.021253942 0.0446325 -0.03842114
-0.016645797 0.0711679 -0.022324339 0.007602913 -0.09507545 -0.021934444 -0.017001268 0.009287444
0.0053436444 -0.014506369 -0.09089377 0.09357935 0.08458154 0.044428933 -0.097033374 0.11201917
-0.068633296 -0.04671547 -0.08841884 0.046794754 -0.06494935 0.08766183 -0.0057320986 -0.110015064
0.009197674 -0.0924609 -0.028959109 -0.0056900224 0.044774666 0.024953201 -0.09734849 0.009495546
-0.10553119 -0.035951093 -0.077252775 -0.012458222 -0.17751116 0.052410133 0.044895623 0.008369903
0.041020136 -0.0011377253 -0.010723946 0.0058792555 0.042079918 -0.006956212 -0.10594573 -0.04898958
0.07903015 0.052352414 0.04828443 -0.03269489 -0.013075718 -0.10907841 -0.05047854 -0.08977063
-0.06739588 0.08097612 -0.064598724 0.016647518 0.042102005 -0.07174376 -0.01556195 -0.046562452
-0.008435898 0.09707094 -0.0066330833 0.09906889 0.030743007 0.014581569 -0.017031318 0.020895405
-0.036063835 0.03209838 -0.054410867 -0.07287178 -0.050989006 0.08032574 0.013795237 0.07042969
0.0002978672 0.031039877 0.0026877976 0.013528776 -0.10623305 -0.013937464 -0.040056016 0.023138767
-0.06630437 -0.028938312 -0.066205665 -0.0054120435 0.028007157 0.004526274 -0.02545029 -0.07303513
0.06986432 -0.05367164 -0.018208437 0.010070849 0.00978961 -0.043325447 -0.061503384 -0.10305582
0.00039169376 -0.08668642 -0.033092886 0.07090042 0.014189005 0.050889477 -0.023541138 0.023476165
0.0002794414 -0.084410794 -0.019329444 0.0032796545 0.030353023 0.031476054 -0.014833575 -0.05823819
-0.0370609 -0.080881104 0.048420142 -0.014549911 -0.072496615 -0.08876952 0.05528744 -0.035841793
-0.011818971 0.016240897 0.08360548 -0.012710658 0.037348475 0.021713251 0.09156093 -0.14603902
-0.0834776 0.054451022 0.015832536 -0.02086202 -0.13510635 0.035835955 -0.007845451 0.009776074
-0.011564865 0.048056286 0.039559595 -0.01661599 -0.0030521005 -0.06443194 0.01945765 -0.058764376
0.054269142 0.024824385 0.027970223 -0.026450576 -0.077949636 -0.00094446976 0.05262654 -0.087085746
-0.0012370193 0.07442833 -0.06119855 0.009788371 -0.019443486 0.014158589 -0.006352915 0.00085696485
-0.0009092615 -0.044113435 -0.007558271 -0.0031100488 -0.17024086 0.052464485 -0.06403321 -0.013684023

bias f4 [128]
00000000: 8bf6 5dbd eb14 6d3d a938 99bd b37c aabc
00000010: 661a acbc b987 4ebd 716f 963d 9861 1c3d
00000020: db0d 72bd 14e4 6b3d 965a c1bc 0369 bebc
00000030: c21e 11bd 0cc2 9b3c b4c0 313d 9e32 eb3c
00000040: af00 91bc c785 823c 7716 a9bc 5468 933d
00000050: 47a3 82bc da27 d13c 51f3 b13c 5331 a8bd
00000060: 8f5b f33c e421 d9bc 0408 733c 7c59 ad3c
00000070: d50f 8fbc 0984 d8ba 4afc d1bc bacb dabc
00000080: d632 0c3d 268a 933d 41cc 1ebd 0d5f 603c
00000090: 7990 e83c 504c 6dbd 05b7 0c3d a462 073c
000000a0: 5ca8 1ebd 0d61 ea3c aa8b 2d3b 0370 cbbc
000000b0: d15e 153c 9bf8 e8bc 5346 81bd 2e65 043b
000000c0: 6ec4 ed3c 642c 833b 5d6b e53b c2cd 1bbd
000000d0: e33e dd3c 5bbf eabd b657 72bb fe60 68bc
000000e0: 2d23 dbbc 9d55 b9bc 4be3 843d f94f 6b3c
000000f0: 99ed 3ebc 483a 73bb 8e71 81bd 858b 843b
00000100: 6f53 273d b81d 63bd c027 533d eae6 53bc
00000110: 843a ac3c 1fe9 d93c 1d89 92bc d5f6 6a3d
00000120: 0235 08bd 6a5c 03bd f923 57bd 355c 073d
00000130: 9822 3f3d 0131 783d 8b24 daba f7db c83c
00000140: 7099 b3bb 5688 9fbc f77d 6d3d 6680 4ebd
00000150: bd4a 00bc 82c8 24bd 713a 883c 1c5f cbbc
00000160: c7f1 a3bd 96fd c23c 96ea 6cbd 6339 7e3d
00000170: 497a ca3c c8f4 33bd f767 56bd e7d9 1fbd
00000180: cef6 e23c 79da 8bbd 427d 683d 6dd2 923a
00000190: ef9a 68bd d8ab f6bc e309 3f3c 1fd5 10bc
000001a0: bbef 2cbd 2357 a53c 44ed c43c 082e 89bd
000001b0: a567 f83b 3ffe 2c3d 2c43 0fbd a589 19bc
000001c0: cb12 ea3c 3c9c 84bc 8a3f 25bd 377d 833d
000001d0: 065a 93bc e3c6 a03d 98c9 0dbc 37e3 623c
000001e0: 0fae 35bd 589b 653d 59ef e73b 06c3 9b3c
000001f0: 782e 2c3d 471b 973d 1684 e7bb 74e2 613c
-0.0541902 0.057881277 -0.0748151 -0.020811414 -0.021008682 -0.050422404 0.073454745 0.03817901
-0.059095245 0.05759056 -0.023602765 -0.023243433 -0.035429724 0.019013427 0.043396667 0.02871066
-0.017700521 0.01593293 -0.020640595 0.071976334 -0.015946997 0.025531698 0.021722468 -0.08212533
0.029706744 -0.026505418 0.014833454 0.021160834 -0.017463604 -0.0016518842 -0.025632996 -0.026708473
0.03422817 0.07204084 -0.03876901 0.013694537 0.028389202 -0.057934105 0.03435423 0.008263264
-0.03873478 0.02861073 0.0026480951 -0.024833685 0.009116844 -0.028438857 -0.063122414 0.002020191
0.029024329 0.0040030945 0.007001324 -0.038038023 0.027007526 -0.114622794 -0.003697855 -0.014183281
-0.026750172 -0.022623831 0.06488665 0.014362329 -0.011653327 -0.0037113596 -0.06320487 0.0040449523
0.040851053 -0.055448264 0.05155158 -0.012933472 0.021023996 0.026600419 -0.017887646 0.057364304
-0.033253677 -0.032070555 -0.05252454 0.03304692 0.04666385 0.06059361 -0.0016642971 0.02451895
-0.0054809377 -0.01947419 0.057981458 -0.05041542 -0.007830319 -0.04023028 0.01662943 -0.024825625
-0.080051 0.02380256 -0.057840906 0.062066447 0.024716513 -0.043934613 -0.052345242 -0.039026167
0.027705576 -0.0682878 0.05676008 0.0011201628 -0.05678838 -0.030111238 0.011660072 -0.0088398745
-0.042220812 0.020183152 0.024038918 -0.06698233 0.0075807148 0.042234655 -0.03497617 -0.009371196
0.028573414 -0.01618778 -0.0403438 0.06420367 -0.017987262 0.07850435 -0.008654021 0.013848118
-0.04435545 0.05605635 0.007078093 0.019013893 0.042036504 0.073782496 -0.0070653064 0.013786901

weight f4 [64, 128]
00000000: 077e 5abd 2186 b33c 1377 cdbc f137 b93b
00000010: a623 1b3d 7984 94bb 2f5a da3d ce8c 81bd
00000020: 0073 b33d bbef f2bd ae7e 903d b42e 483d
00000030: 79ed 863c 647c 08bd e1ef d73c 17c9 c33c
00000040: fbb7 813d a7ca 113d 378a 8a3d d701 18bd
00000050: bffd 02bd 1f46 1a3e 287b 87bd e7cd f63d
00000060: 1b52 a6bd 5e6a b73d cc92 e1bc a5f3 043d
00000070: 7cf0 95bc 43c0 b1bc ffc9 bc3d b39b 17bd
00000080: 911f 823d 83b4 d03c c4af bc3d 13f5 acbd
00000090: e9ca bbbb 8161 8cbd 9cb7 31bd 4583 24bc
000000a0: c150 833d 61a5 f8bd e55d fe3b 3376 e63d
000000b0: 71f1 0fbd 0255 e7bc 62cd babc cb75 423d
000000c0: 313d 103e 2173 213d 72ff 703d be47 3bbd
000000d0: 80c5 c6bd eac4 b0bd 2db4 9eba 7edb 88bd
000000e0: c0ab 813c 1914 43be 87f9 163c 6e7b 89bc
000000f0: d50f 5e3d 389f babc 6d8d 17be fa83 bbbd
00000100: 2d01 8cbd dcd6 c33c 09e4 783d 26e6 05be
00000110: 1874 e53d 2ddd 7dbd 20b0 1abe b649 53bb
00000120: 3215 01be 19d1 1cba 2243 26bd e355 08bc
00000130: 3ea6 bd3d 5306 c4bd 5c12 20bd b1c3 5c3d
00000140: 8357 993c 50f2 acbd 9842 a6bc 4239 543b
00000150: 4163 b73b 4441 3d3d 355d f63c fac4 c73c
00000160: 3215 12bc 8036 d5bd ecce 793d a36f 18bd
00000170: 691b 403c e044 a03d 0b48 033d d863 1e3d
00000180: fd72 fb3d 9bfb 57bd 135f 093d 8b53 a23d
00000190: ab90 253d 35cc 083c 9a46 66bd 7470 11be
000001a0: 4ea9 58bd 9aea dbbd b2c5 ce3c 3e89 d4bd
000001b0: 3753 303d d7ad ff3a 3d95 933d 4abd 683c
000001c0: 0f3e f53c 6b77 d7bd eaa9 333c 4852 2f3c
000001d0: 71b0 1ebd b04a 38bd b564 b23c 37ab a03c
000001e0: 1b85 36bc 9a69 c13d 8425 163d 9da6 a1bd
000001f0: 6f50 a8bc 0897 983a 1bb9 f8bc f7f8 02bc
00000200: 6d94 4f3d b165 2bbd 632c 0fbc 57d2 59bd
00000210: d19f 34bd 64a7 a03d ac2b 283d b037 2fbd
00000220: 9232 91bc 672c 61bc faf9 7f3d 24b7 72bd
00000230: 43a2 823d cd2d 2f3c a052 993c 1d49 853d
00000240: db74 813d 9a61 933d 8497 c73d 9a6b 8a3d
00000250: f238 92bd 664e 90bd 63eb 413d 60c3 dbbc
00000260: 352a e03b 32c8 e73d c655 f1bb cfcc b3bd
00000270: 4a7f 9bbd 44cd 9b3d 60dd cf3b 21c2 533d
00000280: 92e8 8bbd 3bf3 f5bc 09b5 993d 90ed abbd
00000290: c15e 71bc b83b 8f3c ff9d 3cbd 2d5d 8cbd
000002a0: 2fde 0dbd 2adf c2bd ed3c 87bd d128 d1bd
000002b0: 0e29 20bd a485 c1bd f22c e5bd bcd8 2c3b
000002c0: b0b7 0dbe 35d4 b1bb a479 503d 855e 24bd
000002d0: ab7e 453b 2187 a03c 4c51 9cbd f9a6 7f3c
000002e0: 3885 b4bd 9732 023d 1926 b43d 19de 5cbd
000002f0: 197c 053d 24c6 f1bd 2261 a73c 45e5 d2bb
00000300: a5c3 44bd cbf6 8a3d 92b7 ef3d 2c12 363d
00000310: d334 c83d 03b6 68bd 2022 e03d 9f6a 843d
00000320: c04d 113e 17ab 2fbd 19f9 96bd 9f66 393c
00000330: 8888 1dbe b6a5 23bb d951 51be 6154 373d
00000340: 0c37 19bd d377 4f3d 5ce4 d03b f8c4 e73d
00000350: 5be2 0ebe 1d5c 03bd 02d4 8e3d 0e27 b93b
00000360: 06d4 9f3d 8fa6 d0bc 7912 f03d fcae 54bd
00000370: 32d1 0abe c985 40bc 5bad 793d e28d cf3c
00000380: 560c 1d3d 13bc abbd 5e47 2cbe ecf0 01be
00000390: f11b 783d fd18 9f3d bcfc 4fbd 705e d5bd
000003a0: b9c5 343e 9fb8 6bbd 279d 06be 5216 05be
000003b0: 7cce ae3c 8278 073e b35d a63d 4249 3fbd
000003c0: 0014 633e a4d2 d3bd 71ea 74bd b0d4 53bd
000003d0: 96bf 1b3e 9598 babd 1e0a 6bbd 85dd ad3c
000003e0: 31c1 2c3d 8ef3 0b3e 560f 05be af64 08be
000003f0: 1698 9fbd 20c2 a8bd a63f 21be 515d a23d
-0.053342845 0.021914544 -0.025081193 0.0056524207 0.037875794 -0.0045323935 0.106617324 -0.063256845
0.08762169 -0.11862131 0.07055412 0.048872665 0.016470658 -0.033321753 0.0263595 0.023899598
0.063339196 0.035593655 0.06764644 -0.03711113 -0.031980272 0.15065812 -0.06615287 0.120509915
-0.08121129 0.08955835 -0.027535819 0.03245892 -0.018303148 -0.021698123 0.09218215 -0.03701372
0.06353677 0.0254767 0.09213212 -0.08445182 -0.005730976 -0.06854535 -0.043387994 -0.010041063
0.06411887 -0.121409185 0.007762658 0.112530135 -0.035142366 -0.028238777 -0.022803012 0.047475617
0.14085843 0.039416436 0.05883736 -0.045722716 -0.09705639 -0.086313084 -0.001210814 -0.0668249
0.015828967 -0.19050635 0.009214765 -0.016782489 0.054214317 -0.022781 -0.14800043 -0.09156032
-0.06836162 0.023906164 0.060764346 -0.13076076 0.11203784 -0.061978508 -0.15106249 -0.003223998
-0.12605742 -0.0005982086 -0.040591367 -0.008321258 0.09260224 -0.09571519 -0.03908001 0.053897563
0.018718487 -0.08444655 -0.020295426 0.003238276 0.005596549 0.04620482 0.030073741 0.024385918
-0.008916186 -0.10410786 0.06098835 -0.03721584 0.011725285 0.07825637 0.032051127 0.038669437
0.12277792 -0.052730184 0.033537935 0.07926091 0.04042117 0.008349468 -0.056219675 -0.14203054
-0.052895837 -0.10738106 0.025240753 -0.10377739 0.04304811 0.0019506764 0.07206199 0.014205286
0.029936818 -0.10520824 0.010965804 0.01070077 -0.038742486 -0.044993103 0.021776536 0.019612892
-0.011140133 0.0944397 0.03665687 -0.07893107 -0.020546166 0.001164169 -0.030361703 -0.007993928
0.05067866 -0.041845027 -0.00873861 -0.05317911 -0.044097725 0.07844427 0.041057274 -0.042777717
-0.01772431 -0.0137434965 0.062494256 -0.059256688 0.06378605 0.010692072 0.018716156 0.06508086
0.063211165 0.071963504 0.09745696 0.067588046 -0.07139768 -0.07046203 0.047343623 -0.02682656
0.006840969 0.11317481 -0.0073649613 -0.087792985 -0.07592638 0.07607511 0.0063435286 0.051698808
-0.06831469 -0.030023208 0.07505233 -0.08394921 -0.014732064 0.01748453 -0.046049114 -0.06853709
-0.03463572 -0.095152214 -0.066034175 -0.10212863 -0.039101653 -0.09449318 -0.11190213 0.00263743
-0.13839602 -0.0054269084 0.050897256 -0.040129203 0.0030135314 0.019595684 -0.07632694 0.015603774
-0.08814472 0.031786527 0.08796329 -0.053922746 0.032589052 -0.118053705 0.020432059 -0.0064360225
-0.048038144 0.06785353 0.11704935 0.044450924 0.097757004 -0.056814205 0.10944009 0.06465649
0.14189816 -0.042887773 -0.0737173 0.011315971 -0.15384114 -0.0024970598 -0.20441379 0.044758204
-0.037406012 0.050651383 0.006374879 0.11316866 -0.13953535 -0.032070268 0.06974031 0.0056504076
0.07804112 -0.025470046 0.117222734 -0.05192469 -0.13556364 -0.011750647 0.06095634 0.02533621
0.038341843 -0.08385482 -0.168241 -0.1268956 0.060573522 0.07768438 -0.050778136 -0.10418403
0.1765355 -0.057549115 -0.13145886 -0.12996796 0.021338694 0.13229564 0.081233405 -0.046700723
0.22175598 -0.10342911 -0.059793893 -0.051716506 0.15209803 -0.09111134 -0.057382695 0.021223793
0.04217643 0.13667127 -0.12994131 -0.13319658 -0.0779268 -0.082401514 -0.15746936 0.07927955

bias f4 [64]
00000000: ebc0 45bd 24bd fcbd b40b cc3c 7ff7 8abb
00000010: 5f8a db3d 850b 28be 37a9 8ebd 468d 9d3b
00000020: 294a b0bd 06c2 b23d 0bea 4abd fa93 52bd
00000030: 7a2d 21bd 1fe8 2f3d 2e93 963d adda bebd
00000040: 819f 393c 54ac 5bbd 7d39 a53c c809 dcbd
00000050: 10ce 2f3c 8a82 893c 7115 20bd 6bd8 c13c
00000060: 5a69 9d3d 46e0 ecbb da15 b1bd a993 713d
00000070: 5021 9a3d 85f9 bcbd dade a6bd 9875 ee3d
00000080: ec16 dd3d 5a39 393e b465 96bc cc1a 073d
00000090: edcd 10be c204 19bd 0429 07bd 08e1 84bc
000000a0: 1ab2 b63d 715a 553b bb64 aa3d e755 3dbd
000000b0: 6112 b4bd c604 fbbd c9b1 34bd 68fc b5bc
000000c0: e701 6bbd 23ac a4bd f24e 9cbd bb2d ef3c
000000d0: 153a ffbd a3b6 92bd 030b 1cbc 1dbe 943d
000000e0: 1238 693d 004c f0ba 7d3b 89bd b3c4 323c
000000f0: c1cb ec3d 399a 9fbd f491 213d 3e50 2d3d
-0.048279684 -0.12340763 0.024907924 -0.0042409296 0.107197516 -0.16410644 -0.06965869 0.004808101
-0.08607895 0.08728413 -0.049539607 -0.051410653 -0.03935001 0.042945977 0.07352291 -0.09319053
0.011329533 -0.05363114 0.020169014 -0.10744053 0.0107302815 0.016785879 -0.039082948 0.023662766
0.0768611 -0.007228884 -0.08646746 0.05897871 0.07525885 -0.092272796 -0.08147974 0.11643523
0.107953876 0.18088284 -0.018359043 0.03298454 -0.14141054 -0.037358053 -0.0329981 -0.016220585
0.08920689 0.0032555128 0.08319994 -0.0462245 -0.08792568 -0.1225677 -0.04411486 -0.022215083
-0.05737486 -0.08040645 -0.07632245 0.02919661 -0.1246225 -0.071637414 -0.00952411 0.07262824
0.05693824 -0.0018333197 -0.067007996 0.010911155 0.115623005 -0.077930875 0.039445832 0.042312853

weight f4 [12, 64]
00000000: a6c1 2b3d c769 a83c ad5e c33d 21af ff3c
00000010: e710 7c3d 191b 013d 4dcd 1dbd ef5d f8bc
00000020: 7c2f 1b3e 338a e23d a2f3 6b3c e911 7fbd
00000030: e1dd d33d 13fd 8dbc fd86 fe3c d0ff dcbd
00000040: 60d5 a93d 17ca 923d 163a 8cbd c731 fd3d
00000050: ce96 54be dc18 ee3d 9daf af3d 0286 543e
00000060: 0180 af3d 632d f43d 1062 213d 9ca6 973d
00000070: 7037 943d 7b0f 423d 718e 463d 35ad 1e3d
00000080: 4f59 6fbd 126b cbbd ee30 29be b73b 74bd
00000090: 08ff 49bd 2866 c53d 3c52 833c fe30 1fbe
000000a0: aa46 f43c 8797 36be c4bc 93be 6d2b 333d
000000b0: 0d10 04be 0a3e 99bd 072a 29bb 992c 0fbc
000000c0: 356c 43be a432 18be 2c85 073e e617 fd3c
000000d0: c1b3 23bd 6611 80bd 4854 cfbd e539 3b3d
000000e0: 6e46 44bd 455b b5bd 8676 003d b43a e73d
000000f0: 71b7 c53d 8e49 28bd 3b59 903d 0aa0 153e
00000100: d24b 983e 946b 9a3e b726 6f3e a3a2 83bd
00000110: c014 083e fa7b bc3e dd05 603e 64e8 e83e
00000120: 85de 2d3e b28a a5bd bf34 1a3e b5dd 42be
00000130: 8f9c f6bd 2424 443e 59f5 4fbd 1ce9 b23e
00000140: 624c 2bbd c209 7bbe 450a 7ebe 40fd e63d
00000150: b83e 1dbe a931 983e 0096 283e 43d9 043e
00000160: 6bc8 17be 66ab 813e 8681 333e eecd 88be
00000170: 2d85 3d3d 2111 183a bdfb 223e 8d3f d0be
00000180: 63bf a3bd 3c08 c0be 1939 813d 78b8 d9bd
00000190: 4b27 973e 4638 38bd 05c8 bf3d 75bb 0ebe
000001a0: cb78 3bbd 1310 5dbd ce69 85be 2c34 9ebc
000001b0: f1d6 c3bd 90d1 1abe d81f 0b3e 13e0 96be
000001c0: 7a58 5b3e 2372 253f ad8c 423e cffa 853e
000001d0: 140f b1bd f01e e63e 651d 013d 1413 cdbe
000001e0: e41a 82be 7387 abbc f1dd 8abe 438f 8b3e
000001f0: 052b 7fbe 751a 0bbe daa2 933e efb9 943e
00000200: 3e62 4ebe 593f ae3e 096a 5b3e 1d07 cabe
00000210: 7b77 f73c 3e38 be3e 0dd2 613e 2088 3c3d
00000220: 770d 7a3e ef0b c1be 1b48 443e c07e b5be
00000230: 487c b6be 05df 0e3e f401 c4be 65de b73e
00000240: 8720 5abe ff48 7abe dff3 abbe 7937 883e
00000250: c8d4 863e 78d1 dc3e 0248 aa3e d465 563e
00000260: 6d0c a9bd 0947 113e cab8 d83e b50f 81be
00000270: 2f63 e4bd f09f 7f3e 546b bb3e 8345 c7be
00000280: 7e0a 8bbe 4ffa e9be 533d 743d 26d1 15be
00000290: c189 ca3e 3a2d c4be be74 c23e dcf5 ba3d
000002a0: 49bc 02bf b198 91be eaa2 4ebe 222f d2bd
000002b0: d942 983d 70d7 a53e b0b6 d5bd f08f e0be
000002c0: 4085 cc3e e8f4 b83d ac46 ab3e e4d4 b73e
000002d0: de3d abbc 43a9 673e 0082 583e 91c8 bfbe
000002e0: 87c7 bfbe 68b2 8bbe dd0f 0bbd a2b1 9e3e
000002f0: 2919 97be a9e1 d3bb 9ed1 2c3e 0b1f bb3e
00000300: b207 bd3e 3cba 6ebe e482 873d eab9 843e
00000310: 48fc 50be 7810 ad3c 6912 b3bc 3182 dcbe
00000320: bfeb 343e 42e0 723e abe9 4bbe 8117 083d
00000330: 889c a43d a838 17be 4471 393e 3827 82be
00000340: e927 b43e 96d8 f63c e4c3 5e3e 8b9b dbbd
00000350: ce1e bbbd 83f8 8abe f10a e33c 7d0d fc3a
00000360: 1346 ec3c 655c 533d 9d7d 8d3a 7adf 333e
00000370: 2147 913c 5441 76bd f72d 39bd 17d3 543d
00000380: bbd5 3a3e a5fc fa3d f897 bfbd 1766 6d3e
00000390: 3768 67bd fa6e c13e f6d8 8abe 37e8 57be
000003a0: 3060 a33e 610d cbbd 726d aabd d116 5b3e
000003b0: 9a00 7cbd d0b1 90be c07c 0a3e f39a 0e3e
000003c0: 88a0 9fbe d869 c0bc 45df 9cbd f5d4 9dbe
000003d0: 17c7 283e 63ab 13be 9a91 68be bdd3 f33d
000003e0: aad1 e03e 3939 303e d320 01be 6531 debd
000003f0: ddea 253d 110b 54be e24d 99bd 6e33 27be
0.041932724 0.020558251 0.09539542 0.031211438 0.061539557 0.031519983 -0.03852587 -0.030318229
0.15154833 0.11061516 0.014401348 -0.06227294 0.103450544 -0.01733259 0.031070227 -0.1079098
0.08292651 0.07167452 -0.068470165 0.1236301 -0.20760652 0.11625835 0.085784175 0.20754245
0.08569337 0.11922719 0.03940016 0.07404825 0.07237136 0.047378045 0.048475686 0.0387394
-0.05843478 -0.099325314 -0.16522571 -0.05962726 -0.049315482 0.096386254 0.016030423 -0.15546033
0.029818852 -0.1783124 -0.28854954 0.043742586 -0.12896748 -0.07482536 -0.0025812404 -0.00873866
-0.19084246 -0.14863068 0.13234395 0.030895185 -0.03996635 -0.062533185 -0.10123497 0.04570951
-0.04791873 -0.08855299 0.031363033 0.112904936 0.09654129 -0.041085772 0.07048269 0.14611831
0.29745346 0.301602 0.23354612 -0.06427505 0.13289165 0.36813337 0.21877237 0.454898
0.16979416 -0.08083095 0.15059184 -0.19029887 -0.1204158 0.19154412 -0.05077109 0.34943473
-0.04182089 -0.24515441 -0.24808605 0.11278772 -0.15355957 0.29725388 0.1646347 0.12973504
-0.14822547 0.2532608 0.17529878 -0.26719612 0.046269584 0.0005800892 0.15916343 -0.40673485
-0.079954885 -0.37506282 0.06309719 -0.10630888 0.29522166 -0.04497554 0.093643226 -0.13938697
-0.045769494 -0.053970408 -0.26057285 -0.019311987 -0.09562481 -0.15119004 0.13586366 -0.2946783
0.2142047 0.64627284 0.18998976 0.26167914 -0.08645454 0.44945478 0.031522173 -0.40053618
-0.2541114 -0.02093861 -0.27122453 0.27257738 -0.24918754 -0.13584311 0.28835183 0.29048106
-0.20154664 0.34032705 0.21427168 -0.39458552 0.03020834 0.37152284 0.22052784 0.046028256
0.24419199 -0.37704417 0.19168131 -0.35448265 -0.35641694 0.13952263 -0.3828274 0.3591186
-0.2130147 -0.24441908 -0.33584496 0.26604822 0.26334214 0.43128562 0.33258063 0.20937282
-0.08254323 0.14187254 0.42328483 -0.25207296 -0.1115173 0.24963355 0.36605322 -0.3892022
-0.27156442 -0.45698783 0.059628796 -0.14630565 0.39558223 -0.38315755 0.37979692 0.09128925
-0.5106855 -0.28436807 -0.20179334 -0.10262896 0.07434625 0.32390928 -0.104352355 -0.43859816
0.39945412 0.09031087 0.33452356 0.3590461 -0.020903524 0.22623162 0.21143341 -0.37457708
-0.37456915 -0.2728455 -0.033950675 0.30994898 -0.29511383 -0.00646611 0.16876838 0.3654712
0.36919934 -0.2331323 0.06616762 0.2592309 -0.20408738 0.021126017 -0.021859365 -0.43068078
0.17668055 0.2371836 -0.19913356 0.03322554 0.080376685 -0.14767706 0.18109614 -0.25420547
0.351867 0.030132573 0.21754414 -0.10723027 -0.09136735 -0.27142724 0.027715178 0.0019230094
0.028842008 0.051601786 0.0010794882 0.17565718 0.017734112 -0.060120896 -0.04520985 0.051959123
0.18245594 0.12255219 -0.093551576 0.23183475 -0.05649587 0.3777998 -0.27118653 -0.21084677
0.31909323 -0.09914661 -0.08321656 0.21395423 -0.06152401 -0.2826066 0.13524151 0.13926296
-0.31177163 -0.02348797 -0.07659773 -0.30826536 0.16482197 -0.14420848 -0.22711793 0.1190562
0.4390996 0.17209329 -0.12610178 -0.10849265 0.040507186 -0.20707346 -0.07485558 -0.16328213

bias f4 [12]
00000000: d9b4 0a3e 0807 9bbe d589 ddbe 492c c6bb
00000010: 84b0 5dbe c78f efbe 2182 083e 8461 2cbc
00000020: 058e 2c39 65ff b23d 94ca 40bb df3a 063e
0.1354555 -0.30278802 -0.4326922 -0.0060477597 -0.21649367 -0.4678938 0.1333089 -0.010521296
0.00016456105 0.08740119 -0.002941762 0.13108395
