logs/a1_amp_example/exported/policies/policy_1.pt (torch, 250632 bytes, 8 tensors)

weight f4 [256, 69]
0	0xbd25939c	-0.040423974
1	0x3e0b2446	0.13588056
2	0x3da6f029	0.08151276
3	0xbe22dce4	-0.15904576
4	0x3e5e96af	0.21737169
5	0xbd92c4d9	-0.07166452
6	0x3c9dbf12	0.019256148
7	0xbd81df6e	-0.06341444
8	0xbd5a3bd3	-0.05327971
9	0x3d02199b	0.0317627
10	0xbe3c3cad	-0.18382521
11	0xbd2eb311	-0.04265124
12	0xbe09d83e	-0.13461396
13	0xbe1115bf	-0.14168452
14	0xbd2a412c	-0.04156606
15	0x3d40e171	0.047089998
16	0xbd81c967	-0.063372426
17	0x3dd38994	0.10328975
18	0xbdacabd3	-0.0843121
19	0x3d99cd0d	0.075098135
20	0xbde87c1f	-0.11351799
21	0xbd919583	-0.07108595
22	0xbd80743f	-0.06272172
23	0xbd07e42f	-0.033176597
24	0x3d6a9454	0.057270363
25	0x3d78c308	0.06073287
26	0xbdea3d5e	-0.11437486
27	0x3d9f538a	0.07779606
28	0x3d51545f	0.051105853
29	0xbda627c9	-0.08113057
30	0x3d26ab87	0.040690925
31	0x3ccdb485	0.025110492
32	0x3e117f6f	0.14208768
33	0xbdc1596f	-0.09440886
34	0xbd90edee	-0.070766315
35	0xbd9e25f2	-0.07722081
36	0xbd5d4aa6	-0.05402627
37	0xbc94d197	-0.018166346
38	0x3d131ef5	0.035918195
39	0xbe169fa8	-0.14709342
40	0x3c94960f	0.01813796
41	0x3cbd428d	0.023103023
42	0xbcacc89f	-0.021091757
43	0xbd1dd30e	-0.038531356
44	0xbad9e433	-0.0016623795
45	0x3d2e4776	0.04254862
46	0xbd8c22f3	-0.068426035
47	0xbd4d1ffd	-0.050079335
48	0xbdb94468	-0.090462506
49	0xbdd17641	-0.10227633
50	0x3dd23d57	0.10265606
51	0xbd63046e	-0.055424146
52	0x3cdb88e6	0.026798677
53	0x3c838bd6	0.01605789
54	0x3dd5571f	0.10417008
55	0x3df3a70e	0.118970975
56	0x3cc09cec	0.023512326
57	0xbdd0f85c	-0.10203621
58	0x3d5a8e66	0.053358458
59	0x3d5747d2	0.052558728
60	0xbde641fd	-0.11243055
61	0x3cd6c671	0.026217671
62	0x3df041f9	0.11731333
63	0x3cd540af	0.02603182
64	0x3d66cab2	0.05634565
65	0x3dcaba50	0.098988175
66	0x3d74bc74	0.059750035
67	0x3d82229f	0.0635426
68	0xbd097a6d	-0.03356402
69	0x3e3cd9a3	0.18442397
70	0xbe675a80	-0.22593117
71	0xbd93474c	-0.07191333
72	0xbe8816fd	-0.2658004
73	0xbe88d442	-0.2672444
74	0x3cb09ea4	0.02156002
75	0xbde49676	-0.11161511
76	0xbd0e9866	-0.034813307
77	0x3d603ec5	0.05474736
78	0xbd87771c	-0.06614515
79	0x3e045d7d	0.12926288
80	0x3d8378be	0.06419514
81	0x3e267104	0.1625405
82	0x3e61dd1c	0.22057003
83	0xbdb01800	-0.08598328
84	0x3d92e3a1	0.07172323
85	0xbe70b3b6	-0.23506054
86	0x3d064920	0.03278458
87	0x3e045305	0.12922294
88	0xbcfffc5f	-0.03124827
89	0xbc7ea086	-0.015541201
90	0xbd51eb1a	-0.0512496
91	0xbddee2aa	-0.108830765
92	0xbd2246a9	-0.039618168
93	0xbca9033a	-0.020631421
94	0x3ea92609	0.3303683
95	0xbe36aab0	-0.1783855
96	0xbddb03a4	-0.10694054
97	0xbcde4ead	-0.027137125
98	0xbe5ea444	-0.2174235
99	0x3e26fe5a	0.16307965
100	0x3db0b09c	0.086274356
101	0x3c98de1f	0.018660603
102	0xbdee159b	-0.11625215
103	0x3d0ec44f	0.034855183
104	0xbd70fb89	-0.058833633
105	0xbd228e1d	-0.03968631
106	0x3d95a6ad	0.073071815
107	0xbcdac76a	-0.026706416
108	0x3da866cd	0.08222733
109	0xbd618405	-0.055057544
110	0xbc40d283	-0.01176894
111	0xbcc891f6	-0.024483662
112	0xbcbe9f9c	-0.023269467
113	0x3e0f86ae	0.1401622
114	0xbdb371bb	-0.08761927
115	0x3e1a7d60	0.1508689
116	0x3e15fe5d	0.14647813
117	0x3d89a992	0.06721796
118	0x3d42a8b1	0.047524158
119	0x3d8c9f08	0.0686627
120	0xbd95a9e2	-0.07307793
121	0x3c33c287	0.010971672
122	0x3dcc57fb	0.099777184
123	0xbd9e5559	-0.077311225
124	0xbda8cf8e	-0.08242713
125	0xbd2ae91f	-0.041726228
126	0xbbb02fe2	-0.005376802
127	0xbe012faf	-0.12615846
128	0xbd9518ab	-0.07280096
129	0xbe0fec8d	-0.1405508
130	0x3ded1bb4	0.115775496
131	0xbd8e3ee9	-0.06945593
132	0xbdb4763d	-0.08811615
133	0xbbac273a	-0.0052536996
134	0xbc288844	-0.0102863945
135	0x3dc455a7	0.095866494
136	0xbdd49fd2	-0.10382046
137	0x3e0e0ba9	0.13871635
138	0x3dd38207	0.10327535
139	0x3e20f547	0.15718566
140	0xbe210bc6	-0.15727147
141	0x3ea498e1	0.32147887
142	0x3e14984d	0.14511223
143	0x3da8f4e9	0.08249838
144	0x3e24489b	0.16043322
145	0x3e8721c6	0.26392955
146	0x3e5c8507	0.21535121
147	0xbebe7320	-0.37197208
148	0x3e6ef4b2	0.23335531
149	0xbe48008e	-0.19531462
150	0x3ada9a9e	0.001667816
151	0x3d8b3073	0.0679635
152	0xbbf0e082	-0.007350982
153	0x3db2aae1	0.08723999
154	0x3dbf3c4c	0.093376726
155	0x3dbe4cd2	0.09291996
156	0xbcd34cd8	-0.025793478
157	0xbca0845d	-0.019594366
158	0x3e764c6f	0.24052595
159	0xbd887d02	-0.06664468
160	0x3c01bec0	0.0079190135
161	0x3d570ab9	0.05250046
162	0xba9ee675	-0.0012123125
163	0x3db8cd25	0.09023503
164	0x3e3424f2	0.17592219
165	0x3c65ac1b	0.014018084
166	0x3cb7cca4	0.022436447
167	0x3e076251	0.13221098
168	0x3c1da854	0.009622652
169	0x3e2b3b01	0.16721727
170	0x3ecbaff0	0.39782667
171	0xbe25ba47	-0.1618434
172	0x3d894a11	0.0670358
173	0xbc1a082e	-0.009401364
174	0xbc921161	-0.017830553
175	0x3d89d156	0.06729381
176	0xbc1936dd	-0.009351459
177	0x3d640606	0.055669807
178	0xbc5dfb75	-0.013548722
179	0x3d77ca1c	0.06049548
180	0x3bdbbfba	0.006706205
181	0x3d15a507	0.036534335
182	0x3dd75e5c	0.105160445
183	0x3d9cf247	0.07663398
184	0x3c54d3e7	0.012989975
185	0x3bee7316	0.007276903
186	0x3d5af374	0.05345483
187	0xbdb8ab9b	-0.09017106
188	0x3cf483bf	0.029847978
189	0x3dc5f944	0.09666684
190	0x3d9727f8	0.0738067
191	0x3b3e4e87	0.0029038505
192	0xbd59111e	-0.05299484
193	0x3ac3dec5	0.001494371
194	0x3d058544	0.032597795
195	0xbd0292c0	-0.031878233
196	0x3d45077e	0.04810285
197	0xbdd16e73	-0.10226145
198	0x3b97ab87	0.004628602
199	0x3de6e4a5	0.11274079
200	0x3d8758bf	0.06608724
201	0x3e1687be	0.14700219
202	0x3d50b39e	0.050952546
203	0x3c8838a7	0.016628576
204	0xbd6dc562	-0.058049567
205	0x3c87ff65	0.016601274
206	0x3ce7d0f8	0.028297886
207	0xba33250a	-0.00068338274
208	0x3eb659ab	0.35615286
209	0x3db9b8f3	0.090684794
210	0x3dded525	0.10880498
211	0xbe39908e	-0.1812155
212	0xbd996dd7	-0.074916534
213	0xbbee6e67	-0.0072763446
214	0x3e006a5c	0.12540573
215	0x3e171f48	0.14758027
216	0x3dfe495c	0.12416336
217	0x3e264b69	0.16239704
218	0x3d6cecda	0.057843067
219	0xbe677b51	-0.22605635
220	0xbe34eaab	-0.17667644
221	0xbd5abcaf	-0.0534026
222	0xbd5ea132	-0.054352947
223	0x3d102f17	0.03520116
224	0xbd1f7ea5	-0.038939137
225	0xbcc48e1c	-0.023993544
226	0x3d0e847f	0.034794327
227	0x3d48eb17	0.049052324
228	0xbe24c637	-0.16091238
229	0x3da5949c	0.080849856
230	0x3c1ef072	0.009700881
231	0x3db8e2b8	0.09027618
232	0x3c9b2a32	0.018941019
233	0xbdc8aa94	-0.0979816
234	0x3dc9e80a	0.09858711
235	0x3d4580c7	0.048218515
236	0x3dcbfdcc	0.09960517
237	0xbd362b8a	-0.044475116
238	0x3ab8dd5e	0.0014104059
239	0x3e2e74a9	0.1703669
240	0x3c8a4552	0.016878758
241	0x3dbc9262	0.09207608
242	0x3d79857c	0.060918316
243	0x3dfdfd31	0.12401808
244	0xbdf3c400	-0.119026184
245	0xbd32b360	-0.043628097
246	0x3a2f804d	0.00066948385
247	0xbd087354	-0.03331311
248	0xbce4d81b	-0.027935078
249	0x3d57615d	0.052583087
250	0x3d473324	0.048632756
251	0x3dbbc488	0.09168345
252	0xbceb02d3	-0.02868787
253	0x3d7b6c48	0.061382562
254	0xbdccd93f	-0.10002374
255	0x3c77efff	0.015132903

bias f4 [256]
0	0x3d335f55	0.043792088
1	0x3e07dc04	0.13267523
2	0xbe0c5dd2	-0.13707665
3	0x3dd22b56	0.10262172
4	0xbc2b8339	-0.010468298
5	0xbafccdef	-0.0019287447
6	0x3e0b6167	0.13611375
7	0x3d86b826	0.06578092
8	0xbd84795d	-0.06468461
9	0x3e0b9932	0.13632658
10	0xbd4814a2	-0.048847802
11	0xbda52fbc	-0.08065745
12	0x3c04c5c8	0.008103795
13	0xbd6b076f	-0.057380136
14	0xbd919c96	-0.071099445
15	0x3d2cb6d5	0.04216655
16	0x3dee9f1e	0.11651443
17	0xbd49bbde	-0.04925143
18	0x3de524e6	0.111886784
19	0xbde4a31f	-0.111639254
20	0xbd367588	-0.04454568
21	0x3dc464ba	0.095895246
22	0xbd63b885	-0.055595893
23	0x3d4a4efa	0.049391724
24	0x3d8fea1c	0.07027075
25	0x3dfa5a69	0.122242756
26	0xbd41bc9f	-0.047299024
27	0x3dacac31	0.084312804
28	0xbd866da5	-0.06563882
29	0xbbd0158f	-0.0063502262
30	0x3dc3e5a6	0.09565286
31	0x3c77e313	0.015129822
32	0xbdacc6c2	-0.084363475
33	0xbd25d4a1	-0.04048598
34	0x3a1e5abd	0.0006040743
35	0x3c07d5f0	0.008290753
36	0x3dc215c7	0.0947681
37	0x3c884246	0.016633164
38	0x3c98e7bb	0.018665185
39	0xbd846cfe	-0.06466101
40	0x3d527739	0.05138323
41	0xbd0a9205	-0.03383066
42	0xbdfa3914	-0.12217918
43	0xbe12f871	-0.14352585
44	0xbda39f8b	-0.07989415
45	0x3d0d1df1	0.034452382
46	0xbc8623f6	-0.01637457
47	0xbd871652	-0.06596054
48	0xbd67831a	-0.056521513
49	0xbdbeee2f	-0.09322774
50	0xbc88fe59	-0.016722845
51	0x3e28fea8	0.16503394
52	0xbe091617	-0.13387333
53	0xbd9961d3	-0.074893616
54	0xbd9d2b66	-0.07674293
55	0x3d514840	0.051094294
56	0x3d3b0366	0.045657538
57	0xbbf115a7	-0.0073573175
58	0xbc3a65e5	-0.011376833
59	0x3d016591	0.031591002
60	0x3d733a57	0.05938181
61	0xbe106ce7	-0.14104043
62	0xbcb72dbf	-0.02236068
63	0x3d989336	0.07449953
64	0x3db1e238	0.08685726
65	0xbd89c19e	-0.06726383
66	0xbcc99aaf	-0.024609892
67	0xbe063edd	-0.13109918
68	0x3db4db36	0.08830874
69	0x3d1af48a	0.037830867
70	0xbd83e551	-0.06440223
71	0x3ddc8a52	0.1076857
72	0xbbd90294	-0.006622622
73	0xbdc0d96e	-0.094164714
74	0x3caa7272	0.020806525
75	0xbdb22543	-0.08698513
76	0xbcf4ec06	-0.029897701
77	0x3d7ad0e8	0.061234385
78	0x3c95834a	0.01825108
79	0xbd9a211c	-0.07525846
80	0xbd196fc6	-0.03746011
81	0xbb00d130	-0.0019655935
82	0xbdf8b27a	-0.12143417
83	0x3daeaea1	0.085294016
84	0x3c6361eb	0.013878326
85	0x3d906346	0.07050185
86	0xbd35d030	-0.044387996
87	0xbe084044	-0.13305765
88	0xbc6bff87	-0.014404184
89	0x3dfbc867	0.12294083
90	0x3d15e694	0.03659685
91	0xbc5b57e9	-0.013387659
92	0xbd3b6cf5	-0.045758206
93	0x3da64db2	0.08120288
94	0xbdce0707	-0.10059934
95	0x3e2cc88a	0.16873375
96	0x3d3217d9	0.043479774
97	0x3d93a6d9	0.07209558
98	0xbe276827	-0.16348325
99	0xbd740316	-0.059573255
100	0x3d1dc1ab	0.038514774
101	0xba6ccbf1	-0.0009033075
102	0xbcb90cec	-0.02258917
103	0xbd22008f	-0.039551314
104	0x3d027511	0.031849924
105	0xbc5d6894	-0.013513703
106	0xbd5074a5	-0.05089249
107	0x3d483988	0.04888299
108	0x3cb5744a	0.022150178
109	0xbdaf9af6	-0.08574478
110	0xbd106759	-0.03525481
111	0xbde165d2	-0.11005749
112	0x3e02236c	0.12708825
113	0x3d4cc192	0.04998929
114	0xbd9602be	-0.07324742
115	0x3e149f6d	0.14513941
116	0xbd47bbb6	-0.048763
117	0x3e28327f	0.16425513
118	0xbdb44b03	-0.0880337
119	0x3d202c37	0.039104667
120	0x3da6d08e	0.081452474
121	0x3e104a7c	0.14090914
122	0x3d934650	0.071911454
123	0xbda66345	-0.08124403
124	0xbe142819	-0.14468421
125	0xbde2c9b5	-0.11073629
126	0xbda0aee5	-0.078458585
127	0x3e145318	0.14484823
128	0xbd40db82	-0.04708434
129	0x3da98bb3	0.08278599
130	0x3d1c63fd	0.038181294
131	0xbd587aaf	-0.052851375
132	0xbdd799fb	-0.10527416
133	0xbcc59109	-0.02411701
134	0x3da8c380	0.08240414
135	0x3d92706a	0.071503475
136	0x3e27102b	0.16314761
137	0xbd1a2c5a	-0.037639953
138	0xbdaf1ec8	-0.08550793
139	0x3c7a32a2	0.015270861
140	0xbdc334b2	-0.09531535
141	0x3cf6c0b5	0.030121187
142	0x3baa8821	0.005204216
143	0x3d1b39df	0.037896987
144	0x3dc61abc	0.09673068
145	0x3e05f78d	0.13082714
146	0x3d977cdd	0.07396863
147	0xbdf6f426	-0.12058286
148	0x3c925d83	0.017866855
149	0xbde6fdc5	-0.112788714
150	0xbcb00fe8	-0.02149196
151	0xbd8b6d3d	-0.06807945
152	0xbdc525b4	-0.09626332
153	0xbd59e5e2	-0.05319775
154	0xbd2903f5	-0.04126354
155	0x3d47f914	0.048821524
156	0x3dbdbb6a	0.09264262
157	0x3c52efa2	0.012874516
158	0xbcac7606	-0.021052372
159	0x3db16d17	0.08663385
160	0x3de0d521	0.10978151
161	0xbdcc604e	-0.09979306
162	0x3d9203d2	0.07129635
163	0x3bea44d2	0.0071493173
164	0x3ddd7372	0.10813035
165	0x3da9cd48	0.082911074
166	0xbd23b185	-0.039964218
167	0xbcfbf57b	-0.030756703
168	0x3d4bf10f	0.04979044
169	0x3cad115c	0.021126442
170	0x3d5cbc0e	0.05389028
171	0xbc809f26	-0.015700888
172	0xbcc42552	-0.023943577
173	0x3df1713b	0.11789175
174	0x3dc93b27	0.098257355
175	0xbb62606a	-0.003454233
176	0x3dc78049	0.09741265
177	0x3d56ce51	0.052442852
178	0xbd3ea420	-0.04654324
179	0x3dacfbd0	0.08446467
180	0xbabbf854	-0.0014340975
181	0xbdb26cde	-0.08712171
182	0x3c88138e	0.016610887
183	0x3cd226fe	0.025653359
184	0xbbf9a6bb	-0.007618753
185	0xbe05cf5d	-0.13067384
186	0xbade5597	-0.0016962764
187	0x3d95c9a6	0.07313852
188	0xbd37d53f	-0.0448811
189	0xbd86429d	-0.06555674
190	0xbd55dd13	-0.052212786
191	0x3a8270a9	0.0009951788
192	0x3b5344b9	0.0032237007
193	0x3cc04f17	0.023475213
194	0xbd93b23b	-0.07211729
195	0xbd8f7856	-0.07005374
196	0xbdb4d298	-0.0882923
197	0x3d843c4c	0.06456813
198	0x3c69f3db	0.014279331
199	0xbd9a58d4	-0.07536474
200	0x3de324ec	0.11091027
201	0xbdb16059	-0.08660955
202	0x3dd88cc5	0.10573725
203	0x3dfaf202	0.122531906
204	0xbdf66a81	-0.12032033
205	0xbdff1b58	-0.12456387
206	0x3d1d57b3	0.038413715
207	0x3ded9633	0.11600914
208	0x3d0f0b71	0.03492302
209	0xbd0bee1c	-0.034162626
210	0x3d113996	0.03545531
211	0x3dcceb8b	0.10005864
212	0xbdcf4701	-0.10120965
213	0x3d6ddc8e	0.058071665
214	0xbdb05eea	-0.086118534
215	0x3cd66df4	0.026175477
216	0xba80440f	-0.0009785908
217	0xbcbbc051	-0.022918852
218	0xbca55bde	-0.020185407
219	0xbcfb9eb6	-0.030715328
220	0xbd88b592	-0.06675257
221	0xbd8de7b9	-0.06928963
222	0xbe31ffbb	-0.1738271
223	0x3dad4197	0.08459776
224	0xbdca974c	-0.09892139
225	0x3dc0367e	0.093853936
226	0xbd924ed5	-0.07143942
227	0xbd9bc962	-0.0760677
228	0xbda89159	-0.08230848
229	0x3c5f2f60	0.013622135
230	0xbdcba4c1	-0.09943534
231	0x3d576474	0.052586034
232	0xbda4351d	-0.08017943
233	0x3dc2c44c	0.09510097
234	0xbcb52d96	-0.022116464
235	0xbd6c7707	-0.0577307
236	0x3de79ebd	0.11309574
237	0xbd724a5d	-0.05915295
238	0x3dd26c32	0.10274543
239	0x3c88b97f	0.016690014
240	0xbe049b88	-0.12949955
241	0x3d680e43	0.056654226
242	0xbd5491b2	-0.05189676
243	0x3cf9f273	0.030511117
244	0xbdd25bb4	-0.10271397
245	0x3d89ac3e	0.06722306
246	0xbd691d6c	-0.056912825
247	0xbde10447	-0.10987144
248	0x39f032ad	0.00045814124
249	0xbd6db401	-0.058032993
250	0x3df7734a	0.120825365
251	0x3d679611	0.0565396
252	0xbd9ce152	-0.07660164
253	0x3b0d583e	0.002156749
254	0xbc3aeba7	-0.011408723
255	0xbdeabe22	-0.11462046

weight f4 [128, 256]
0	0xbd6799fb	-0.05654333
1	0x3d1c6a5c	0.03818737
2	0x3d56a148	0.052399904
3	0x3d9c37f0	0.07627857
4	0xbd7e9750	-0.06215602
5	0xbd816c2b	-0.063194595
6	0x3d03711a	0.032090284
7	0x3d9f59f6	0.077808306
8	0xbd435d8a	-0.047696628
9	0x3d709d8b	0.058743995
10	0x3c10c51c	0.008836057
11	0x3deb1fe4	0.11480692
12	0x3d98eb72	0.07466783
13	0xbcbbad24	-0.022909708
14	0x3d2e9804	0.042625442
15	0xbdc67933	-0.09691086
16	0xbca7c737	-0.020480735
17	0xbc2c8447	-0.010529584
18	0xbdc73d55	-0.09728495
19	0x3b0a2d62	0.002108418
20	0x3deac5d2	0.114635125
21	0xbd2c77e6	-0.04210653
22	0x3d566b83	0.052348625
23	0xbdd6a8ef	-0.1048144
24	0x3da5fa38	0.08104366
25	0xbb267f40	-0.0025405437
26	0x3d701121	0.058610085
27	0xbd2c033c	-0.041995272
28	0xbe342903	-0.1759377
29	0xbe1123c7	-0.14173804
30	0x3ca30cf6	0.019903641
31	0x3e532de2	0.20622972
32	0x3de47b2e	0.11156307
33	0x3d854084	0.06506446
34	0x3cf9c446	0.030489098
35	0xbdb434df	-0.08799147
36	0xbe29619d	-0.16541143
37	0x3d80cb07	0.062887244
38	0xbd271798	-0.040793985
39	0xbd2b0586	-0.041753314
40	0xbdda8d15	-0.106714405
41	0x3dbb5743	0.09147503
42	0x3c9408d7	0.018070621
43	0x3ceed7b3	0.029155588
44	0x3d291ba1	0.041286115
45	0x3b078df9	0.0020683988
46	0xbd7a2ee8	-0.06107989
47	0xbcd7d161	-0.026344957
48	0xbd137f59	-0.03601012
49	0xbd67704d	-0.056503583
50	0xbd04e2d6	-0.03244289
51	0xbdadde53	-0.084896706
52	0x3d822a55	0.063557304
53	0x3d959d90	0.07305443
54	0xbd30bb3c	-0.04314731
55	0x3d5e11b7	0.054216113
56	0x3c6e2cc7	0.014537043
57	0x3d7a282a	0.06107346
58	0xbd74c83b	-0.059761267
59	0xbba5d55c	-0.005060835
60	0xbcaeac25	-0.02132232
61	0x3d069a41	0.03286195
62	0x3cb45c7d	0.022016758
63	0xbd132bc2	-0.035930403
64	0x3d73cb2e	0.05951994
65	0xbd398afa	-0.045298554
66	0x3c579748	0.013158627
67	0x3db4cb58	0.08827847
68	0xbbd242ad	-0.00641664
69	0xbcea4878	-0.028599009
70	0xbd459bb4	-0.048244193
71	0x3d356bbf	0.044292208
72	0xbd27fc9a	-0.041012384
73	0x3dc53fae	0.096312866
74	0x3cc5e3be	0.024156447
75	0xbc62b73c	-0.013837632
76	0x3d24fda9	0.04028097
77	0x3c03cd73	0.008044588
78	0x3dcb3d96	0.09923856
79	0xbd9afb3b	-0.0756745
80	0x3d407da8	0.046994835
81	0xbbbe92ec	-0.0058158543
82	0x3e4c3198	0.19940794
83	0x3d1858e1	0.037194137
84	0xbc8dac3d	-0.017294044
85	0x3e07211d	0.13196225
86	0x3d2f2829	0.04276291
87	0xbcac1d0b	-0.021009943
88	0x3d67b9d6	0.05657371
89	0x3c57fa36	0.0131822135
90	0xbd59b33c	-0.053149447
91	0xbd57cac8	-0.05268362
92	0xbd57b018	-0.05265817
93	0x3c96e168	0.018418029
94	0x3d103e89	0.03521589
95	0xbcce6e8f	-0.025199203
96	0x3bf40103	0.0074464097
97	0x3cbaa544	0.022783883
98	0x3dd540a8	0.10412723
99	0xbd09a679	-0.033606026
100	0x3d806f7b	0.06271263
101	0xbe105f0c	-0.14098758
102	0x3d282f76	0.041060887
103	0xbd89c2d4	-0.06726614
104	0x3d0b197e	0.033959858
105	0xbcfcbc36	-0.030851465
106	0xbd471b24	-0.048609868
107	0xbcc0e59e	-0.02354699
108	0xbd932d82	-0.07186414
109	0xbc93e39f	-0.018052874
110	0xbda0c74a	-0.07850511
111	0xbd3b3881	-0.045708183
112	0x3c6f5eba	0.014609987
113	0x3c7aeb48	0.0153148845
114	0x3d9d114e	0.07669316
115	0xbd61361b	-0.05498324
116	0x3c97cbdb	0.018529823
117	0xbdee1c5f	-0.11626505
118	0x3da85889	0.08220012
119	0xbdc11be9	-0.094291516
120	0xbe05612c	-0.1302535
121	0x3b6a87d1	0.003578652
122	0xbd0cd4ba	-0.03438256
123	0x3c055b1f	0.008139401
124	0x3d831bf8	0.06401819
125	0xbb645d4f	-0.0034845655
126	0xbe0571eb	-0.13031738
127	0xbcb3d475	-0.021951893
128	0xbce636aa	-0.028102238
129	0x3d016737	0.031592574
130	0xbca72c77	-0.020406945
131	0x3e70078d	0.2344038
132	0xbc415aeb	-0.011801462
133	0x3dc16b6d	0.09444318
134	0xbd9d6ab0	-0.07686365
135	0x3d9f9ad1	0.07793201
136	0x3d48d4be	0.04903101
137	0xbd1c4511	-0.038151804
138	0xbd69027e	-0.056887142
139	0xbd1d265a	-0.038366653
140	0xbe29ba55	-0.16574986
141	0x3cb0e44e	0.02159324
142	0xbd8faaaf	-0.07014977
143	0x3df8168d	0.12113676
144	0xbc42f279	-0.01189863
145	0x3d556221	0.052095536
146	0x3c534587	0.012894995
147	0x3d960e52	0.0732695
148	0xbcecb0d7	-0.028892918
149	0xbcc1609e	-0.023605641
150	0x3b753a9c	0.0037418967
151	0xbdbc575e	-0.091963515
152	0xbd924be5	-0.07143382
153	0x3d952907	0.07283216
154	0xbddb598a	-0.107104376
155	0x3d8734e1	0.06601883
156	0x3d0c8246	0.034303926
157	0xbd853ff0	-0.06506336
158	0x3d058a81	0.03260279
159	0xbdcc39f9	-0.09971995
160	0x3d743364	0.059619322
161	0xbd9c22c3	-0.07623818
162	0x3d101f1a	0.03518591
163	0x3d15cbd8	0.036571354
164	0x3d9c5398	0.07633132
165	0x3c1168e7	0.008875108
166	0x3e41ae11	0.18914057
167	0xbcfb1999	-0.030651854
168	0xbd1089b8	-0.03528759
169	0x3d116843	0.035499822
170	0xbbed53ca	-0.0072426545
171	0x3d985934	0.07438889
172	0xbc238e69	-0.009982684
173	0xbb10d0b1	-0.0022097046
174	0x3d970362	0.07373692
175	0xbd2454b6	-0.04011985
176	0x3d385279	0.045000527
177	0x3c3c27e7	0.011484123
178	0xbe12d254	-0.14338046
179	0xbd0d3785	-0.034476776
180	0xbbe0b296	-0.0068572266
181	0x3d7ac3aa	0.061221756
182	0xbd541ff3	-0.05178828
183	0xbdf54f6a	-0.11978038
184	0x3bcdf48e	0.0062852567
185	0xbd019612	-0.03163726
186	0xbe31b815	-0.17355378
187	0xbd0cd1b1	-0.034379665
188	0xbd00c9f7	-0.03144261
189	0x3c5bc340	0.01341325
190	0xbdc728b5	-0.09724561
191	0x3e29b91e	0.16574523
192	0x3d100278	0.035158604
193	0x3da07994	0.07835689
194	0xbb404fb2	-0.0029344377
195	0x3cef767a	0.029231299
196	0x3e02ac59	0.12761058
197	0xbd397f04	-0.045287147
198	0xbd7134be	-0.05888819
199	0x3cd2b48c	0.025720857
200	0xbce647e6	-0.028110456
201	0xbd929f2f	-0.07159268
202	0x3a9d1173	0.001198335
203	0x3ded0108	0.11572462
204	0x3db7d90e	0.08976947
205	0xbe0fd976	-0.14047799
206	0xbd673650	-0.05644828
207	0xbd1bd7f8	-0.03804776
208	0xbad08a8c	-0.0015910431
209	0xbd3d6d50	-0.046246827
210	0xbc107713	-0.008817452
211	0xbd92c4fc	-0.07166478
212	0xbd7610f7	-0.060074773
213	0xbcfb80db	-0.030701092
214	0xbcca30f3	-0.024681544
215	0x3da71a30	0.08159292
216	0x3d2c3783	0.042045128
217	0xbdf1fcc8	-0.11815792
218	0xbd4819c2	-0.04885269
219	0xbd4adcf3	-0.04952712
220	0x3d9b52d6	0.07584159
221	0xbdb1bdbe	-0.086787686
222	0x3d8e8a23	0.06959941
223	0x3ca56767	0.020190908
224	0x3e2567bf	0.16152857
225	0xbc80ba5c	-0.015713863
226	0x3cdfcf4c	0.027320527
227	0xbd110cc5	-0.03541257
228	0xbdc7c97a	-0.097552255
229	0x3d21d4ae	0.039509468
230	0x3d6a0926	0.05713763
231	0xbdd09450	-0.10184538
232	0xbc8f546d	-0.017496312
233	0xbd0988de	-0.033577792
234	0x3bba0bf5	0.005677695
235	0x3d4684c1	0.048466448
236	0xbd6fab07	-0.058512714
237	0x3d4e9301	0.050433163
238	0xbda22e47	-0.07918983
239	0xbdc11f93	-0.094298504
240	0xbdc42002	-0.095764175
241	0x3db4d848	0.08830315
242	0xbd9ee644	-0.077587634
243	0xbcacc875	-0.02109168
244	0x3e1adb13	0.15122633
245	0xbda0a084	-0.07843116
246	0xbd67d79f	-0.056602117
247	0x3d823394	0.06357494
248	0xbdc53428	-0.09629089
249	0x3da5cd1a	0.08095761
250	0x3d5f0ef1	0.05445761
251	0xbd2ff4ac	-0.042957947
252	0xbdbb9ff2	-0.091613665
253	0xbd05cc27	-0.032665398
254	0xbd2dfd9b	-0.042478185
255	0x3d2d531a	0.04231558

bias f4 [128]
0	0xbccea38e	-0.025224473
1	0x3d5f86e8	0.054572016
2	0xbd13c1f2	-0.036073633
3	0x3a95c97a	0.0011427843
4	0xbbf26f2d	-0.007398507
5	0xbd850aad	-0.06496177
6	0xbdae3f93	-0.085082196
7	0xbb7c5038	-0.0038499963
8	0xbd8d17e2	-0.06889321
9	0xbd145676	-0.036215268
10	0x3d3bbc03	0.0458336
11	0x3ce1d41e	0.027566966
12	0xbb83fd89	-0.0040280265
13	0x3d7fa30f	0.062411364
14	0xbcdab375	-0.0266969
15	0xbd85ad10	-0.0652715
16	0xbd28108d	-0.04103141
17	0xbdb58c52	-0.088646546
18	0x3c359dce	0.011084987
19	0x3d32fec6	0.043700002
20	0xbd07c168	-0.03314343
21	0xbcef6c48	-0.029226437
22	0x3d887a00	0.06663895
23	0xbd4e0253	-0.050295185
24	0xbc23ce18	-0.009997867
25	0xbd2b6d58	-0.041852325
26	0x3b476cd8	0.0030429866
27	0xbd8eab08	-0.06966215
28	0x3d3a674f	0.04550868
29	0xbda67ee9	-0.08129675
30	0xbdaf59f0	-0.08562076
31	0x3c39a19b	0.011330034
32	0xbd864e40	-0.06557894
33	0xbd036bfc	-0.032085404
34	0xbd57887e	-0.052620403
35	0xbdbf610b	-0.09344681
36	0x3becd62d	0.00722768
37	0xbd27fddf	-0.041013595
38	0xbd001186	-0.03126671
39	0xbbe4e9f3	-0.0069858967
40	0xbbec8219	-0.0072176573
41	0xbce88255	-0.02838246
42	0xbc6eb7b0	-0.014570162
43	0x3d0c2da4	0.034223214
44	0xbd7db95e	-0.061944358
45	0x3b3fe9af	0.0029283573
46	0xbd1caecb	-0.038252633
47	0xbd0c72de	-0.034289233
48	0xbc944788	-0.018100515
49	0x3cf1f22b	0.02953442
50	0xbdd12809	-0.10212714
51	0x3cd418dc	0.02589076
52	0x3d7375fa	0.059438683
53	0x3cc8bb72	0.024503443
54	0x3d6bc46e	0.057560377
55	0xbd7bffe5	-0.061523337
56	0xbdcf4a1b	-0.10121556
57	0xbd6865b8	-0.05673763
58	0xbb3cb88c	-0.0028796522
59	0xbd672e7e	-0.056440823
60	0x3db5af6f	0.08871352
61	0xbda8259c	-0.082102984
62	0xbcfd71cc	-0.030938052
63	0x3d1e15d9	0.038595054
64	0x3ce42f32	0.027854536
65	0x3b14f02a	0.0022726157
66	0xbd40f0c8	-0.047104627
67	0x3cab49fa	0.020909298
68	0xbb5eb1fe	-0.0033980603
69	0xbc5a5b0e	-0.013327373
70	0x3cf5fa73	0.03002665
71	0xbd8f8911	-0.07008565
72	0xbd3e631e	-0.046481244
73	0xbd2ffba5	-0.042964596
74	0x3d20a1b0	0.039216697
75	0xbbbe3213	-0.005804309
76	0x3d2e112b	0.04249684
77	0xbba78058	-0.0051117353
78	0xbd1de9c0	-0.038553
79	0xbd05a707	-0.032629993
80	0xbb86958a	-0.004107182
81	0x3a44249a	0.00074822607
82	0xba40ab44	-0.00073497393
83	0xbd7c0e10	-0.06153685
84	0x3b25b31c	0.002528376
85	0x3da706a9	0.08155567
86	0xbb436d46	-0.002981977
87	0xb756e4ed	-1.2808695e-05
88	0xbd554847	-0.052070882
89	0x3cb080c1	0.02154577
90	0x3c8c8bd4	0.017156519
91	0x3d4631a5	0.04838719
92	0x3d2a56f9	0.04158685
93	0xbc485311	-0.012226836
94	0xbd7a59a7	-0.061120655
95	0xbd88511f	-0.066560976
96	0x3c94295c	0.018086128
97	0x3d1a2b29	0.037638817
98	0x3c038a83	0.008028629
99	0x3d1b6255	0.037935574
100	0x3d11e971	0.035623018
101	0xbd80a41e	-0.06281303
102	0xbdd1323e	-0.10214661
103	0xbd56304b	-0.05229215
104	0x3a921132	0.0011144041
105	0x3d03a8c8	0.032143384
106	0xbd620e92	-0.055189677
107	0xbd9d7543	-0.076883815
108	0x3db8c9d7	0.09022873
109	0xbce8ecda	-0.028433252
110	0x3ca15525	0.01969392
111	0xbd12fc22	-0.035884984
112	0xbcc493a2	-0.023996178
113	0x3bbf3fcf	0.005836464
114	0x3bf757bd	0.007548301
115	0xbdbcd977	-0.092211656
116	0xbc466776	-0.012109628
117	0xbc427976	-0.011869779
118	0x3cce804e	0.025207665
119	0xbcf62007	-0.030044569
120	0x3ad8053a	0.001648105
121	0xbca551b2	-0.020180557
122	0x3d3d2a2c	0.046182796
123	0x3c29332f	0.0103271445
124	0x3c8d9de4	0.017287202
125	0x3d674829	0.0564653
126	0xbbd934e7	-0.006628621
127	0xbd8087ce	-0.06275903

weight f4 [64, 128]
0	0x3d2b2a58	0.04178843
1	0xbdabb4f1	-0.08384121
2	0xbe023b39	-0.12717904
3	0x3dc1fd8e	0.0947219
4	0x3cb8d5ac	0.022562824
5	0x3d20416f	0.039124902
6	0xbe38a605	-0.18032081
7	0x3c73b3d0	0.014874414
8	0x3d5f151d	0.054463495
9	0xbcaa8c20	-0.02081877
10	0xbd946489	-0.07245738
11	0xbd53043d	-0.051517714
12	0xbc9577d4	-0.018245615
13	0xbcbd7724	-0.0231281
14	0xbd9d4953	-0.07680001
15	0xbcaa3f15	-0.020782033
16	0xbd97c628	-0.07410842
17	0xbd227ccd	-0.0396698
18	0xbd63066c	-0.055426046
19	0xbd0c443a	-0.034244753
20	0x3d825c65	0.06365279
21	0xbcd7e9d9	-0.026356624
22	0x3c4ae773	0.012384283
23	0xbdac60fb	-0.08416935
24	0xbd1bc30a	-0.0380278
25	0x3d65b79a	0.0560833
26	0x3e4556da	0.19271412
27	0xbb5048df	-0.0031781716
28	0xbd4cfd3e	-0.050046198
29	0xbdf9bda9	-0.12194378
30	0x3e5905dd	0.21193643
31	0xba13cff3	-0.0005638592
32	0xbcff8665	-0.031192014
33	0xbd8d01ef	-0.068851344
34	0x3ce8c739	0.02841531
35	0x3b9a8ef8	0.0047167502
36	0x3cf6efe2	0.030143682
37	0x3d41953c	0.04726146
38	0x3bd5c47f	0.0065236683
39	0x3d75caed	0.06000798
40	0x3c099c69	0.0083991075
41	0x3c9a3c05	0.018827448
42	0x3d0b18c8	0.03395918
43	0x3e06ba22	0.13156942
44	0xbd18b675	-0.03728338
45	0xbd5a8423	-0.05334867
46	0x3cee6448	0.029100552
47	0xbd961fef	-0.073303096
48	0x3d235444	0.039875284
49	0xbc61bd7a	-0.013778085
50	0xbe05affa	-0.13055411
51	0x3d5b899e	0.05359804
52	0x3d091d9a	0.033475496
53	0x3d3db810	0.046318114
54	0x3dd5964f	0.1042906
55	0x3c837bd4	0.016050257
56	0xbd1abbda	-0.037776805
57	0x3dacc3f7	0.08435815
58	0x3c1c05cc	0.009522866
59	0xbdd47c1c	-0.103752345
60	0x3d8b5cce	0.068048105
61	0xbdd5b618	-0.10435122
62	0xbd203247	-0.03911045
63	0xbd8345da	-0.064098075
64	0xbd83ae1c	-0.06429693
65	0xbcdc9b35	-0.026929477
66	0xbd7c9045	-0.061661024
67	0x3ccfb8cd	0.025356675
68	0x3d962866	0.07331924
69	0x3e1923e2	0.14955094
70	0x3d018afa	0.03162668
71	0x3cadbff9	0.021209704
72	0xbc1daf1d	-0.00962427
73	0x3d026b88	0.03184083
74	0x3d2be8f3	0.041970205
75	0xbd12f0f1	-0.03587431
76	0x3de03210	0.10947049
77	0x3e26d6de	0.16292903
78	0xbdadc9eb	-0.084857784
79	0xbcc489b4	-0.023991443
80	0xbb9b7a5d	-0.0047448114
81	0xbd128f93	-0.035781454
82	0xbbc76e91	-0.0060861786
83	0xbe33e068	-0.17566073
84	0xbcaf68b9	-0.02141224
85	0xbd9fe1f5	-0.0780677
86	0xbd57f34f	-0.05272227
87	0xbe0a0059	-0.13476695
88	0xbe4a1284	-0.19733626
89	0xbdedc991	-0.11610711
90	0x3d760430	0.060062587
91	0xbd8c2cee	-0.06844507
92	0xbd69971d	-0.05702888
93	0x3e18a786	0.14907655
94	0x3e26a7ed	0.16274996
95	0x3de22410	0.110420346
96	0x3dd9b6fc	0.106306046
97	0xbc0e6ff2	-0.008693682
98	0x3c1bbc6f	0.009505375
99	0x3d176778	0.03696391
100	0x3c147ed7	0.009063444
101	0x3b42db67	0.0029732825
102	0xbe0ac1f5	-0.13550551
103	0xbd1c3eaa	-0.0381457
104	0x3d085ade	0.033289783
105	0xbcba7b3a	-0.022763837
106	0xbdf93880	-0.1216898
107	0xbdb0bce9	-0.08629782
108	0x3d8e7758	0.06956357
109	0xbed37f7f	-0.4130821
110	0x3b5f91c6	0.0034113987
111	0x3dbfa7c6	0.09358172
112	0xbb8c1d13	-0.004275927
113	0xbe03623e	-0.12830445
114	0xbd86f96f	-0.065905444
115	0xbd0e94e8	-0.034809977
116	0xbd21a27f	-0.03946161
117	0x3a8fa6ad	0.0010959707
118	0xbcfbe1b6	-0.030747276
119	0xbd345f16	-0.044035994
120	0x3cfa220d	0.030533815
121	0xbd1c203e	-0.038116686
122	0xbca554eb	-0.020182094
123	0x3ca48906	0.02008487
124	0x3d222dda	0.03959451
125	0xbdb4cb51	-0.08827842
126	0xbd8d63b3	-0.06903782
127	0xbe239e65	-0.15978391
128	0x3ce26f57	0.027640982
129	0x3dac946b	0.08426746
130	0xbba88294	-0.0051425193
131	0x3cb1c259	0.021699117
132	0x3ce585d1	0.02801791
133	0xbd6c9ad9	-0.05776486
134	0x3dc6ee46	0.09713416
135	0x3cb33401	0.021875383
136	0xbd6916a4	-0.056906357
137	0xbd5c156a	-0.05373136
138	0x3ccce699	0.025012301
139	0xbc82dde6	-0.01597495
140	0x3cc70871	0.024296017
141	0xbd9d67a6	-0.07685785
142	0xbc3d9835	-0.0115719335
143	0x3e08c050	0.13354611
144	0xbdd411d4	-0.10354963
145	0x3d5ef23e	0.05443024
146	0xbc3e8595	-0.011628528
147	0xbdf7eaca	-0.12105329
148	0x3d1a6860	0.037697196
149	0xbcb18bf3	-0.021673178
150	0x3d2c5284	0.04207088
151	0x3c4bf985	0.012449627
152	0xbcae6f55	-0.021293322
153	0x3dcbfb5a	0.09960051
154	0x3cfb97e5	0.030712077
155	0x3d0b1072	0.03395123
156	0xbd558867	-0.052132037
157	0xbdb0e2a1	-0.08636976
158	0xbc40ad4a	-0.011760065
159	0x3dcacb47	0.09902053
160	0x3bcfb04b	0.0063381544
161	0xbd0b291f	-0.033974763
162	0xbdcedaf0	-0.10100353
163	0x3d4643cf	0.04840451
164	0x3cea24af	0.028581945
165	0x3dd0b773	0.1019124
166	0xba53d5ff	-0.0008080899
167	0x3bc74718	0.006081473
168	0xbd8292fd	-0.06375692
169	0x3bb9251f	0.005650177
170	0x3d06a777	0.03287455
171	0xbd333f14	-0.043761328
172	0xbcacb4e2	-0.021082345
173	0xbdebe5e9	-0.11518461
174	0x3cfa16a1	0.030528368
175	0x3dd777bd	0.10520885
176	0xbd4d8485	-0.05017521
177	0xbda14672	-0.078747645
178	0xbcce9e24	-0.025221892
179	0x3db07279	0.08615584
180	0xbd6d10ed	-0.05787747
181	0x3b51db1b	0.0032021466
182	0xbd2243cd	-0.03961544
183	0x3dbcea13	0.092243336
184	0xbc1368f9	-0.008997195
185	0xbd3ea361	-0.04654253
186	0x3de2377f	0.11045741
187	0x3d688ec0	0.056776762
188	0xbd204473	-0.03912778
189	0x3d7d6886	0.06186726
190	0x3c6c0e9b	0.014407779
191	0xbccd2abc	-0.025044791
192	0x3d962f9e	0.07333301
193	0xb8cbc2d5	-9.7160846e-05
194	0xbc96221b	-0.01832681
195	0x3d6d652c	0.057957813
196	0xbd644a12	-0.0557347
197	0x3ad1246b	0.0015956288
198	0xbca32b2b	-0.019918045
199	0x3d6ab6d0	0.05730325
200	0xbda5d527	-0.08097296
201	0x3cdbb5d2	0.026820097
202	0x3d97bf8c	0.074095815
203	0x3cc1e2b3	0.023667669
204	0x3cd0d813	0.025493657
205	0x3e333c4f	0.17503475
206	0x3d193035	0.03739949
207	0x3ad58d2d	0.0016292684
208	0x3d89d40b	0.06729897
209	0xbc0ec1f0	-0.0087132305
210	0x3c6ad67b	0.014333363
211	0x3d39532c	0.045245335
212	0xbd16f1b5	-0.036851604
213	0x3d63f7ab	0.055656116
214	0xbcffd4d9	-0.031229423
215	0xbcf52155	-0.02992312
216	0x3db82852	0.089920655
217	0x3c5ce03e	0.013481198
218	0xbd1f3969	-0.03887311
219	0x3c8f1609	0.017466562
220	0x3dcd3ba7	0.100211434
221	0xbaf93ce7	-0.0019015343
222	0x3d0fbad7	0.035090294
223	0xbcde3bce	-0.027128126
224	0x3cf0f556	0.02941386
225	0x3d0df2a2	0.03465522
226	0x3daaccf6	0.083398744
227	0x3d16dfc4	0.036834493
228	0x3da62295	0.08112065
229	0x3d2078f2	0.039177842
230	0xbd86229a	-0.065495685
231	0x3d98e5e6	0.07465725
232	0x3cd5cce3	0.026098674
233	0xbd6f6e13	-0.058454584
234	0xbcdbb7e9	-0.026821094
235	0x3db02eb2	0.086026564
236	0x3ca9be22	0.020720545
237	0xbd31099e	-0.043222062
238	0xbb9ff180	-0.004881084
239	0x3d1a906c	0.037735388
240	0x3d7221d8	0.059114307
241	0x3cc4be32	0.024016473
242	0xbd8a87e0	-0.06764197
243	0xbdb722f6	-0.08942215
244	0xbd7f0783	-0.062263023
245	0x3df25929	0.11833412
246	0x3cde6131	0.027145954
247	0xbd333ee5	-0.043761153
248	0x3d83070a	0.06397827
249	0x3de7bf3e	0.113157734
250	0x3c9da466	0.01924343
251	0xbd4cd259	-0.05000529
252	0x3d51e863	0.051247012
253	0x3dbea4e7	0.093087964
254	0x3d97f350	0.07419455
255	0xbd901e4b	-0.07037028

bias f4 [64]
0	0xbd8661d2	-0.065616265
1	0x3da7ba11	0.08189786
2	0xbd06d22f	-0.03291529
3	0xbd952c46	-0.07283835
4	0xbbcd8181	-0.0062715416
5	0x3ccc3aa9	0.024930315
6	0x3d7a5c00	0.061122894
7	0x3d86494a	0.065569475
8	0x3d3e2e27	0.046430733
9	0xbccc26ce	-0.024920847
10	0x3b35a138	0.0027714502
11	0xbd38039a	-0.04492531
12	0x3d2bacb0	0.041912735
13	0xbc15c2ba	-0.009140665
14	0xbcd07d57	-0.025450392
15	0x3d3207fc	0.043464646
16	0x3d8e3bd4	0.06945005
17	0xbd8d35ec	-0.068950504
18	0x3d60f463	0.054920565
19	0x3d26a099	0.0406805
20	0xbb6077b0	-0.0034251027
21	0x3a45641f	0.0007529873
22	0xbda02ece	-0.07821427
23	0xbd522e9c	-0.05131398
24	0x3db30f8d	0.087432005
25	0xbdbfef08	-0.093717635
26	0xbd8df2de	-0.06931089
27	0xbdd262e7	-0.102727704
28	0x3b9edb44	0.004847916
29	0xbd5202e7	-0.0512723
30	0xbc93d48a	-0.018045682
31	0x3d0d8ae2	0.034556277
32	0xbde51e92	-0.111874714
33	0x3ddf26a6	0.108960435
34	0x3cc2a79b	0.023761561
35	0xbcda1769	-0.026622491
36	0xbd6d9903	-0.05800725
37	0xbc2a76fc	-0.010404345
38	0xbbc95eda	-0.0061453404
39	0xbdc852ac	-0.097813934
40	0x3afc093c	0.0019228826
41	0xbd8bce83	-0.06826498
42	0xbddf4e3a	-0.109035924
43	0x3d92fe16	0.07177369
44	0x3d17e944	0.037087694
45	0xbc0b9e39	-0.00852161
46	0x3d6961db	0.056978088
47	0x3d800c96	0.062524006
48	0xbda2ee60	-0.07955623
49	0xbc3c6559	-0.011498773
50	0x3d1c12f8	0.038104028
51	0x3d925715	0.07145516
52	0xb9c3a88f	-0.00037318884
53	0xbdd31ac0	-0.103078365
54	0xbdbfd8f7	-0.09367555
55	0xbd1d9206	-0.038469337
56	0x3d2e4ae2	0.042551883
57	0x3c6d0311	0.014466063
58	0xbd8bf886	-0.068345115
59	0x3d2eaf63	0.04264773
60	0xbda8ed47	-0.08248382
61	0x3d21d6d8	0.03951153
62	0x3db2727d	0.08713243
63	0xbda772ce	-0.08176194

weight f4 [12, 64]
0	0x3d2c075c	0.041999206
1	0x3d85eafd	0.06538961
2	0xbde84fa1	-0.11343313
3	0xbde997af	-0.114058845
4	0x3de47fd3	0.11157193
5	0xbe15df1c	-0.1463589
6	0x3c99f6e9	0.018794494
7	0xbc5f05c6	-0.013612216
8	0xbe23c28d	-0.15992184
9	0x3defe7b2	0.11714114
10	0xbd1baf2a	-0.038008846
11	0xbe2437af	-0.16036867
12	0x3e04e06e	0.12976238
13	0xbe085e38	-0.13317192
14	0xbd9799cf	-0.074023835
15	0xbdbd8749	-0.09254319
16	0x3caec272	0.021332953
17	0x3e173cd9	0.14769305
18	0x3e23b7b8	0.15988052
19	0xbdccc038	-0.099976
20	0x3e68fd18	0.22752798
21	0x3dac6ec9	0.08419568
22	0xbda5686e	-0.08076559
23	0x3cc9d62c	0.024638258
24	0xbdec39ec	-0.11534485
25	0x3c08f909	0.008360156
26	0x3d990b3d	0.07472847
27	0x3d64dabf	0.055872675
28	0x3e0ef2f8	0.13959873
29	0xbd057684	-0.03258373
30	0x3e0e72fc	0.1391105
31	0xbc15d20f	-0.00914432
32	0xbd063f17	-0.03277501
33	0xbdc544d9	-0.09632272
34	0x3df69311	0.120397694
35	0x3de6d8b3	0.11271801
36	0xbbdce0e6	-0.006740677
37	0xbc9382d6	-0.018006723
38	0x3d4f7de6	0.050657175
39	0x3d5f8b36	0.05457612
40	0xbd046117	-0.032319155
41	0x3d4a86a8	0.049444824
42	0xbd63352a	-0.055470623
43	0xbdc6b0d2	-0.097016945
44	0x3d5a2453	0.053257298
45	0x3e031af6	0.12803254
46	0xbdcfda3c	-0.10149047
47	0x3d4a0c33	0.04932804
48	0xbdda9f06	-0.106748626
49	0xbe0ad593	-0.13558035
50	0x3e034856	0.12820563
51	0xbdebe27a	-0.11517806
52	0x3dd2b9bf	0.102893345
53	0x3ce612e6	0.028085183
54	0x3d02bc2c	0.031917736
55	0x3baff51c	0.0053697955
56	0xbdb23470	-0.08701408
57	0xbcfec739	-0.031100856
58	0x3d48e219	0.04904375
59	0x3e1358fd	0.14389415
60	0xbd4887f2	-0.048957773
61	0xbdd5aa89	-0.104329176
62	0xbc6529a5	-0.01398698
63	0xbd88b218	-0.06674594
64	0xbd667054	-0.05625947
65	0xbe0d727e	-0.13813207
66	0xbc0d7276	-0.008633247
67	0x3e4e24ea	0.20131269
68	0xbe2bcaaf	-0.16776536
69	0xbe502ce1	-0.2032962
70	0xbcb2be89	-0.02181937
71	0x3e7023e5	0.23451193
72	0x3d88855a	0.0666606
73	0xbd7892e0	-0.060686946
74	0x3e64e626	0.2235342
75	0xbd8b2578	-0.06794256
76	0xbd2048d8	-0.03913197
77	0x3e4065f9	0.187889
78	0xbdf437e9	-0.119247265
79	0x3e3b7ec3	0.18310075
80	0xbd6ed5a2	-0.058309205
81	0x3e408cfb	0.1880378
82	0x3db931e4	0.09042719
83	0x3bb694da	0.0055719437
84	0x3e7896cd	0.24276276
85	0x3c76a3c1	0.01505369
86	0xbd677fc7	-0.056518342
87	0xbcc4b246	-0.024010789
88	0xbdb8e509	-0.0902806
89	0x3e59df69	0.2127663
90	0xbc90f806	-0.017696392
91	0x3de0f147	0.1098352
92	0xbce46e67	-0.027884675
93	0x3da8669d	0.08222697
94	0xbd2b071d	-0.04175483
95	0xbdfb20cb	-0.12262114
96	0xbdca861f	-0.09888863
97	0xbdfe1c59	-0.12407751
98	0xbe30704a	-0.17230335
99	0x3e8a7e8e	0.2704968
100	0x3e2e0a4b	0.16996114
101	0x3d9732da	0.07382746
102	0x3e000073	0.12500171
103	0xbd28bd30	-0.04119605
104	0x3e2d6835	0.16934283
105	0x3e1221d8	0.14270723
106	0x3dfdf13d	0.12399528
107	0x3c5b8d28	0.0134003535
108	0xbda8167b	-0.08207413
109	0x3ccb338d	0.024804855
110	0x3d26d152	0.040726967
111	0xbe251f40	-0.16125202
112	0x3e47414c	0.19458503
113	0xbe849308	-0.25893426
114	0xbe68ad0d	-0.22722264
115	0xbe4e06c3	-0.20119767
116	0x3d32a1a6	0.04361119
117	0x3d4a9f77	0.049468484
118	0x3e21c2ff	0.15797041
119	0x3e123457	0.14277779
120	0x3e1c8487	0.1528493
121	0xbceb05ec	-0.028689347
122	0x3cb212ff	0.021737574
123	0xbdd7d44e	-0.10538541
124	0xbdc0d071	-0.09414757
125	0x3c75a302	0.014992477
126	0xbe615d72	-0.22008303
127	0x3e18abae	0.1490924
128	0xbe2bd4f3	-0.16780452
129	0x3d0077d1	0.031364266
130	0xbbd2d153	-0.006433645
131	0x3e39e1ee	0.18152592
132	0x3e05f92a	0.1308333
133	0x3e56ae6e	0.20964977
134	0x3da3f9a0	0.080065966
135	0x3d6f4f49	0.05842522
136	0xbd81ce48	-0.06338173
137	0x3da88ebb	0.08230349
138	0x3d0fd76a	0.035117544
139	0xbd7d0087	-0.06176808
140	0xbb14118a	-0.0022593462
141	0xbda8b949	-0.08238465
142	0x3da73e0b	0.08166131
143	0xbc91b387	-0.0177858
144	0x3d57c34e	0.05267649
145	0x3dbe4736	0.09290926
146	0xbd2e5992	-0.04256589
147	0xbdddaee9	-0.10824377
148	0xbe999529	-0.29996613
149	0xbda69a53	-0.08134904
150	0x3cc3160b	0.023814222
151	0xbd349ff7	-0.044097867
152	0x3ddccd77	0.10781377
153	0xbddea666	-0.10871582
154	0xbb9e252f	-0.00482621
155	0xbddf2fba	-0.10897775
156	0x3c783747	0.015149898
157	0xbcdd00c6	-0.026977908
158	0x3e159821	0.14608814
159	0xbd87f621	-0.06638742
160	0x3b956d16	0.004560123
161	0x3ea7fdc0	0.32810783
162	0x3e50ddf6	0.20397171
163	0x3dc10c2c	0.0942615
164	0x3e464837	0.19363485
165	0xbd4fc079	-0.050720666
166	0x3ba98d52	0.0051743174
167	0xbdbd6576	-0.09247868
168	0xbdd21f3c	-0.10259864
169	0x3d7f3b76	0.062312566
170	0xbe408cec	-0.18803757
171	0x3e394239	0.18091668
172	0xbc68c57c	-0.01420724
173	0xbdec3a4c	-0.11534557
174	0xbd3652fb	-0.04451273
175	0x3e2dfa3f	0.16989993
176	0x3e12f2f7	0.14350496
177	0x3e29b826	0.16574153
178	0x3cb26b10	0.021779567
179	0xbd868104	-0.065675765
180	0xbba2ba0d	-0.0049660266
181	0xbe248627	-0.160668
182	0xbde2c480	-0.11072636
183	0xbe3a1ff1	-0.18176247
184	0xbe080a45	-0.13285168
185	0xbddbb558	-0.10727948
186	0xbe15a0c7	-0.14612113
187	0x3da86ada	0.08223505
188	0x3c9b1587	0.018931163
189	0x3d05be2a	0.032652058
190	0x3df5e32c	0.1200622
191	0xbde184b0	-0.11011636
192	0x3d814691	0.063122876
193	0x3dd931bf	0.106051914
194	0x3d981d7c	0.07427499
195	0xbdba7647	-0.09104591
196	0x3d6d3f13	0.05792148
197	0x3d225d10	0.039639533
198	0x3ddfd2d4	0.10928884
199	0x3e005944	0.12534052
200	0xbc1c694d	-0.00954659
201	0xbe33648e	-0.17518827
202	0x3c11c7eb	0.008897762
203	0x3dd8a392	0.105780736
204	0x3e17853b	0.14796917
205	0xbd9d65f1	-0.076854594
206	0xbd4b0781	-0.049567703
207	0x3d6b2078	0.05740401
208	0x3d9ad2f3	0.075597666
209	0x3dffc180	0.12488079
210	0xbe4c7be7	-0.1996914
211	0x3be1465d	0.006874843
212	0xbe1bd1ee	-0.152168
213	0x3cb13dcc	0.021635912
214	0x3d29ab92	0.041423388
215	0x3e1e2d81	0.15447046
216	0xbdfb2554	-0.12262979
217	0x3e16c8e4	0.14725071
218	0xbcbb1902	-0.022839073
219	0xbca16bfc	-0.019704811
220	0xbd9eca4c	-0.07753429
221	0xbd50d399	-0.050983045
222	0x3d93e747	0.07221847
223	0xbda55e20	-0.080745935
224	0x3e18b85c	0.14914078
225	0xbcf59fd5	-0.02998344
226	0xbd2c9d33	-0.042142104
227	0x3993180f	0.0002805595
228	0x3da3ca0e	0.07997523
229	0xbc9f5b86	-0.019452821
230	0x3daa8d2c	0.08327708
231	0x3e33f472	0.17573717
232	0x3e22193f	0.15829943
233	0x3c814870	0.015781611
234	0x3e0caee1	0.13738586
235	0x3d8038b5	0.06260816
236	0xbde09d19	-0.10967464
237	0x3dd1c8c6	0.102433726
238	0x3df66351	0.12030662
239	0xbbf926e6	-0.007603514
240	0xbd918a9e	-0.07106517
241	0x3dbea91d	0.093095995
242	0xbb37e2a4	-0.0028058672
243	0xbd2e9509	-0.0426226
244	0xbd497549	-0.049184117
245	0x3e003480	0.12520027
246	0xbcc48a45	-0.023991713
247	0xbd6e01d4	-0.058107212
248	0x3c5931fc	0.013256546
249	0xbd8379e7	-0.064197354
250	0xbd9a209c	-0.07525751
251	0x3c0b5a68	0.008505441
252	0x3e149bf6	0.1451262
253	0xbdcc7417	-0.0998308
254	0x3dba68c6	0.09102015
255	0xbd3269e5	-0.04355802

bias f4 [12]
0	0x3d81cf3a	0.063383535
1	0xbdd7d621	-0.10538889
2	0x3d095122	0.03352464
3	0x3db111b3	0.08645954
4	0x3ba1194d	0.004916346
5	0x3bc1ca4a	0.0059140073
6	0x3d1d149d	0.038349736
7	0xbcf7576f	-0.030193059
8	0x3e7b04bd	0.24513526
9	0xbd597f3e	-0.053099863
10	0x3d90d550	0.07071936
11	0x3c4ab72c	0.012372773
