logs/a1_amp_example/exported/policies/policy_1.pt (torch, 253704 bytes, 8 tensors)

weight f4 [256, 72]
-0.06518813 0.14417292 -0.12647411 -0.20060733 0.074328065 -0.0903009 -0.16036025 0.17065287
-0.0435649 -0.031898674 -0.09431072 -0.09603058 0.03193875 0.06135318 -0.073828876 0.14115402
-0.06668962 -0.055881623 -0.0930572 0.23469427 0.1609531 0.07221189 0.21004456 0.057803836
0.030262625 -0.027748894 -0.097004384 0.16873053 -0.12170559 0.1102433 -0.105854906 0.13665602
0.056061503 -0.15140831 0.13990079 0.10049383 0.070035934 0.025141867 -0.09023023 -0.024612235
-0.075202085 0.034196313 0.07620116 0.050122667 0.049272783 0.13833326 0.11279335 -0.069268666
0.083508305 -0.06662913 -0.11805439 -0.038707692 -0.039839648 0.04064897 -0.01067559 0.051771794
-0.006432045 0.04726624 -0.04722262 0.06617498 0.004779995 0.061723635 -0.069932185 0.07562204
-0.065415286 0.08118602 -0.10859556 0.07215073 -0.072809726 -0.08082003 -0.049663253 -0.048331562
-0.19750516 0.21500601 0.01918501 -0.17430209 -0.1845327 0.2253676 -0.102853395 0.38301572
-0.066680595 -0.088476315 -0.020138558 -0.08026869 -0.11615839 -0.006534319 -0.07587074 0.12007857
-0.09479522 -0.021388685 -0.021704637 0.25070986 0.07078446 0.118244156 -0.1870744 -0.19367345
0.118703805 -0.13906617 0.057789154 0.09996841 -0.006536576 0.08813501 0.047964513 -0.010274107
0.0045238403 -0.16306375 -0.11451714 -0.05287416 0.06935505 0.019985255 -0.12011621 -0.057632323
0.1292066 0.024482356 -0.07149659 -0.09578493 -0.03698755 -0.01477316 -0.105084285 0.023283096
0.0030208232 0.022789065 0.14226533 -0.051808834 -0.07793266 0.119742595 -0.08949846 0.07705187
-0.027446585 -0.023434667 -0.0129789775 0.061691232 0.13486658 0.037047002 -0.14189252 0.06219126
-0.009031691 -0.08709648 0.098400205 -0.038024906 -0.08930606 -0.04285782 0.10972339 0.03809661
-0.009685158 0.18103363 0.0380841 -0.3315573 -0.039877314 -0.03487343 0.026835304 0.30473527
-0.072229564 0.08972558 -0.20845948 -0.10267846 -0.09312837 0.0034655242 -0.15773515 0.047953542
-0.058723316 0.12504598 -0.1143448 0.034965347 -0.054502428 0.21401763 0.06951949 0.12349905
0.19060197 -0.019230945 -0.07280703 -0.01280596 -0.0037739398 0.052975815 -0.24962917 -0.0005329473
-6.372941e-05 0.1605737 0.06238836 0.13027953 0.075165905 -0.05517268 -0.024935601 -0.108742744
0.032030087 -0.013829445 -0.038721237 0.023906073 0.17208216 0.005321741 0.11554427 0.01895066
-0.0595759 0.010899173 -0.16647312 -0.111421205 0.01398975 -0.13427678 0.06853461 -0.024131397
-0.052234024 -0.071577564 -0.17241031 0.01647896 -0.06041961 -0.023047974 0.015377124 -0.03054924
0.06914682 0.02547591 -0.10543015 0.10501002 0.09665734 -0.07810862 0.025154958 -0.02680807
-0.059114885 -0.04726606 0.0044157454 -0.1575085 0.18995708 0.042971477 -0.14579327 0.019766798
-0.12271337 0.06658075 0.11107303 -0.16619597 0.023829026 -0.045297865 -0.0609111 -0.065022126
-0.06902431 -0.08524927 -0.20394 0.1952873 0.109896876 -0.101455905 0.17302775 0.09388549
0.03080557 0.081709825 0.042618092 -0.025613649 0.15300527 -0.07894349 0.11397149 0.3390918
0.025641318 0.10457347 0.16808082 0.09680634 -0.077260956 0.027700141 0.008544788 -0.055998676
00000000: 5b81 85bd 11a2 133e 6e82 01be 026c 4dbe
00000010: 5039 983d aeef b8bd 7a35 24be a0bf 2e3e
00000020: 1c71 32bd 2fa8 02bd fb25 c1bd aeab c4bd
00000030: 35d2 023d 794d 7b3d 9833 97bd ae8a 103e
00000040: 9194 88bd 21e4 64bd c694 bebd b253 703e
00000050: e4d0 243e d4e3 933d ec15 573e b7c3 6c3d
00000060: 53e9 f73c a651 e3bc 3caa c6bd b2c7 2c3e
00000070: c840 f9bd 3dc7 e13d 75ca d8bd 8eef 0b3e
00000080: bfa0 653d c80a 1bbe 2742 0f3e b6cf cd3d
00000090: 006f 8f3d 51f6 cd3c a0ca b8bd 999f c9bc
000000a0: 8d03 9abd 6f11 0c3d 5b0f 9c3d 6d4d 4d3d
000000b0: 42d2 493d 3ca7 0d3e 3300 e73d bbdc 8dbd
000000c0: 6706 ab3d da74 88bd 80c6 f1bd f58b 1ebd
000000d0: e62e 23bd 897f 263d abe8 2ebc a90e 543d
000000e0: e7c3 d2bb 3f9a 413d 826c 41bd bf86 873d
000000f0: 81a1 9c3b ecd1 7c3d 9b38 8fbd badf 9a3d
00000100: 73f8 85bd db44 a63d 5967 debd c3c3 933d
00000110: 441d 95bd f984 a5bd b26b 4bbd 51f7 45bd
00000120: cb3e 4abe 892a 5c3e e229 9d3c 3f7c 32be
00000130: 24f6 3cbe c4c6 663e cda4 d2bd a31a c43e
00000140: d68f 88bd 1233 b5bd 9ef9 a4bc e963 a4bd
00000150: 73e4 edbd d71d d6bb 1e62 9bbd c1eb f53d
00000160: ff23 c2bd 5337 afbc eccd b1bc 0b5d 803e
00000170: 71f7 903d fe29 f23d 6e90 3fbe 5552 46be
00000180: fb1a f33d 5d67 0ebe 52b4 6c3d 3dbc cc3d
00000190: c630 d6bb 2180 b43d 7076 443d ba54 28bc
000001a0: b93c 943b 2ffa 26be f687 eabd 9392 58bd
000001b0: 050a 8e3d 1eb8 a33c 7dff f5bd df0f 6cbd
000001c0: bc4e 043e 398f c83c ce6c 92bd e42a c4bd
000001d0: 4280 17bd 200b 72bc 6e36 d7bd 31bc be3c
000001e0: 01f9 453b 22b0 ba3c 01ae 113e 8035 54bd
000001f0: 299b 9fbd 9b3b f53d f84a b7bd 5fcd 9d3d
00000200: a9d7 e0bc 0ffa bfbc c7a5 54bc f2af 7c3d
00000210: 771a 0a3e 99be 173d 464c 11be 43bc 7e3d
00000220: a8f9 13bc a45f b2bd 0c86 c93d 01c0 1bbd
00000230: 18e6 b6bd ae8b 2fbd a8b6 e03d 310b 1c3d
00000240: 7fae 1ebc e160 393e 13fe 1b3d e1c1 a9be
00000250: 6556 23bd 71d7 0ebd b6d5 db3c 4306 9c3e
00000260: 18ed 93bd 0bc2 b73d 6776 55be 1649 d2bd
00000270: 16ba bebd d91d 633b 5385 21be ef6a 443d
00000280: dc87 70bd 0e0c 003e 9b2d eabd d337 0f3d
00000290: f03d 5fbd 7027 5b3e 3c60 8e3d 12ed fc3d
000002a0: 2a2d 433e 378a 9dbc da1b 95bd 17d0 51bc
000002b0: 3454 77bb 2bfd 583d ca9e 7fbe 7db5 0bba
000002c0: 77a6 85b8 6f6d 243e f08a 7f3d ff67 053e
000002d0: 95f0 993d c0fc 61bd bf45 ccbc 84b4 debd
000002e0: fb31 033d e594 62bc 299a 1ebd abd6 c33c
000002f0: 4e36 303e 0062 ae3b 79a2 ec3d 6a3e 9b3c
00000300: dc05 74bd 7292 323c ee77 2abe cd30 e4bd
00000310: 4435 653c da7f 09be e05b 8c3d 35af c5bc
00000320: 58f3 55bd 4297 92bd 548c 30be e2fe 863c
00000330: 8e7a 77bd 1bcf bcbc 55f0 7b3c 6642 fabc
00000340: d99c 8d3d dbb2 d03c c3eb d7bd 7e0f d73d
00000350: 49f4 c53d 6af7 9fbd c511 ce3c 999c dbbc
00000360: 7322 72bd 0e9a 41bd f5b1 903b e949 21be
00000370: 1c84 423e dc02 303d d54a 15be fbed a13c
00000380: 2651 fbbd 7d5b 883d 427a e33d 472f 2abe
00000390: 1735 c33c 418a 39bd eb7d 79bd 522a 85bd
000003a0: 9e5c 8dbd 2b97 aebd a6d5 50be 65f9 473e
000003b0: 9d11 e13d 1dc8 cfbd 302e 313e 0947 c03d
000003c0: f65b fc3c 7b57 a73d 4f90 2e3d b7d3 d1bc
000003d0: 6aad 1c3e 20ad a1bd e269 e93d 719d ad3e
000003e0: be0d d23c 9e2a d63d 611d 2c3e 6742 c63d
000003f0: fe3a 9ebd 68eb e23c 70ff 0b3c de5e 65bd

bias f4 [256]
0.07435596 -0.112173736 -0.04956784 -0.046040073 -0.051054917 0.07652939 -0.03818413 -0.043705437
-0.08168642 -0.013858925 -0.031695638 0.09684506 -0.078623384 0.06690088 0.05594425 0.031099861
-0.025114248 0.023989618 0.067818105 0.029916624 -0.08620443 -0.016018625 0.09091061 0.052200753
0.02769104 0.058554605 -0.10267763 -0.092529915 -0.043856774 -0.0759201 -0.013033196 -0.058698103
0.07485283 -0.0014338025 -0.0264038 -0.00033552293 -0.042307436 -0.0076418943 -0.100396976 0.04051666
0.01410271 -0.09715355 -0.024117196 -0.007957394 -0.015615453 0.02698089 -0.082631506 0.019671092
0.063998125 -0.12367027 -0.092509165 0.029011032 0.07356754 -0.037103202 0.08578041 0.09663211
-0.012387801 0.0076388605 0.07250137 -0.070573226 0.110898525 -0.10024479 0.08751654 0.01773995
0.0612051 -0.06805534 -0.04578361 0.0336573 0.10576743 -0.12986915 0.08163837 0.078044534
-0.09067715 0.035453513 0.10316815 0.09447632 0.0050071874 0.093177296 0.07702052 0.030863492
-0.07264051 0.04163893 0.04598478 -0.09400629 -0.030352889 0.088738956 0.11179627 -0.057021677
0.029758224 0.08286673 0.10393834 0.01740549 -0.029750183 -0.020137027 0.018599525 -0.010326831
0.009239841 -0.0052108313 0.036375247 -0.07052781 -0.023960339 -0.12646388 0.116753004 -0.07474342
0.1199081 -0.079504006 0.031791896 0.05177455 0.046853147 0.10159499 -0.0651643 0.009755528
-0.05281035 -0.00055935414 0.060307927 -0.13367718 0.11642885 -0.007562413 0.050791338 -0.085785374
0.13879654 0.05180967 0.038091354 -0.04171307 -0.03894791 -0.0035497972 0.044804912 -0.002059928
0.040426843 0.07472612 0.04597886 0.040569566 -0.12300155 0.050072987 0.028925084 0.04278553
0.062349655 0.0057856543 -0.021511754 -0.08258484 0.09842245 0.07493589 0.1220673 -0.035655707
0.057249386 0.057908703 -0.09090496 -0.036011133 -0.01988713 0.012860069 0.11052413 -0.08494288
0.107192054 -0.04920342 -0.09970856 0.05667769 -0.04820857 0.03312342 0.10088446 0.06859657
0.0075260345 -0.070647046 0.090401374 -0.08845699 0.0041300314 0.03148919 0.006351601 0.07728241
-0.06949309 -0.03547095 0.028443055 0.032877564 -0.0013615469 0.08352045 0.02425622 0.09109212
0.053977992 -0.028437767 0.07681005 -0.079658784 -0.06983357 0.09537951 0.015671758 0.09888089
0.055134308 0.05859558 0.015720278 -0.011125344 -0.11076468 -0.041438706 -0.10013232 -0.13133614
-0.019871563 -0.11010974 -0.09450056 0.037841912 -0.05062688 0.05609408 -0.10556894 0.08908403
-0.047154494 0.10770629 0.0060383286 -0.05929414 0.08203342 -0.04012749 -0.034821846 -0.029174648
-0.09554748 0.09304449 0.05307017 0.00496337 0.0073303725 -0.11135153 -0.07070471 -0.031524174
0.09859094 -0.09883511 -0.11226807 0.028777685 -0.06541129 0.056671176 -0.042519584 0.01393918
0.06685254 0.0065015326 -0.09576496 0.05299898 0.05543438 -0.10238254 0.02056317 -0.026781308
-0.05657572 0.031940516 0.034417093 -0.00043234773 0.014355068 -0.01811019 0.030699912 -0.022053367
-0.035112232 0.02202018 0.092471235 0.046768636 0.07362635 0.09434939 0.107725196 0.06546465
-0.11555114 0.07614253 0.021669293 0.10109355 -0.08761161 0.057659566 0.114160635 0.07355594
00000000: f047 983d 58bb e5bd a607 4bbd 8494 3cbd
00000010: f61e 51bd 71bb 9c3d f666 1cbd 7904 33bd
00000020: 364b a7bd 8b10 63bc 49d3 01bd b456 c63d
00000030: 4c05 a1bd 5403 893d cc25 653d 23c5 fe3c
00000040: 65bc cdbc e085 c43c 38e4 8a3d b513 f53c
00000050: f38b b0bd 7e39 83bc 582f ba3d 75d0 553d
00000060: 52d8 e23c f4d6 6f3d a648 d2bd 5380 bdbd
00000070: 29a3 33bd ff7b 9bbd 3089 55bc 6c6d 70bd
00000080: 714c 993d 6eee bbba c84c d8bc 20e9 afb9
00000090: 904a 2dbd db68 fabb ee9c cdbd ccf4 253d
000000a0: 0e0f 673c 71f8 c6bd 6d91 c5bc bb5f 02bc
000000b0: f5d7 7fbc 0707 dd3c b53a a9bd 4525 a13c
000000c0: 7311 833d d746 fdbd 7275 bdbd 8ba8 ed3c
000000d0: 94aa 963d 87f9 17bd a4ad af3d 0ee7 c53d
000000e0: 34f6 4abc 684f fa3b 997b 943d b288 90bd
000000f0: c41e e33d 244d cdbd df3b b33d 5f53 913c
00000100: 33b2 7a3d 9960 8bbd 9887 3bbd 3ddc 093d
00000110: 989c d83d 6bfc 04be 0532 a73d d0d5 9f3d
00000120: f1b4 b9bd b437 113d d349 d33d cd7c c13d
00000130: 5513 a43b bdd3 be3d efbc 9d3d 6fd5 fc3c
00000140: 8cc4 94bd 958d 2a3d 895a 3c3d 5f86 c0bd
00000150: 9fa6 f8bc c5bc b53d 71f5 e43d 908f 69bd
00000160: 85c7 f33c 08b6 a93d a0dd d43d f595 8e3c
00000170: a8b6 f3bc 68f6 a4bc 085e 983c de31 29bc
00000180: b462 173c 9fbf aabb 36fe 143d e270 90bd
00000190: 7948 c4bc bf7f 01be 331c ef3d 1413 99bd
000001a0: 6192 f53d ffd2 a2bd 3838 023d 8d11 543d
000001b0: 16e9 3f3d 0911 d03d dc74 85bd a6d5 1f3c
000001c0: aa4f 58bd 9fa1 12ba 7205 773d ace2 08be
000001d0: 4072 ee3d 1ece f7bb 940a 503d 3eb0 afbd
000001e0: ae20 0e3e 6036 543d ae05 1c3d 53db 2abd
000001f0: d887 1fbd b7a3 68bb 5b85 373d dbff 06bb
00000200: 9e96 253d 020a 993d 5454 3c3d 462c 263d
00000210: 3de8 fbbd 5519 4d3d 4cf4 ec3c e13f 2f3d
00000220: 5a62 7f3d 9695 bd3b 6b39 b0bc 3e22 a9bd
00000230: b691 c93d fd77 993d 6cfe f93d b80b 12bd
00000240: 557e 6a3d ad31 6d3d 612c babd 6980 13bd
00000250: 56ea a2bc 0ab3 523c 7a5a e23d 88f6 adbd
00000260: 8287 db3d 8689 49bd 0034 ccbd de26 683d
00000270: 5976 45bd 6cac 073d 839c ce3d 5c7c 8c3d
00000280: f49c f63b 66af 90bd 5b24 b93d f028 b5bd
00000290: 3755 873b cffa 003d 1721 d03b 3d46 9e3d
000002a0: 6552 8ebd fd49 11bd 6901 e93c a0aa 063d
000002b0: ef75 b2ba c50c ab3d fbb4 c63c 818e ba3d
000002c0: 0718 5d3d 52f6 e8bc 964e 9d3d 2524 a3bd
000002d0: e704 8fbd 5556 c33d 0f62 803c 1082 ca3d
000002e0: 83d4 613d eb01 703d d0c7 803c 1347 36bc
000002f0: 98d8 e2bd a2bb 29bd 2c12 cdbd fb7c 06be
00000300: b0c9 a2bc 3781 e1bd 8289 c1bd 1f00 1b3d
00000310: 225e 4fbd e8c2 653d 8734 d8bd b071 b63d
00000320: 1225 41bd 1e95 dc3d 2cdd c53b 6ade 72bd
00000330: 2301 a83d b95c 24bd 5aa1 0ebd acff eebc
00000340: 66ae c3bd 1c8e be3d 1b60 593d c4a3 a23b
00000350: 9f33 f03b 450c e4bd a2cd 90bd 7e1f 01bd
00000360: 0cea c93d 106a cabd cdec e5bd 2ebf eb3c
00000370: 5bf6 85bd 0920 683d 0429 2ebd 2961 643c
00000380: fce9 883d cf0a d53b 6b20 c4bd 7515 593d
00000390: 290f 633d f0ad d1bd 1874 a83c 7964 dbbc
000003a0: f1bb 67bd 0fd4 023d f0f8 0c3d bbac e2b9
000003b0: 8531 6b3c d25b 94bc 627e fb3c 43a9 b4bc
000003c0: d8d1 0fbd aa63 b43c 8f61 bd3d 7890 3f3d
000003d0: 69c9 963d 413a c13d 079f dc3d 5512 863d
000003e0: 13a6 ecbd 9df0 9b3d cd83 b13c 230a cf3d
000003f0: b76d b3bd 702c 6c3d 0dcd e93d 7fa4 963d

weight f4 [128, 256]
0.035145935 -0.08534091 -0.051213283 -0.0394846 -0.06320096 0.012739193 0.0054280306 -0.012828519
-0.003733386 -0.044572875 0.044654503 0.05537458 0.005709628 0.08712233 0.02007273 -0.038698517
0.10808588 -0.11085599 0.033463635 0.013858059 0.09852503 0.023531487 -0.06030826 0.05662201
-0.029078346 -0.0146124745 -0.08539461 -0.02913514 0.04078978 0.051790766 0.00863344 0.074962035
-0.007888829 -0.026133295 0.012941283 -0.00018329016 -0.03670436 0.05714112 -0.059309203 -0.08302727
0.062388323 0.034213394 -0.0011280637 0.014773565 0.029309798 0.0034608636 -0.034092076 0.047577128
0.0023362818 -0.0531877 -0.039557833 0.047896843 -0.032716148 0.007629689 0.027985852 -0.04439708
0.075922675 -0.050810657 -0.00041629007 0.04471724 -0.0018954426 -0.030237164 0.06806033 -0.035245664
0.0288928 -0.037881877 0.014467244 0.019387294 0.079128996 0.012950119 -0.064186424 -0.03487459
-0.009352936 -0.08980476 0.0325643 -0.058418512 -0.0059188716 0.014534874 0.1371945 -0.026667679
0.013807067 -0.024571232 0.1418435 -0.017634282 0.08146349 0.008755916 -0.034079507 0.045262046
0.10814737 0.049321916 -0.05167197 0.0590354 -0.041293286 0.019727439 0.068375416 -0.04252371
0.044660106 0.037742622 0.0067199613 0.030351773 -0.06369656 0.04524227 0.052290972 0.030636014
-0.019201199 -0.03255869 0.0023061293 -0.05524945 -0.14446379 0.06683514 0.04426775 -0.044294804
0.010617531 0.0542477 0.077702045 0.03626036 0.041182354 -0.01357636 -0.012354711 -0.12004842
0.07693739 -0.0049676616 -0.027706904 0.099173725 -0.06410631 0.00031807122 -0.047676902 -0.019964239
0.0005232902 -0.02641276 0.016667739 -0.04097982 0.056539476 0.037503533 0.01310628 0.08862318
-0.005522176 -0.02359284 0.02385449 0.045820706 -0.07678945 -0.043079454 0.006761891 0.05519574
0.033114195 -0.011584326 -0.04149427 0.14361803 -0.04658331 0.018168403 0.05293649 -0.003018751
0.034630135 0.0266778 -0.08471399 0.0051790955 0.037897084 0.075207785 -0.06651408 0.03191309
0.03608841 -0.05680895 0.108493246 0.036228023 -0.052002124 0.11027894 0.028736094 0.10982828
0.05167925 -0.041862708 -0.0032887405 0.032674678 0.01738659 -0.051500782 -0.00019073085 -0.012639048
-0.033108607 -0.029841248 0.016859472 0.0562018 0.0634926 0.0040360685 0.0148283085 0.06317393
-0.02011371 -0.10649001 -0.06824331 0.040182233 -0.01781969 -0.033166658 -0.01302458 -0.05998875
-0.025817608 -0.06265178 0.08025342 -0.013957332 -0.024792073 0.015261646 -0.0636795 0.0068004536
-0.04653144 0.04992316 0.053472593 -0.0020629186 0.037666693 0.09613129 -0.050676093 0.013693011
0.080737725 -0.044764135 0.006156021 0.008965558 0.030370446 0.007352002 0.031343088 0.02671114
0.030187305 0.051347118 0.042194024 -0.018213032 -0.021978935 -0.043325357 -0.0354038 0.0649006
0.09386324 0.025951657 -0.09018303 -0.025120076 0.015605004 -0.007572726 0.054065984 -0.03702846
-1.2822146e-05 -0.033957295 -0.018806078 -0.037234426 0.10548996 0.0225156 0.061785594 -0.023791686
-0.08743065 0.14390887 -0.024386391 -0.210676 -0.09786199 0.03173549 0.025518285 -0.071601585
-0.058099784 -0.008698707 -0.09245007 0.05587218 0.07273138 0.0016935038 0.00907631 -0.042645726
00000000: 2ff5 0f3d 37c7 aebd 05c5 51bd 9bba 21bd
00000010: 816f 81bd 0cb8 503c 9fdd b13b b52e 52bc
00000020: d3ab 74bb 0c92 36bd a4e7 363d 75d0 623d
00000030: d517 bb3b 316d b23d 916f a43c 5682 1ebd
00000040: 215c dd3d 7708 e3bd 2a11 093d ea0c 633c
00000050: 7ec7 c93d 1bc5 c03c cb05 77bd 7bec 673d
00000060: b635 eebc 2969 6fbc 5fe3 aebd d1ac eebc
00000070: 2f13 273d 8e22 543d 4673 0d3c b285 993d
00000080: 2640 01bc 7e15 d6bc ad07 543c 9431 40b9
00000090: 5057 16bd cf0c 6a3d 35ee 72bd 340a aabd
000000a0: e68a 7f3d 5823 0c3d 89db 93ba d30c 723c
000000b0: 1a1b f03c a8cf 623b 22a4 0bbd 3ce0 423d
000000c0: 4e1c 193b 59db 59bd 6507 22bd 7b2f 443d
000000d0: 5e01 06bd 7802 fa3b 9642 e53c b6d9 35bd
000000e0: 597d 9b3d d61e 50bd 8241 dab9 6d29 373d
000000f0: 8070 f8ba eeb3 f7bc 3763 8b3d c25d 10bd
00000100: 98b0 ec3c 072a 1bbd 0508 6d3c 1ad2 9e3c
00000110: 620e a23d bc2c 543c 2c74 83bd a8d8 0ebd
00000120: 0f3d 19bc 8feb b7bd 2562 053d 4048 6fbd
00000130: 18f3 c1bb ae23 6e3c b77c 0c3e 2d76 dabc
00000140: 0937 623c 9c49 c9bc 6c3f 113e c575 90bc
00000150: 55d6 a63d f974 0f3c f496 0bbd b264 393d
00000160: 5e7c dd3d c705 4a3d fda5 53bd 1bcf 713d
00000170: 2623 29bd 709b a13c 6908 8c3d 572d 2ebd
00000180: 84ed 363d 0298 1a3d 1f33 dc3b 48a4 f83c
00000190: 5873 82bd f54f 393d 0f2f 563d 61f8 fa3c
000001a0: d54b 9dbc 435c 05bd 6e22 173b 3f4d 62bd
000001b0: 51ee 13be dde0 883d 1a52 353d 786e 35bd
000001c0: 27f5 2d3c d632 5e3d 4022 9f3d be85 143d
000001d0: d4ae 283d 626f 5ebc 6a6b 4abc f2db f5bd
000001e0: 5a91 9d3d c4c7 a2bb 97f9 e2bc 981b cb3d
000001f0: 2b4a 83bd ccc2 a639 db48 43bd 0b8c a3bc
00000200: 692d 093a 935f d8bc c88a 883c 75da 27bd
00000210: f095 673d 4e9d 193d b9bb 563c 1280 b53d
00000220: 5ff3 b4bb c645 c1bc 7e6a c33c 7eae 3b3d
00000230: ca43 9dbd 1574 30bd da92 dd3b ee14 623d
00000240: c0a2 073d 2fcc 3dbc e5f5 29bd 9b10 133e
00000250: 24ce 3ebd e7d5 943c efd3 583d 3dd6 45bb
00000260: 54d8 0d3d 678b da3c 877e adbd 67b5 a93b
00000270: f939 1b3d 8a06 9a3d 8938 88bd 4db7 023d
00000280: 71d1 133d 80b0 68bd b531 de3d d663 143d
00000290: 2e00 55bd edd9 e13d f567 eb3c a6ed e03d
000002a0: 9fad 533d 3b78 2bbd e987 57bb e2d5 053d
000002b0: 526e 8e3c 7cf2 52bd ecfe 47b9 0214 4fbc
000002c0: e49c 07bd a275 f4bc e01c 8a3c dc33 663d
000002d0: 6908 823d ff40 843b 6ff2 723c 5561 813d
000002e0: 82c5 a4bc 6f17 dabd 26c3 8bbd 2096 243d
000002f0: 99fa 91bc c3d9 07bd 0c65 55bc c3b6 75bd
00000300: 737f d3bc 944f 80bd e85b a43d 4bad 64bc
00000310: bf18 cbbc fc0b 7a3c 666a 82bd 57d6 de3b
00000320: c097 3ebd 3a7c 4c3d 1406 5b3d 0832 07bb
00000330: 6448 1a3d 7be0 c43d bc91 4fbd a758 603c
00000340: d259 a53d 995a 37bd 72b8 c93b 47e4 123c
00000350: 71cb f83c 10e9 f03b 9c61 003d 52d1 da3c
00000360: 5e4b f73c 5b51 523d a4d3 2c3d 7f33 95bc
00000370: 2b0d b4bc ee75 31bd 9303 11bd 9bea 843d
00000380: 5f3b c03d 9298 d43c e1b1 b8bd 9ec8 cdbc
00000390: 21ac 7f3c a124 f8bb 4b74 5d3d 28ab 17bd
000003a0: b31e 57b7 ce16 0bbd 340f 9abc 2083 18bd
000003b0: 1f0b d83d a372 b83c e412 7d3d c8e6 c2bc
000003c0: d70e b3bd d95c 133e f8c5 c7bc 73bb 57be
000003d0: de6b c8bd 13fd 013d b90b d13c daa3 92bd
000003e0: 0afa 6dbd 0685 0ebc 7656 bdbd 3ada 643d
000003f0: 31f4 943d 8ff8 dd3a ceb4 143c 49ad 2ebd

bias f4 [128]
0.074122585 0.014375266 -0.019397989 -0.0859064 -0.0037593036 -0.071385324 -0.033143997 0.003725484
0.028257167 -0.046492457 0.0118026165 -5.611336e-05 0.044397313 0.012555118 -0.023524228 0.014110166
-0.040273115 0.034815982 -0.01808148 0.020662054 0.02747936 -0.0038745725 -0.06407005 -0.0021319855
-0.021921534 0.08531896 -0.058864016 -0.05298992 0.068555355 -0.017950296 0.009034886 -0.010995977
0.08339132 -0.027823515 -0.075545534 -0.04606657 -0.0075253416 0.035377968 -0.058341585 -0.059174605
0.06851116 0.017361296 -0.010999529 -0.003363846 0.036285345 0.019506354 0.039177623 0.05896795
0.08806345 -0.05061105 0.03732841 0.045054823 0.013553339 -0.010712212 -0.022983996 -0.050871283
-0.05487546 -0.00079229666 0.05954556 -0.035538953 0.0016970545 0.049609415 0.04046326 -0.08912227
0.0143458 -0.028056884 0.043552447 -0.059971645 -0.027528735 -0.049734246 0.032609787 -0.055296257
0.02538789 -0.07900165 0.030462628 -0.05221431 -0.034195404 -0.02559973 -0.0099476995 -0.009259511
-0.035027266 -0.016608663 -0.044973664 -0.0009985602 -0.04997793 0.063826196 0.061784737 0.011877269
-0.01509564 -0.072737664 -0.019454563 0.008287136 -0.039949175 -0.0154462755 -0.052166767 0.0020429946
-0.049566586 0.006870486 -0.028126165 -0.025491115 -0.009561119 0.0056942957 -0.061099075 0.03370335
-0.0243253 -0.053307146 -0.0690284 0.0068257777 -0.041726016 -0.08914384 -0.07835243 -0.07296203
-0.015295809 -0.0655469 0.016023396 0.0092889685 -0.014256755 -0.048966322 -0.0018923724 0.0036181891
-0.025104614 0.036351923 -0.039958045 -0.042446468 -0.048187084 -0.042478018 -0.02257943 0.0071201026
00000000: 95cd 973d 3c86 6b3c 88e8 9ebc b2ef afbd
00000010: a65e 76bb 7832 92bd 00c2 07bd 4027 743b
00000020: 937b e73c e06e 3ebd c35f 413c 435b 6bb8
00000030: f5d9 353d fbb3 4d3c e2b5 c0bc 532e 673c
00000040: 6cf5 24bd 349b 0e3d 9d1f 94bc 7843 a93c
00000050: 651c e13c 8aec 7dbb 2937 83bd c8b8 0bbb
00000060: ca94 b3bc b5bb ae3d 651b 71bd f50b 59bd
00000070: c066 8c3d 800c 93bc 0f07 143c 7828 34bc
00000080: 12c9 aa3d 24ee e3bc 9eb7 9abd 4db0 3cbd
00000090: 2497 f6bb 7de8 103d 96f7 6ebd 1261 72bd
000000a0: 944f 8c3d 4739 8e3c 5e37 34bc f973 5cbb
000000b0: f19f 143d cacb 9f3c b778 203d 6188 713d
000000c0: 9c5a b43d 884d 4fbd ade5 183d 688b 383d
000000d0: d30e 5e3c 4682 2fbc ef48 bcbc 685e 50bd
000000e0: 17c5 60bd 21b2 4fba 0ce6 733d 4b91 11bd
000000f0: b36f de3a 3e33 4b3d cebc 253d bd85 b6bd
00000100: a50a 6b3c 8dd7 e5bc 0d64 323d d4a4 75bd
00000110: f183 e1bc 23b6 4bbd d791 053d 547e 62bd
00000120: 44fa cf3c 9ecb a1bd c38c f93c acde 55bd
00000130: 7b10 0cbd 86b6 d1bc adfb 22bc 34b5 17bc
00000140: c078 0fbd e40e 88bc 4e36 38bd 1fe2 82ba
00000150: a8b5 4cbd 4fb7 823d fe11 7d3d e098 423c
00000160: b453 77bc 7cf7 94bd 2d5f 9fbc c5c6 073c
00000170: bfa1 23bd 6012 7dbc d2ac 55bd c3e3 053b
00000180: 5506 4bbd d021 e13b d868 e6bc bed2 d0bc
00000190: 3da6 1cbc 3797 ba3b 0643 7abd 860c 0a3d
000001a0: da45 c7bc 9858 5abd c35e 8dbd c6aa df3b
000001b0: e6e8 2abd 0c91 b6bd 3d77 a0bd 1e6d 95bd
000001c0: 469b 7abc 743d 86bd 7f43 833c c230 183c
000001d0: 2a95 69bc e990 48bd 7b09 f8ba 241f 6d3b
000001e0: 31a8 cdbc c1e5 143d 0cab 23bd 59dc 2dbd
000001f0: d25f 45bd 6efd 2dbd 7ff8 b8bc c04f e93b

weight f4 [64, 128]
-0.122419044 -0.013717514 0.13079007 -0.10120895 -0.035804283 -0.0906689 0.08184157 0.0062354254
-0.011391814 0.084876224 -0.10576893 0.07888448 0.06155522 0.00011920345 0.023819605 0.08002739
0.018582901 -0.0079243565 0.02613971 0.023405036 0.014837746 0.09169775 0.0075286576 0.109451964
0.09963904 -0.02082958 0.028421355 0.03876221 0.13243568 0.05388132 0.13454892 -0.11073976
0.06925576 -0.050906383 0.04445997 -0.070272 -0.0517898 0.031135874 -0.0056365174 -0.030978018
-0.0062808036 -0.024856452 0.042762518 -0.121997304 -0.07020572 0.094578914 0.06417457 0.07083185
-0.015533777 -0.023470437 0.091511495 0.02242368 0.11087252 0.05495878 0.005829297 -0.068734966
-0.06284607 0.055363003 0.039263774 -0.030504705 -0.02852926 0.012442293 0.07792532 0.058233924
-0.07138024 -0.012119098 0.039186668 0.02512162 -0.012388757 -0.032922782 -0.051196173 0.023954948
0.0412506 0.069453165 -0.034211684 0.036962952 -0.00015391772 0.018466586 0.06463335 -0.0021143137
-0.024654184 -0.09710222 -0.015552529 -0.059934527 -0.02717473 0.13687031 0.11983009 0.044309
-0.019002795 0.031805586 0.0013832843 0.14807288 0.030698 -0.07472158 -0.07362378 -0.1014033
0.0400578 -0.057468254 -0.012206425 0.071375415 0.05493148 0.08525522 0.105556525 0.051309902
0.09494926 -0.010197409 -0.024450649 0.047594454 0.07823154 0.12948923 -0.078655675 -0.040767267
-0.068491444 -0.028759727 -0.031739306 -0.06564907 -0.16379797 -0.014161655 -0.04254873 0.16569522
0.071807 -0.0056326385 -0.15884733 0.10402865 -0.0687056 0.09983282 -0.03827241 -0.12761557
-0.08519669 0.08239982 -0.056628626 0.03729841 0.040528107 0.06456329 -0.06518487 0.021068318
-0.06682635 -0.114897266 -0.059044983 -0.034595508 -0.058194596 -0.0013729994 -0.050809693 0.052976735
0.012229033 -0.06472713 0.057077963 -0.053497504 -0.04948087 -0.019191036 0.051964007 -0.11308559
0.005848898 0.062086727 -0.011261448 -0.15496053 -0.046763897 0.007148445 0.048189312 -0.021654677
-0.04603125 0.07578214 -0.040493373 0.030297065 -0.0012385012 0.093798384 -0.04551102 0.06368971
0.063618995 -0.06792007 -0.06632209 0.04782043 -0.031204594 0.041275114 0.015209502 -0.0098538585
-0.08967574 -0.05822329 -0.01761026 -0.03838905 0.062292557 0.010159887 0.01767541 -0.11528222
-0.012848351 -0.06694495 -0.122470506 0.024409063 -0.13303104 0.073175766 0.037350506 0.059237
-0.0067273444 0.03092399 0.044657763 0.010918209 -0.024319975 0.09362347 -0.08772778 -0.05686383
0.0068387724 -0.07043239 0.114296556 -0.035850305 -0.07075531 -0.048745118 -0.13864028 -0.013877523
-0.01874586 0.014020973 -0.0811627 0.035069898 -0.051402073 0.034353096 0.053065896 0.06976532
-0.008671819 -0.02055415 0.06691998 0.11737903 -0.028065598 -0.004768296 -0.009147292 0.0737804
0.034031752 -0.07731742 -0.08300354 0.11754224 -0.09050126 0.102476865 -0.007955365 -0.016029159
0.10857723 -0.081327595 -0.13109098 0.08846384 0.03823365 0.011870072 0.06885473 0.11212539
-0.07463994 0.045147613 0.012263288 0.10727432 -0.10482358 -0.06499738 0.13147077 0.070780344
0.10823537 -0.026670214 0.051705346 -0.046006344 0.08766683 -0.04981551 0.016755156 -0.046479974
00000000: d6b6 fabd 6dbf 60bc d5ed 053e a346 cfbd
00000010: 83a7 12bd 9eb0 b9bd 8e9c a73d 8a52 cc3b
00000020: bba4 3abc 96d3 ad3d 619d d8bd 308e a13d
00000030: 5421 7c3d ddfc f938 5521 c33c 66e5 a33d
00000040: 2b3b 983c 29d5 01bc f222 d63c ebbb bf3c
00000050: 041a 733c 08cc bb3d f5b2 f63b 5a28 e03d
00000060: 8e0f cc3d cca2 aabc e7d3 e83c 20c5 1e3d
00000070: 389d 073e a9b2 5c3d 31c7 093e 87cb e2bd
00000080: f7d5 8d3d 3683 50bd a81b 363d c4ea 8fbd
00000090: 8b21 54bd a910 ff3c 89b2 b8bb 9dc5 fdbc
000000a0: 33cf cdbb c29f cbbc c027 2f3d b9d9 f9bd
000000b0: 04c8 8fbd 97b2 c13d f56d 833d 4a10 913d
000000c0: 6281 7ebc 1345 c0bc 616a bb3d deb1 b73c
000000d0: 2211 e33d 751c 613d b003 bf3b ebc4 8cbd
000000e0: 71b5 80bd 51c4 623d 0dd3 203d 01e5 f9bc
000000f0: 32b6 e9bc c2da 4b3c 4f97 9f3d b286 6e3d
00000100: ce2f 92bd 2e8f 46bc 3382 203d dbcb cd3c
00000110: 37fa 4abc 0ada 06bd 14b3 51bd 2b3d c43c
00000120: 64f6 283d 763d 8e3d 8d21 0cbd 7766 173d
00000130: f964 21b9 3d47 973c 7d5e 843d 4c90 0abb
00000140: 92f7 c9bc 87dd c6bd 09d0 7ebc e87d 75bd
00000150: 8a9d debc bb27 0c3e 7a69 f53d 5b7d 353d
00000160: c0ab 9bbc 9346 023d 524f b53a 6ba0 173e
00000170: 5f7a fb3c a107 99bd 10c8 96bd 89ac cfbd
00000180: a613 243d d563 6bbd 75fd 47bc 462d 923d
00000190: d5ff 603d 4a9a ae3d 052e d83d 552a 523d
000001a0: c274 c23d 0913 27bc ba4c c8bc 67f2 423d
000001b0: dc37 a03d d398 043e 3a16 a1bd 94fb 26bd
000001c0: 3e45 8cbd 8599 ebbc 1301 02bd 0573 86bd
000001d0: a8ba 27be 4906 68bc 9447 2ebd 02ac 293e
000001e0: 8c0f 933d ff91 b8bb e0a8 22be f90c d53d
000001f0: 86b5 8cbd 2675 cc3d 88c3 1cbd a8ad 02be
00000200: 9a7b aebd 3dc1 a83d 6bf3 67bd 38c6 183d
00000210: cd00 263d c239 843d a57f 85bd 7797 ac3c
00000220: 41dc 88bd 424f ebbd 27d9 71bd 05b4 0dbd
00000230: 755d 6ebd 37f6 b3ba d31d 50bd 22fe 583d
00000240: 485c 483c a88f 84bd 95ca 693d 3320 5bbd
00000250: 74ac 4abd 8536 9dbc 36d8 543d 6b99 e7bd
00000260: 1da8 bf3b a74e 7e3d f081 38bc f9ad 1ebe
00000270: 808b 3fbd 813d ea3b 2862 453d 2665 b1bc
00000280: 448b 3cbd ab33 9b3d 61dc 25bd 8d31 f83c
00000290: 3455 a2ba 5e19 c03d c369 3abd c06f 823d
000002a0: ad4a 823d ad19 8bbd e0d3 87bd 5bdf 433d
000002b0: c7a0 ffbc 1810 293d 4631 793c 1472 21bc
000002c0: eaa7 b7bd 8b7b 6ebd 6443 90bc d63d 1dbd
000002d0: 7b26 7f3d a875 263c 05cc 903c 1619 ecbd
000002e0: e481 52bc 6f1a 89bd d1d1 fabd 84f5 c73c
000002f0: 4a39 08be 2ddd 953d d8fc 183d 7fa2 723d
00000300: 0e71 dcbb 4f54 fd3c 0feb 363d 4ae2 323c
00000310: af3a c7bc a9bd bf3d 9faa b3bd 0cea 68bd
00000320: c817 e03b db3e 90bd 5014 ea3d c5d7 12bd
00000330: 29e8 90bd f6a8 47bd b8f7 0dbe 8d5e 63bc
00000340: eb90 99bc 39b8 653c a138 a6bd 74a5 0f3d
00000350: fb8a 52bd d5b5 0c3d a05b 593d 1fe1 8e3d
00000360: 3f14 0ebc 2d61 a8bc 580d 893d 6b64 f03d
00000370: d3e9 e5bc 5e3f 9cbb 86de 15bc 2e1a 973d
00000380: e164 0b3d 9858 9ebd c3fd a9bd fcb9 f03d
00000390: b958 b9bd 64df d13d 3857 02bc 954f 83bc
000003a0: bd5d de3d 158f a6bd b73c 06be 882c b53d
000003b0: e39a 1c3d b17a 423c b503 8d3d ffa1 e53d
000003c0: d3dc 98bd b4ec 383d f5eb 483c a4b2 db3d
000003d0: bfad d6bd 591d 85bd 46a0 063e 49f5 903d
000003e0: 81aa dd3d 7e7b dabc fcc8 533d 2671 3cbd
000003f0: ab8a b33d 590b 4cbd 1c42 893c c961 3ebd

bias f4 [64]
-0.046201833 0.0859124 -0.018340252 -0.06396006 0.06564172 0.12053168 -0.061518647 -0.034015775
-0.060290463 -0.06604728 -0.058324218 0.007989442 -0.02942908 -0.004438739 -0.07658777 -0.12591897
0.013511943 0.01514296 -0.053285472 -0.077895045 -0.07294961 0.09418796 0.0929141 -0.01079309
-0.034745444 0.010101241 -0.050084867 0.014866771 0.090653144 0.036600646 0.066590995 0.16715968
0.051207837 0.064736485 -0.09075357 -0.041794956 0.10909376 0.014052554 0.086690225 -0.084164076
0.102056056 -0.005396301 -0.12090192 -0.077223085 -0.075788185 0.023179656 0.06407873 0.07318445
-0.08727173 0.005739681 -0.0067038257 -0.065988556 -0.11078316 -0.032331463 -0.021267932 0.088808395
0.11113023 -0.020816535 0.07634206 0.069054045 -0.071437486 -0.043828532 0.0049547865 0.08254191
00000000: 223e 3dbd d7f2 af3d 4c3e 96bc 7efd 82bd
00000010: 2b6f 863d 50d9 f63d fafa 7bbd 2054 0bbd
00000020: 22f3 76bd cc43 87bd 60e5 6ebd 26e6 023c
00000030: 4115 f1bc d772 91bb 0cda 9cbd e7f0 00be
00000040: 3261 5d3c 2d1a 783c de41 5abd 7087 9fbd
00000050: 9b66 95bd 9ee5 c03d bf49 be3d 80d5 30bc
00000060: 3d51 0ebd ad7f 253c ca25 4dbd c293 733c
00000070: 5ba8 b93d 8fea 153d dc60 883d e82b 2b3e
00000080: 4fbf 513d 9094 843d 02dd b9bd 3031 2bbd
00000090: 8d6c df3d af3c 663c a58a b13d 375e acbd
000000a0: c402 d13d 74d3 b0bb 6d9b f7bd 2327 9ebd
000000b0: d636 9bbd 43e3 bd3c b63b 833d bbe1 953d
000000c0: 85bb b2bd ef13 bc3b c4ab dbbb 0225 87bd
000000d0: 48e2 e2bd ff6d 04bd 163a aebc 2de1 b53d
000000e0: 3f98 e33d 7087 aabc 3a59 9c3d 356c 8d3d
000000f0: d14d 92bd 8c85 33bd c35b a23b bc0b a93d

weight f4 [12, 64]
0.084850155 -0.14338575 0.004963491 0.01775646 -0.08417178 0.18148106 0.15488036 0.067763306
-0.11229244 0.08964751 0.0014750451 -0.08285221 0.05785554 -0.040568434 0.10748996 0.16748242
-0.057869796 0.1084188 0.019655455 0.036807302 0.07410364 0.13966344 -0.039692372 0.058844298
-0.006553624 0.07054864 -0.028572116 -0.043501347 -0.12208037 0.06796198 0.011156559 -0.01861622
0.06685439 0.08853652 0.1474409 -0.15162688 -0.06955147 0.07019304 0.13888897 0.047546774
-0.016162127 0.007910856 -0.071914114 -0.056572348 -0.020857835 -0.29291403 0.028633049 -0.10908833
0.14732714 0.048469193 0.14099368 -0.121858716 0.051704504 -0.08755316 0.014164555 -0.06967542
0.116246365 0.028460145 -0.14161588 -0.043123852 0.08328678 0.014662574 0.0101212105 0.17530997
-0.27419683 -0.22317092 -0.15539068 -0.093141034 -0.14752889 -0.16276142 0.28687477 0.11951823
-0.24691905 0.19403988 0.16310216 0.20036055 -0.22157602 0.074314974 0.36894572 0.32448015
0.21005337 -0.123018146 0.25217786 0.19942412 0.31846157 -0.052685097 -0.26075903 0.17548959
0.17175917 -0.0013930829 0.0014671412 -0.27539665 -0.27508947 0.13627262 -0.06900637 -0.26813728
-0.20486641 -0.13106772 0.21781056 -0.048999943 -0.2339714 -0.007463206 0.20442851 0.021396052
-0.26394552 0.3141034 0.23923802 0.29689774 -0.22038871 -0.060750898 -0.14332542 -0.40346658
0.42255065 -0.1990632 0.30572262 -0.22932927 0.29909632 0.10973271 0.018377153 -0.18994686
-0.29514733 0.2024274 -0.1122036 -0.30844015 0.34857717 -0.18501411 -0.0075402237 0.28156552
-0.20094514 -0.2684472 -0.18678004 -0.3113704 -0.19225417 -0.29646167 0.3408276 0.36492646
-0.17556424 0.1908604 0.24991156 0.24440622 -0.2999466 0.1304416 0.36679494 0.24697591
0.4336737 -0.19278438 0.35346773 0.20089027 0.10729531 -0.054828476 -0.27429268 0.2757541
0.39462215 0.0557346 -0.065598875 -0.1865698 -0.045638375 0.19185656 -0.20587002 -0.40711373
-0.101847894 -0.18014863 0.23537809 -0.075112395 -0.24563421 0.2370991 -0.042196225 0.19746189
-0.19199279 0.23445731 0.17098242 0.4223499 0.00394755 -0.105050325 0.18934256 -0.30142865
0.21506241 -0.36161476 0.22702965 -0.17217392 0.42951578 0.06333988 0.21989137 -0.22827022
-0.18535823 0.30003247 -0.2532089 -0.40444705 0.43281507 -0.39923328 0.073660396 0.23112309
-0.075858794 -0.0224976 -0.05609072 0.07906987 -0.05788379 0.20589127 -0.105383284 -0.06258718
-0.0067264545 -0.0042845868 -0.12916571 -0.010981787 0.14365311 -0.074855454 0.038396813 -0.059821535
-0.15337296 0.048730966 -0.10070565 0.017930062 -0.061650604 -0.04727646 0.08849227 -0.021290064
0.009757392 -0.009743357 0.07527283 0.0086683165 -0.19890463 -0.12610233 0.13618287 0.024392055
0.07620501 0.18370713 0.046194654 -0.10460392 0.04479458 0.05358845 -0.019078102 -0.059355386
0.052883774 -0.0006884981 -0.07732246 -0.07317338 -0.044290226 -0.30949202 0.05800184 -0.09519898
-0.07394228 0.085782364 -0.00020736986 -0.09826239 0.09044285 0.10644097 0.0152414795 -0.008765359
0.13895027 0.06026354 -0.020269256 0.009363804 -0.13368839 -0.029695129 0.041768882 -0.05953119
00000000: ebc5 ad3d b7d3 12be c8a4 a23b ff75 913c
00000010: 4162 acbd 2cd6 393e f598 1e3e 7dc7 8a3d
00000020: 94f9 e5bd 1d99 b73d 4d56 c13a 6bae a9bd
00000030: eef9 6c3d 162b 26bd b223 dc3d 8380 2b3e
00000040: e108 6dbd ad0a de3d 7a04 a13c 41c3 163d
00000050: a6c3 973d ef03 0f3e 7894 22bd b806 713d
00000060: c8bf d6bb ce7b 903d 1210 eabc 782e 32bd
00000070: 4605 fabd a72f 8b3d 00ca 363c 0b81 98bc
00000080: f4ea 883d a352 b53d bffa 163e 1444 1bbe
00000090: 0071 8ebd 5ec1 8f3d e938 0e3e 68c0 423d
000000a0: 7066 84bc 899c 013c b547 93bd 68b8 67bd
000000b0: 0dde aabc d4f8 95be db8f ea3c b469 dfbd
000000c0: eddc 163e a287 463d a660 103e 1091 f9bd
000000d0: 1ac8 533d 124f b3bd 7312 683c fdb1 8ebd
000000e0: 9312 ee3d 4025 e93c c103 11be a3a2 30bd
000000f0: 4292 aa3d 4b3b 703c 6fd3 253c 7584 333e
00000100: 8763 8cbe eb86 64be bc1e 1fbe bac0 bebd
00000110: d011 17be eeaa 26be 40e1 923e f9c5 f43d
00000120: 59d8 7cbe 64b2 463e 4104 273e 512b 4d3e
00000130: d3e4 62be 7332 983d 74e6 bc3e 4322 a63e
00000140: 3b18 573e f0f0 fbbd 751d 813e d635 4c3e
00000150: 650d a33e 54cc 57bd 3582 85be 8bb3 333e
00000160: a3e1 2f3e 1b98 b6ba 174d c03a ca00 8dbe
00000170: 87d8 8cbe 0d8b 0b3e 3653 8dbd 4a49 89be
00000180: 80c8 51be 9e36 06be bb09 5f3e 2ab4 48bd
00000190: 3396 6fbe e98d f4bb b555 513e c646 af3c
000001a0: de23 87be 29d2 a03e d0fa 743e fb02 983e
000001b0: 94ad 61be efd5 78bd e6c3 12be 2c93 cebe
000001c0: 8f58 d83e 39d7 4bbe ad87 9c3e 4bd5 6abe
000001d0: 2723 993e 8bbb e03d af8b 963c 6e81 42be
000001e0: 8d1d 97be 2149 4f3e 00cb e5bd deeb 9dbe
000001f0: b578 b23e 5774 3dbe fb13 f7bb 5b29 903e
00000200: 90c4 4dbe e971 89be 4443 3fbe f16b 9fbe
00000210: 47de 44be d3c9 97be f580 ae3e a4d7 ba3e
00000220: 1dc7 33be e970 433e d1e8 7f3e a045 7a3e
00000230: 9a92 99be 7c92 053e 8ccc bb3e 41e7 7c3e
00000240: 7b0a de3e 4569 45be b9f9 b43e 2eb6 4d3e
00000250: a5bd db3d d393 60bd 1770 8cbe a42f 8d3e
00000260: ea0b ca3e f749 643d b458 86bd 270c 3fbe
00000270: 4eef 3abd 0c76 443e 97cf 52be 3671 d0be
00000280: a195 d0bd e278 38be f406 713e 87d4 99bd
00000290: 8987 7bbe 1bca 723e f3d5 2cbd 7333 4a3e
000002a0: c299 44be 9415 703e 0416 2f3e 3f3e d83e
000002b0: 735a 813b a024 d7bd 04e3 413e db54 9abe
000002c0: 5239 5c3e 9225 b9be 767a 683e 5c4e 30be
000002d0: 7ee9 db3e 57b8 813d 342b 613e abbf 69be
000002e0: 8cce 3dbe db9d 993e 99a4 81be af13 cfbe
000002f0: f099 dd3e 4e68 ccbe 43db 963d 88ab 6c3e
00000300: db5b 9bbd e34c b8bc 62bf 65bd 62ef a13d
00000310: 8e17 6dbd 29d5 523e 31d3 d7bd b52d 80bd
00000320: 9769 dcbb b865 8cbb 0444 04be f4ec 33bc
00000330: cd19 133e d14d 99bd fa45 1d3d 6d07 75bd
00000340: cd0d 1dbe 1f9a 473d c43e cebd 11e2 923c
00000350: 5885 7cbd f6a4 41bd 6f3b b53d 8068 aebc
00000360: 78dd 1f3c 9aa2 1fbc a428 9a3d 8e05 0e3c
00000370: a8ad 4bbe f820 01be 8673 0b3e d9d1 c73c
00000380: 5f11 9c3d b91d 3c3e 9b36 3d3d 943a d6bd
00000390: 867a 373d 907f 5b3d ae49 9cbc a21e 73bd
000003a0: a89c 583d 537c 34ba 3d5b 9ebd eddb 95bd
000003b0: ab69 35bd bd75 9ebe 5693 6d3d aff7 c2bd
000003c0: 0d6f 97bd aaae af3d 6c71 59b9 cb3d c9bd
000003d0: 1a3a b93d b9fd d93d 66b7 793c 959c 0fbc
000003e0: fb48 0e3e e7d6 763d b60b a6bc a46a 193c
000003f0: 9ce5 08be 3343 f3bc d915 2b3d fad6 73bd

bias f4 [12]
0.07605184 -0.14261042 -0.48311898 0.04335563 -0.3705333 -0.25995013 -0.04192816 -0.006655792
0.039229166 0.04095327 0.043406844 0.15060909
00000000: 11c1 9b3d 7708 12be 5f5b f7be ac95 313d
00000010: 8ab6 bdbe 2f18 85be ddbc 2bbd d418 dabb
00000020: c3ae 203d 9ebe 273d 60cb 313d 4539 1a3e
