logs/a1_amp_example/exported/policies/policy_1.pt (torch, 250632 bytes, 8 tensors)

weight f4 [256, 69]
-0.35261357 -0.092158675 0.107399076 -0.5808853 0.071785435 -0.189625 0.21584739 -0.11354178
0.09994279 -0.0717637 0.04121855 -0.2047889 0.01886312 -0.23104271 -0.3259451 -0.06507249
-0.09925917 -0.11424647 -0.06376616 -0.094735764 -0.16514048 -0.17503907 0.06687705 -0.18686156
0.18404306 0.22731735 -0.22021613 -0.041367427 0.08829244 -0.10891189 0.107134625 -0.04764008
-0.01767705 -0.05261108 -0.045484915 -0.0558121 0.0027581088 -0.00863411 -0.019640807 -0.10591629
-0.060020175 -0.00038048977 0.06696853 -0.03612001 -0.024794452 0.16872443 -0.10031872 -0.083854325
-0.060153995 -0.0017364295 0.17755672 -0.07804909 -0.03063723 0.13087465 0.07944893 0.07626363
-0.061920855 -0.1181132 -0.07139558 0.09907436 -0.0013176345 0.063503966 -0.0035292066 0.0728187
0.17607437 0.0029701092 0.14508036 0.054407008 0.015665632 -0.06508364 -0.50490505 -0.2705795
-0.17216481 -0.13080129 -0.083380036 -0.24240534 0.47050542 0.21370442 0.050403867 -0.03934512
0.12084874 0.07414952 0.11384356 -0.21337458 0.21212342 -0.37518707 0.16066432 0.21940038
-0.14881861 -0.052354015 0.16870664 -0.16840118 0.04823234 -0.12884198 0.093094684 -0.16877814
0.017624727 -0.1105509 -0.13998173 0.13127732 -0.20430024 -0.25233126 -0.005973548 0.06623357
-0.07273662 -0.08735757 0.081813335 -0.06926603 0.1579402 -0.027348572 -0.0166692 -0.03456139
0.028735608 0.08504106 0.059847318 0.036953483 0.028858911 -0.045492765 0.093826815 -0.013418942
0.014565965 0.010472608 0.066701025 -0.06854642 -0.08035232 -0.017829172 -0.033808336 -0.14084615
0.0069752177 -0.15918851 0.20650426 -0.026868641 -0.035861384 0.03572394 -0.020630559 0.06562149
-0.15956701 0.16265173 0.072356954 0.023166385 -0.246831 -0.031929128 -0.0071042506 0.05605905
0.26836276 -0.2282253 0.15874213 -0.3251211 0.26440516 -0.014138645 0.06633647 0.109392144
-0.17487541 0.06268271 -0.05432288 -0.012011238 0.043672573 0.0026500018 0.09937575 0.002307067
-0.02503181 0.024027906 -0.15541673 -0.005430486 0.032654148 0.012471736 -0.20835276 -0.02659625
0.00763931 -0.0017006972 0.114130676 -0.164019 0.052520346 0.03264949 -0.059936427 0.0954943
-0.027873196 0.045642324 -0.054605577 0.036311135 0.005009601 0.049272027 0.051643915 0.08257079
0.15602253 -0.11616041 -0.02068315 -0.2049955 -0.023503516 -0.079443924 0.061474666 -0.094104506
-0.03160849 0.02373366 0.016481126 -0.043552995 -0.006929873 -0.048524033 -0.01834997 0.15502712
0.17286023 0.031173151 0.16853797 -0.13264622 0.03413006 0.026156383 0.05110351 0.047196303
0.0314573 -0.017532626 -0.29399693 -0.0237134 -0.004661209 0.11290425 0.29490235 0.28417853
0.20644636 -0.03433701 0.04221753 -0.15249717 0.016001973 -0.2929759 -0.0116945105 0.22199687
0.044551868 0.015698543 -0.03278842 0.049132053 -0.20801435 -0.04671252 -0.014315962 0.058707938
-0.20416273 -0.09300448 0.091786385 0.2543057 0.12081486 -0.0046825022 -0.11778165 0.03863069
-0.018366659 0.08541265 0.01197956 0.032867763 -0.08522236 -0.173595 -0.042018235 0.08171236
-0.039315242 0.06621965 0.025699938 0.040129002 -0.020371208 0.10828872 0.027045894 0.091508985
00000000: c489 b4be b0bd bcbd 0cf4 db3d e6b4 14bf
00000010: 3e04 933d 0e2d 42be 1907 5d3e 9888 e8bd
00000020: ceae cc3d d9f8 92bd c8d4 283d 2eb4 51be
00000030: d486 9a3c 7696 6cbe 47e2 a6be ba44 85bd
00000040: 6448 cbbd 0efa e9bd d597 82bd d304 c2bd
00000050: 961a 29be 713d 33be d6f6 883d a358 3fbe
00000060: c975 3c3e e1c5 683e 5680 61be e470 29bd
00000070: abd2 b43d 320d dfbd 6669 db3d 3f22 43bd
00000080: 76cf 90bc b77e 57bd 644e 3abd 3b9b 64bd
00000090: 63c1 343b 1576 0dbc c2e5 a0bc a4ea d8bd
000000a0: b7d7 75bd 797c c7b9 cc26 893d 93f2 13bd
000000b0: bc1d cbbc 19c6 2c3e e773 cdbd d1bb abbd
000000c0: 0964 76bd e898 e3ba 6ed1 353e 34d8 9fbd
000000d0: eefa fabc 0104 063e 1fb6 a23d 1b30 9c3d
000000e0: b9a0 7dbd 55e5 f1bd d937 92bd 80e7 ca3d
000000f0: 7ab4 acba 5e0e 823d 434a 67bb f821 953d
00000100: d74c 343e 2aa6 423b f28f 143e e2d9 5e3d
00000110: 3655 803c 924a 85bd 7541 01bf 6589 8abe
00000120: f94b 30be c6f0 05be 27c3 aabd 1b39 78be
00000130: 16e6 f03e 55d5 5a3e 4974 4e3d 5928 21bd
00000140: 8b7f f73d b4db 973d d026 e93d de7e 5abe
00000150: e236 593e 8518 c0be 3085 243e 7eaa 603e
00000160: e863 18be 2a71 56bd 6fc1 2c3e 5c71 2cbe
00000170: 468f 453d 27ef 03be 6da8 be3d 2dd4 2cbe
00000180: bb61 903c 8368 e2bd 5f57 0fbe 906d 063e
00000190: 1534 51be 9031 81be c1bd c3bb 77a5 873d
000001a0: f0f6 94bd 87e8 b2bd c08d a73d 59db 8dbd
000001b0: 13bb 213e 1d0a e0bc d98d 88bc 3e90 0dbd
000001c0: f066 eb3c 022a ae3d 7622 753d 895c 173d
000001d0: 8669 ec3c 9f56 3abd 4628 c03d 1fdb 5bbc
000001e0: 16a6 6e3c 4d95 2b3c 8c9a 883d 1162 8cbd
000001f0: c28f a4bd 7c0e 92bc 9c7a 0abd f939 10be
00000200: 5e90 e43b 5002 23be da75 533e a01b dcbc
00000210: 63e3 12bd 4453 123d 6b01 a9bc 8f64 863d
00000220: 8965 23be 2d8e 263e e22f 943d 6ec7 bd3c
00000230: 44c1 7cbe 1ec8 02bd c6ca e8bb 2d9e 653d
00000240: d866 893e e5b3 69be 4c8d 223e 4676 a6be
00000250: 1d60 873e c6a5 67bc 6adb 873d fd08 e03d
00000260: 8a12 33be cb5f 803d ab81 5ebd c9ca 44bc
00000270: 03e2 323d a7ab 2d3b 8385 cb3d 2932 173b
00000280: 830f cdbc 2cd6 c43c 9025 1fbe 38f2 b1bb
00000290: 5bc0 053d 4156 4c3c 6d5a 55be 61e0 d9bc
000002a0: 2d53 fa3b eee9 deba 58bd e93d 99f4 27be
000002b0: 931f 573d 79bb 053d e67f 75bd 8492 c33d
000002c0: 5456 e4bc 72f3 3a3d 19aa 5fbd fcba 143d
000002d0: 9427 a43b 77d1 493d 9288 533d e01a a93d
000002e0: 5fc4 1f3e 82e5 edbd b66f a9bc 57ea 51be
000002f0: 728a c0bc 7fb3 a2bd dccc 7b3d ddb9 c0bd
00000300: e777 01bd 186d c23c 6d03 873c a064 32bd
00000310: fd13 e3bb 23c1 46bd ad52 96bc 6ebf 1e3e
00000320: 4602 313e d65e ff3c 3895 2c3e 69d4 07be
00000330: f6cb 0b3d e945 d63c ea51 513d e950 413d
00000340: 5fd9 003d 95a0 8fbc c486 96be 9b42 c2bc
00000350: 0ebd 98bb 583a e73d 71fd 963e d97f 913e
00000360: ad66 533e f7a4 0cbd 4aec 2c3d 3828 1cbe
00000370: 9216 833c f000 96be 559a 3fbc 2653 633e
00000380: 057c 363d 3b9a 803c 264d 06bd b13e 493d
00000390: b701 55be a155 3fbd 7f8d 6abc bc77 703d
000003a0: 0910 51be 2279 bebd 80fa bb3d 5b34 823e
000003b0: c86d f73d ad6f 99bb 8137 f1bd 373b 1e3d
000003c0: ad75 96bc d4ec ae3d eb45 443c 59a0 063d
000003d0: 1089 aebd e3c2 31be 501b 2cbd cf58 a73d
000003e0: 0509 21bd 2b9e 873d ad88 d23c 4f5e 243d
000003f0: 85e1 a6bc 7ac6 dd3d 5a8f dd3c 1069 bb3d

bias f4 [256]
0.11853651 0.21120684 -0.13865097 0.029840864 0.006022601 -0.014142474 0.18613304 0.10354387
-0.097352296 0.107548125 -0.04298995 -0.104987346 0.09342798 -0.11465296 -0.068949565 0.057941053
0.1131843 0.010373416 0.2088088 -0.10943691 -0.06253771 0.10876488 -0.035855025 -0.044064775
0.085973635 0.16674216 -0.09779842 0.08555379 -0.02487235 0.05582678 0.07630561 0.02536064
-0.07824922 0.028799715 0.036715914 0.09437192 0.123308435 0.10748624 -0.0073586414 -0.106476545
0.079701 0.011855765 -0.1765452 -0.1344778 -0.039477557 -0.0015716098 -0.052382264 -0.04387765
-0.05632112 -0.06397173 -0.044920754 0.12303648 -0.11837733 -0.12182357 -0.13977653 0.030531153
0.052511368 0.0035254685 -0.071856275 0.0274072 0.124645 -0.1188234 0.026389807 0.13048491
0.07557604 -0.03535268 0.022856131 -0.24137804 0.11838678 0.011604871 -0.06527156 0.15132813
0.10019361 -0.0503802 0.07807536 -0.09973887 0.015070409 0.045890354 -0.019038098 -0.06405463
-0.08625133 0.05472453 -0.15450929 0.10567369 0.082608916 0.02281968 -0.08589339 -0.19358103
-0.09992149 0.14063989 0.019096334 0.018443558 -0.03277804 0.11270903 -0.13005435 0.1655191
0.06883761 0.078135 -0.14102904 -0.05999011 0.019730642 -0.038456548 -0.022409631 0.0033306377
0.08834333 -0.009760169 -0.07969679 0.037949894 0.07240699 -0.107589245 -0.035635635 -0.112617046
0.08119662 0.061167527 -0.071894385 0.11864959 -0.00080281345 0.2187548 -0.07858114 0.06904863
0.059876487 0.15001097 0.0966308 -0.052796293 -0.092686534 -0.11243473 -0.10697739 0.10611135
-0.030493416 0.1443312 0.016369006 -0.03716352 -0.125734 -0.03824605 0.10195547 0.15516813
0.17247994 0.0077925995 -0.05431973 0.007092172 -0.032232903 0.032352578 0.03713463 -0.019341195
0.026047938 0.13989975 0.10196517 -0.12019472 0.08895236 -0.073055774 -0.018938962 -0.13360864
-0.15185523 -0.031961627 -0.13648821 0.0070112026 0.14013016 0.049997397 -0.014591144 0.13684805
0.13207136 -0.12725821 -0.014699719 -0.0014081573 0.12337628 0.12513171 -0.03590313 -0.07193646
0.07810403 0.024561977 0.054920465 0.04444852 -0.0071316115 0.190368 0.102218494 0.02923255
0.14358178 0.044886287 0.026529305 0.1843379 -0.0007713648 -0.06586972 0.09947737 0.028539903
0.012812725 -0.14639308 0.06204356 0.03549145 0.032871593 0.081382 -0.09110449 0.03441775
0.029383041 0.07858529 -0.051962014 -0.1279039 -0.07172047 0.06853064 0.06553423 -0.12707123
0.1910642 -0.11038615 0.13334279 0.15931539 -0.1333684 -0.09789194 0.07788072 0.10206517
0.062723756 -0.016450537 -0.0017533895 0.12841517 -0.13905932 0.12874287 -0.14378305 0.09273968
-0.005053534 0.03364861 -0.028775891 0.033301167 -0.12462344 -0.08586838 -0.17389844 0.14364418
-0.13895807 0.11285575 -0.09180264 -0.0668901 -0.05940867 -0.023407068 -0.1025794 0.12925597
-0.034300447 0.06599171 0.018058248 -0.03897702 0.1083701 -0.004577123 0.08963515 0.023210796
-0.11539381 0.031179057 -0.057945292 0.090981044 -0.11855453 0.07542887 -0.14460875 -0.05838178
0.055483602 -0.054193705 0.14451204 0.17781404 -0.08874942 -0.016342264 -0.03285112 -0.08939942
00000000: 45c3 f23d 9b46 583e 85fa 0dbe d474 f43c
00000010: 3d59 c53b d6b5 67bc a999 3e3e cf0e d43d
00000020: a460 c7bd 3142 dc3d 3b16 30bd 9b03 d7bd
00000030: 2b57 bf3d 2ccf eabd 6e35 8dbd 9953 6d3d
00000040: 2ccd e73d 43f5 293c f9d1 553e 7520 e0bd
00000050: c513 80bd 1fc0 de3d b8dc 12bd 447d 34bd
00000060: f212 b03d 75be 2a3e 8a4a c8bd d336 af3d
00000070: 19c1 cbbc 9faa 643d 1e46 9c3d 1ec1 cf3c
00000080: 2141 a0bd 61ed eb3c 6d63 163d 1146 c13d
00000090: 2289 fc3d bf21 dc3d c220 f1bb 6010 dabd
000000a0: 473a a33d af3e 423c 44c8 34be 8cb4 09be
000000b0: 38b3 21bd 79fe cdba c98e 56bd 0db9 33bd
000000c0: fab0 66bd 9c03 83bd d3fe 37bd 8dfa fb3d
000000d0: d06f f2bd a37e f9bd 9421 0fbe 781c fa3c
000000e0: 2916 573d 8c0b 673b 6229 93bd 1085 e03c
000000f0: e145 ff3d af59 f3bd 702f d83c d69d 053e
00000100: 9cc7 9a3d f9cd 10bd c83c bb3c ce2b 77be
00000110: c574 f23d 5b22 3e3c 18ad 85bd c3f5 1a3e
00000120: 4f32 cd3d 785b 4ebd f9e5 9f3d e543 ccbd
00000130: e0e9 763c 86f7 3b3d c9f5 9bbc 132f 83bd
00000140: 8aa4 b0bd d426 603d af37 1ebe 736b d83d
00000150: dd2e a93d 56f0 ba3c e0e8 afbd 1b3a 46be
00000160: a3a3 ccbd e703 103e ea6f 9c3c f216 973c
00000170: 4442 06bd fed3 e63d f82c 05be d77d 293e
00000180: bcfa 8c3d 3e05 a03d eb69 10be 31b8 75bd
00000190: 28a2 a13c 9d84 1dbd 6794 b7bc d446 5a3b
000001a0: 59ed b43d 1ee9 1fbc 1238 a3bd 5971 1b3d
000001b0: 1e4a 943d c057 dcbd acf6 11bd c4a3 e6bd
000001c0: 6a4a a63d cd8a 7a3d 5d3d 93bd 8efe f23d
000001d0: e673 52ba 4201 603e 26ef a0bd 5e69 8d3d
000001e0: 0c41 753d 7a9c 193e 5ee6 c53d ed40 58bd
000001f0: 70d2 bdbd 2e44 e6bd f616 dbbd e850 d93d
00000200: 54cd f9bc 8fcb 133e 4b18 863c c638 18bd
00000210: 6ac0 00be e4a7 1cbd 08ce d03d 65e4 1e3e
00000220: 959e 303e 1059 ff3b 5d7e 5ebd 7365 e83b
00000230: a606 04bd 2384 043d 7b1a 183d 6d71 9ebc
00000240: 7c62 d53c e141 0f3e 1dd3 d03d a628 f6bd
00000250: a82c b63d 449e 95bd e225 9bbc b4d0 08be
00000260: f07f 1bbe 32ea 02bd 91c3 0bbe 3bbe e53b
00000270: 487e 0f3e 12ca 4c3d b20f 6fbc e521 0c3e
00000280: b73d 073e fa4f 02be 17d7 70bc eb91 b8ba
00000290: b4ac fc3d 8722 003e 290f 13bd 6c53 93bd
000002a0: 01f5 9f3d 3336 c93c 48f4 603d a70f 363d
000002b0: 4bb0 e9bb d4ef 423e ee57 d13d 1a79 ef3c
000002c0: 1a07 133e afda 373d fc53 d93c 13c3 3c3e
000002d0: 6a35 4aba b4e6 86bd cbba cb3d 84cc e93c
000002e0: 77ec 513c 11e8 15be 6321 7e3d 7c5f 113d
000002f0: 5da4 063d 9bab a63d fe94 babd a0f9 0c3d
00000300: b4b4 f03c 53f1 a03d 1fd6 54bd 3df9 02be
00000310: 2fe2 92bd cb59 8c3d cf36 863d f61e 02be
00000320: 55a6 433e 2212 e2bd 038b 083e 9323 233e
00000330: ba91 08be 927b c8bd ed7f 9f3d 8b07 d13d
00000340: 5075 803d 47c3 86bc fdd1 e5ba 447f 033e
00000350: 9165 0ebe 2cd5 033e dd3b 13be 4dee bd3d
00000360: 1e98 a5bb 20d3 093d 6bbb ebbc ce66 083d
00000370: 933a ffbd c3db afbd 6f12 32be 7617 133e
00000380: 064b 0ebe ea20 e73d 0603 bcbd adfd 88bd
00000390: 8156 73bd 2ec0 bfbc 2615 d2bd ad5b 043e
000003a0: a07e 0cbd a926 873d e4ee 933c 5ea6 1fbd
000003b0: 25f1 dd3d b1fb 95bb a292 b73d 9124 be3c
000003c0: 9753 ecbd 396b ff3c 0b58 6dbd 4554 ba3d
000003d0: b8cc f2bd 747a 9a3d 5114 14be bc21 6fbd
000003e0: c642 633d 38fa 5dbd f7fa 133e e214 363e
000003f0: 42c2 b5bd 36e0 85bc e58e 06bd 0b17 b7bd

weight f4 [128, 256]
-0.09309102 -0.1263189 -0.012956024 0.12699261 0.053299148 -0.028079612 0.10891266 0.027105147
0.035790373 0.086035505 -0.039649863 0.02303416 0.010852912 0.08207515 0.05794245 -0.0764807
0.0043912744 0.07333692 -0.04887391 -0.06424509 0.07722861 -0.01488429 0.08046287 -0.0073801223
0.009027636 -0.061654583 0.02629978 -0.036599256 -0.01026206 -0.069750674 0.07308902 0.04594151
0.09052489 0.10862646 0.037892606 -0.061282236 0.0381471 0.0738662 -0.0195168 0.07914561
-0.03774429 -0.0037979814 0.07614764 -0.068313785 0.031028261 -0.0027739631 -0.014300894 -0.08465634
-0.030090978 -0.03137345 0.07853962 0.13113783 0.050650965 0.10461187 -0.02551792 0.10239897
0.0010977568 0.034878742 -0.0037899208 0.025322352 0.012691001 0.023203637 0.07864148 0.0026222668
0.014854595 0.028336996 0.0083859 -0.053658407 0.07703256 0.09136174 -0.012049356 0.10846367
-0.016436614 0.062489256 -0.018243346 -0.073497 0.14846924 0.06735945 0.082320005 0.059451636
-0.06965341 0.0038219853 -0.03737972 0.085496694 0.042045236 0.06387273 0.0023476507 0.0313123
0.031675972 0.053184044 -0.02051277 0.07459785 -0.013524935 -0.089536525 -0.00075226894 0.1327725
-0.013774539 0.012862032 0.069885634 -0.16969737 0.08218756 -0.07969471 0.097340666 -0.14427148
0.07057898 -0.029056823 0.05306224 0.08597097 -0.04918035 0.03294527 -0.09578333 -0.1492415
-0.042744804 -0.051906895 0.08469902 0.051628415 -0.13721865 -0.051888302 0.109489925 -0.024485536
-0.10555529 0.15004693 -0.025869884 -0.021291092 -0.132836 -0.018434452 -0.0002818603 0.079789996
-0.0146985315 0.04483684 -0.037447277 0.12118388 0.099321835 0.052733667 -0.042740397 0.07122189
0.05614496 -0.07367322 -0.08965334 0.098317936 -0.07749095 0.08804265 -0.063458376 0.08633029
0.02247579 0.085920125 -0.030232463 0.06648185 -0.061585844 -0.014355927 -0.14372523 -0.08004844
-0.00080323394 0.06480669 0.027501374 0.06523062 0.023454253 -0.117110185 0.026759438 -0.010618297
-0.008797446 -0.01991939 -0.021160167 0.0023771643 -0.08190374 0.06411395 0.038370825 -0.025162252
-0.03528507 -0.10099461 0.04212567 0.043132327 0.06368675 -0.034834143 -0.03349681 -0.013864607
-0.006231112 0.0131477555 0.045439288 -0.16284543 0.028490169 0.04198608 -0.10862553 -0.09043031
-0.08273115 -0.013531624 -0.14993186 -0.017445235 -0.047588065 0.03846235 -0.103973314 0.024287488
-0.04087243 0.089993775 -0.1412958 0.00019826245 0.02871763 -0.00815373 -0.14474085 0.01029346
0.10365044 -0.10978718 0.08413806 0.083565205 0.07079326 -0.08415643 -0.0071556824 0.20456214
0.011273728 -0.108285576 -0.013395035 -0.17468846 -0.06410371 0.03659964 0.02834086 0.0628722
0.18345729 -0.04959363 -0.014885091 -0.001563213 0.07241067 0.03659091 0.06290055 -0.0133515
0.0826785 0.103319265 0.05018848 0.07788146 -0.10354044 -0.025474865 0.022836324 -0.08506574
-0.0758032 0.1360545 -0.0020952323 0.07466783 -0.11730428 -0.020749707 -0.065219305 0.062416717
-0.08213516 -0.018256439 -0.032443017 0.054540463 0.04958445 -0.053680934 -0.04347204 -0.0060232505
0.02585717 -0.0856437 0.049399022 -0.049678028 -0.03519048 -0.04516169 -0.043468628 -0.049259372
00000000: 81a6 bebd be59 01be 8145 54bc 5a0a 023e
00000010: 3550 5a3d 3707 e6bc 9a0d df3d 9d0b de3c
00000020: ed98 123d 6233 b03d e567 22bd 22b2 bc3c
00000030: 6ad0 313c 0417 a83d 1055 6d3d eaa1 9cbd
00000040: aee4 8f3b ab31 963d 0230 48bd ee92 83bd
00000050: 092a 9e3d 3ddd 73bc b8c9 a43d f4d4 f1bb
00000060: a6e8 133c 8489 7cbd a372 d73c 1ae9 15bd
00000070: 3322 28bc 71d9 8ebd b2af 953d 2a2d 3c3d
00000080: 1d65 b93d 8d77 de3d 4735 1b3d 1503 7bbd
00000090: 2240 1c3d 2a47 973d b2e1 9fbc 1817 a23d
000000a0: c299 1abd 8ee7 78bb 4bf3 9b3d 19e8 8bbd
000000b0: fb2e fe3c 61cb 35bb 4c4e 6abc 4e60 adbd
000000c0: 5b81 f6bc 7281 00bd 61d9 a03d ff48 063e
000000d0: 6377 4f3d c03e d63d f50a d1bc 8db6 d13d
000000e0: 9be2 8f3a 03dd 0e3d 5260 78bb d270 cf3c
000000f0: ebed 4f3c 8e15 be3c c90e a13d 56da 2b3b
00000100: b060 733c fd22 e83c 0465 093c ebc8 5bbd
00000110: 3fc3 9d3d dd1b bb3d a96a 45bc 3322 de3d
00000120: 14a6 86bc bcf4 7f3d 1273 95bc 9885 96bd
00000130: 5208 183e c0f3 893d 6497 a83d 8f83 733d
00000140: 72a6 8ebd 467a 7a3b 7a1b 19bd e418 af3d
00000150: a037 2c3d b5cf 823d 0bdb 193b 5441 003d
00000160: aabe 013d 83d7 593d 660a a8bc c2c6 983d
00000170: b097 5dbc ed5e b7bd ea33 45ba 84f5 073e
00000180: 9bae 61bc 46bb 523c 3320 8f3d 26c5 2dbe
00000190: f451 a83d fb36 a3bd 8b5a c73d e7bb 13be
000001a0: b68b 903d 9308 eebc cb57 593d 8c11 b03d
000001b0: 5671 49bd 9ff1 063d 0d2a c4bd c4d2 18be
000001c0: 2d15 2fbd 539c 54bd ae76 ad3d 5178 533d
000001d0: 0c83 0cbe d488 54bd 413c e03d e495 c8bc
000001e0: 5f2d d8bd e7a5 193e 14ed d3bc a86a aebc
000001f0: 2906 08be d903 97bc a6c6 93b9 f068 a33d
00000200: 1cd2 70bc d6a6 373d 5162 19bd 412f f83d
00000210: 3f69 cb3d 42ff 573d 8e10 2fbd c8dc 913d
00000220: 42f8 653d fce1 96bd 2c9c b7bd ea5a c93d
00000230: 93b3 9ebd b44f b43d 77f6 81bd efcd b03d
00000240: 261f b83c e4f6 af3d 12aa f7bc a327 883d
00000250: 7041 7cbd 1f35 6bbc b52c 13be 70f0 a3bd
00000260: 1e90 52ba 5fb9 843d 904a e13c a297 853d
00000270: 2223 c03c 77d7 efbd 9c36 db3c 5ef8 2dbc
00000280: 2a23 10bc fd2d a3bc 1658 adbc 33ca 1b3b
00000290: 26bd a7bd 2d4e 833d ba2a 1d3d 1121 cebc
000002a0: 1487 10bd 43d6 cebd f78b 2c3d 86ab 303d
000002b0: 336e 823d 3fae 0ebd f333 09bd 6028 63bc
000002c0: 5b2e ccbb af69 573c 8c1e 3a3d f4c0 26be
000002d0: 3764 e93c 99f9 2b3d 1077 debd 8733 b9bd
000002e0: f36e a9bd bfb3 5dbc bd87 19be 4fe9 8ebc
000002f0: b4eb 42bd b28a 1d3d f6ef d4bd 8ef6 c63c
00000300: d969 27bd a84e b83d d9af 10be ace4 4f39
00000310: 3c41 eb3c 3997 05bc f236 14be e7a5 283c
00000320: af46 d43d 1ad8 e0bd 9350 ac3d 3c24 ab3d
00000330: 0ffc 903d 355a acbd 377a eabb bd78 513e
00000340: 71b5 383c d4c4 ddbd d976 5bbc 88e1 32be
00000350: ce48 83bd 81e9 153d 172b e83c 24c3 803d
00000360: 3adc 3b3e b122 4bbd 99e0 73bc b9e4 ccba
00000370: 0c4c 943d 5ae0 153d 01d2 803d 40c0 5abc
00000380: 5853 a93d 0d99 d33d 7092 4d3d 5180 9f3d
00000390: 030d d4bd aab0 d0bc 3e13 bb3c f236 aebd
000003a0: b53e 9bbd df51 0b3e 2a50 09bb 72eb 983d
000003b0: 3a3d f0bd 4afb a9bc b391 85bd aca8 7f3d
000003c0: 7b36 a8bd 878e 95bc f8e2 04bd d265 5f3d
000003d0: 1019 4b3d 8ae0 5bbd bd0f 32bd b05e c5bb
000003e0: 6ad2 d33c f765 afbd a156 4a3d 307b 4bbd
000003f0: e523 10bd 77fb 38bd 290c 32bd 32c4 49bd

bias f4 [128]
-0.0064142724 -0.021056443 -0.013258235 -0.008812636 0.033971988 -0.07736607 -0.04057122 -0.020638632
-0.085334435 -0.026486734 0.08600465 0.039981633 -0.030202279 0.07013946 -0.06261571 -0.044244856
-0.017076822 -0.031664215 0.03834085 -0.01578748 0.0451622 -0.060452003 -0.055640507 -0.029964102
-0.10505615 -0.04451165 0.030005222 -0.040749833 -0.088261195 -0.122838244 -0.041916505 0.05535556
-0.11714751 -0.12258494 -0.09259915 -0.15342164 0.017319456 0.055822317 0.004201469 -0.010690979
-0.07483535 -0.042958427 -0.023759132 0.0064275707 -0.07092908 -0.018058106 -0.056580443 -0.049114447
-0.072738275 0.01638988 -0.103043005 0.021363903 -0.060383555 0.0706019 0.0011697412 -0.007541218
-0.11281752 -0.06387018 0.03316532 -0.0042435657 0.047958456 -0.050375596 0.08222699 0.017143466
0.042292695 -0.0012848263 -0.03779853 0.05140778 0.088017106 -0.08932134 0.13775618 -0.107043274
-0.11812672 0.027093647 0.060128503 -0.042073015 0.05471121 -0.0310045 -0.079110384 -0.03165861
-0.043706596 -0.111777544 -0.06726645 -0.020364005 0.05476223 0.15363581 -0.03346256 0.023335688
-0.06544889 0.13101329 0.07540671 0.09296763 -0.011868493 -0.015672982 -0.07261858 -0.12626521
0.06339964 0.03227566 0.0662159 0.03224208 0.020872343 -0.07123669 -0.020281492 -0.05272711
0.048227344 -0.017426506 -0.12850529 0.046693128 0.097900964 -0.07688469 0.07024508 0.08144765
-0.00959705 -0.10870622 -0.054271147 -0.05108061 -0.021151515 0.009836448 -0.009128094 -0.031390868
0.005787439 -0.062316135 0.04295535 -0.01022288 0.07611684 -0.043683164 -0.030470174 -0.08947051
00000000: d12e d2bb 907e acbc 1139 59bc e062 10bc
00000010: 3626 0b3d 1a72 9ebd 022e 26bd 5912 a9bc
00000020: d2c3 aebd b5fa d8bc 3523 b03d c8c3 233d
00000030: c56a f7bc 47a5 8f3d aa3c 80bd 183a 35bd
00000040: b1e4 8bbc 56b2 01bd 4c0b 1d3d bf54 81bc
00000050: 00fc 383d 859c 77bd 4de7 63bd 4777 f5bc
00000060: ae27 d7bd d951 36bd 83cd f53c 4ce9 26bd
00000070: 49c2 b4bd 9e92 fbbd a4b0 2bbd 83bc 623d
00000080: 09eb efbd d00d fbbd a0a4 bdbd 901a 1dbe
00000090: 88e1 8d3c f1a5 643d 7aac 893b 3729 2fbc
000000a0: 4743 99bd 2df5 2fbd 83a2 c2bc 5f9e d23b
000000b0: 4443 91bd 98ee 93bc e5c0 67bd 3b2c 49bd
000000c0: cef7 94bd 1244 863c 3608 d3bd 5a03 af3c
000000d0: bf54 77bd bb97 903d 0052 993a 521c f7bb
000000e0: df0c e7bd 5ece 82bd 5cd8 073d 9c0d 8bbb
000000f0: 1670 443d a456 4ebd a066 a83d 7470 8c3c
00000100: 1b3b 2d3d 9e67 a8ba a2d2 1abd f790 523d
00000110: 5042 b43d 1bee b6bd f50f 0d3e 8139 dbbd
00000120: 6cec f1bd 7ff3 dd3c 4e49 763d c154 2cbd
00000130: dd18 603d 26fd fdbc a004 a2bd 75ac 01bd
00000140: b005 33bd a0eb e4bd fec2 89bd 6ad2 a6bc
00000150: 5c4e 603d b552 1d3e 0a10 09bd 7c2a bf3c
00000160: 110a 86bd 5928 063e d56e 9a3d d065 be3d
00000170: 1174 42bc a064 80bc 0db9 94bd ab4b 01be
00000180: acd7 813d 7c33 043d 349c 873d 4510 043d
00000190: 7afc aa3c 8be4 91bd 5f25 a6bc 62f8 57bd
000001a0: 098a 453d 08c2 8ebc e496 03be 4b41 3f3d
000001b0: 4d80 c83d b875 9dbd a7dc 8f3d 07ce a63d
000001c0: f23c 1dbc 5ea1 debd 6c4b 5ebd e739 51bd
000001d0: f145 adbc 0e29 213c 008e 15bc b693 00bd
000001e0: 8fa4 bd3b 343f 7fbd f3f1 2f3d de7d 27bc
000001f0: 25e3 9b3d 1eed 32bd 969c f9bc 513c b7bd

weight f4 [64, 128]
0.047643915 -0.14971569 0.045277502 0.14009446 0.05047921 0.020948831 -0.05397508 0.11539927
0.004836814 -0.04766903 -0.09105702 -0.123934016 0.13770422 0.03490133 -0.038029052 -0.10458682
0.00353858 0.124565616 -0.038476072 -0.12600835 0.15790185 -0.052613027 0.03384694 -0.08209524
-0.005573909 0.1332538 0.12604463 0.10044519 -0.15073858 -0.14763425 0.020041602 0.07898212
0.05012605 -0.110869154 0.062262394 0.070639 0.09960208 0.033298444 0.0029453244 0.051848393
-0.058009252 -0.049543023 0.08100493 0.12552525 -0.002776549 -0.16584623 0.06662643 -0.007086101
0.20818444 -0.10868246 0.14929265 0.04244294 0.27782398 0.03521844 0.25695926 0.034096308
-0.066789426 0.12880301 0.032091275 -0.08731853 0.09009615 -0.010335916 0.016998824 -0.10859605
-0.014770612 -0.07066974 0.01921361 0.09185804 0.012900547 -0.054324348 0.055504583 0.051088996
-0.017538605 -0.05512646 -0.03871798 0.018533254 0.14118336 -0.028411835 0.14080215 0.1632865
-0.10267054 -0.12986062 -0.0021628337 0.045209646 0.081210025 -0.01260974 -0.033419818 0.030212779
0.027360639 -0.01812982 0.10975285 -0.0011469859 -0.00577354 0.09626774 0.061088324 0.23636308
0.13028382 -0.1784935 0.00784334 0.08068411 0.09634227 0.123506725 0.0010819548 -0.086786516
0.028810963 0.05147359 -0.10466171 -0.041176245 0.047478512 -0.25375336 0.036477692 0.2657108
0.15605591 -0.11797249 0.07397348 0.05457058 -0.07311739 0.02772341 -0.102417976 -0.05740472
0.10210554 -0.09131636 -0.102645114 0.017305028 0.07991267 -0.0801056 -0.034037586 -0.043660734
0.08116775 -0.018955713 -0.022785567 0.080259174 -0.023495613 -0.04360409 0.068947025 0.05626526
-0.26337224 0.04484792 0.09693591 -0.013727776 -0.053533148 0.009028407 0.08179685 0.08874806
0.01776686 0.17398752 0.04048383 -0.07492153 0.13401112 -0.14394976 -0.056381218 0.02817012
-0.026286792 0.0041720443 0.038419582 -0.15594323 -0.075611636 -0.08265236 -0.1071467 -0.017294547
-0.22972389 -0.082927965 0.050114594 0.041059375 0.1813505 0.118861295 -0.026273446 0.009403149
-0.02395951 -0.05113768 -0.07321799 -0.10388779 -0.17414896 0.033975262 -0.026011167 0.15251467
-0.073876396 0.17086169 -0.028357752 0.09882274 -0.023146449 0.050897434 -0.038178165 0.17995118
-0.16403826 0.079141624 0.16207232 0.011215133 -0.03947809 0.0261088 0.1184282 0.03232061
-0.012988908 0.11862861 -0.03557413 0.10705569 0.0737253 -0.13470457 -0.038696967 0.03925726
-0.1584861 0.1361833 0.2719794 0.078745395 0.10736063 0.08780213 0.11108547 -0.15067457
0.06128832 0.009314104 -0.13305438 0.0021554313 -0.044940677 0.21048132 0.08080313 -0.006325867
0.10127914 0.13536161 -0.098678306 0.10795609 0.12348845 -0.05287007 -0.024884218 0.022328617
0.16423334 0.037704237 0.093338504 0.19622317 0.031588286 -0.07095946 -0.056612425 0.1627259
0.0372045 -0.0730134 0.032271903 0.15356226 0.045293007 0.016250372 0.04235865 0.13855578
0.051606964 -0.0023143806 -0.11592397 -0.12886882 -0.0026817601 0.15451713 0.18028492 -0.19595459
0.12301126 0.07441504 0.022864738 -0.15056597 0.044198357 0.002801661 0.15999381 0.023789635
00000000: 4426 433d 124f 19be e774 393d ec74 0f3e
00000010: 4ac3 4e3d e29c ab3c f914 5dbd 7456 ec3d
00000020: 237e 9e3b 9a40 43bd 1a7c babd 1ed1 fdbd
00000030: 5602 0d3e b2f4 0e3d 5ac4 1bbd 9d31 d6bd
00000040: 85e7 673b 421c ff3d 1699 1dbd 5508 01be
00000050: 06b1 213e c280 57bd 17a3 0a3d 8d21 a8bd
00000060: 56a5 b6bb af73 083e d811 013e 35b6 cd3d
00000070: 375b 1abe 6f2d 17be 492e a43c 61c1 a13d
00000080: f950 4d3d 5e0f e3bd da06 7f3d 2eab 903d
00000090: 2dfc cb3d f363 083d 5806 413b fb5e 543d
000000a0: 1c9b 6dbd a0ed 4abd eae5 a53d b189 003e
000000b0: c3f6 35bb 98d3 29be 7073 883d 8632 e8bb
000000c0: 4d2e 553e e994 debd 2ce0 183e a6d8 2d3d
000000d0: f23e 8e3e 3641 103d 2a90 833e 92a8 0b3d
000000e0: e5c8 88bd f0e4 033e 2472 033d 0fd4 b2bd
000000f0: 5584 b83d f957 29bc 1e41 8b3c 9b67 debd
00000100: 7000 72bc 4cbb 90bd dc65 9d3c 1120 bc3d
00000110: d15c 533c 3583 5ebd c658 633d b242 513d
00000120: 1fad 8fbc 48cc 61bd bf96 1ebd 0dd3 973c
00000130: 5f92 103e f0bf e8bc 702e 103e 9434 273e
00000140: ef44 d2bd 2ffa 04be 54be 0dbb c02d 393d
00000150: 7151 a63d 1599 4ebc 38e3 08bd ca80 f73c
00000160: 6b23 e03c fd84 94bc 1ac6 e03d 7656 96ba
00000170: f72f bdbb 0528 c53d c037 7a3d 2a09 723e
00000180: 1f69 053e 00c7 36be 5a81 003c b63d a53d
00000190: 194f c53d 18f1 fc3d 61d0 8d3a 21bd b1bd
000001a0: f804 ec3c f9d5 523d e158 d6bd 6ca8 28bd
000001b0: d478 423d f6eb 81be a269 153d 3f0b 883e
000001c0: 1fcd 1f3e 909b f1bd 687f 973d 6785 5f3d
000001d0: 92be 95bd 341c e33c 84c0 d1bd 3621 6bbd
000001e0: b61c d13d 1204 bbbd 9a37 d2bd 46c3 8d3c
000001f0: 41a9 a33d 680e a4bd ff6a 0bbd 99d5 32bd
00000200: 473b a63d 0349 9bbc cca8 babc ec5e a43d
00000210: df79 c0bc 349a 32bd 1934 8d3d 6776 663d
00000220: bad8 86be 74b2 373d 5686 c63d 77ea 60bc
00000230: 9345 5bbd e2eb 133c 1b85 a73d 8bc1 b53d
00000240: ce8b 913c c929 323e 5fd2 253d 7670 99bd
00000250: 363a 093e 9167 13be feef 66bd 06c5 e63c
00000260: 6657 d7bc a5b5 883b da5d 1d3d 95af 1fbe
00000270: 46da 9abd a445 a9bd bb6f dbbd 4bad 8dbc
00000280: bd3c 6bbe 23d6 a9bd f644 4d3d e02d 283d
00000290: f2b3 393e 8d6d f33d 693b d7bc aa0f 1a3c
000002a0: bc46 c4bc be75 51bd 50f3 95bd 1fc3 d4bd
000002b0: 1b54 32be a529 0b3d 5f15 d5bc ce2c 1c3e
000002c0: 824c 97bd 5ef6 2e3e 844e e8bc 9463 ca3d
000002d0: 9f9d bdbc d479 503d b560 1cbd 1f45 383e
000002e0: a5f9 27be 0115 a23d 49f6 253e adbf 373c
000002f0: c7b3 21bd 1fe2 d53c 7c8a f23d 9e62 043d
00000300: 6ecf 54bc 8ff3 f23d 2eb6 11bd 0340 db3d
00000310: 4afd 963d ffef 09be b680 1ebd 38cc 203d
00000320: 2e4a 22be a373 0b3e e240 8b3e 4445 a13d
00000330: e4df db3d 9ad1 b33d c780 e33d 6f4a 1abe
00000340: 7609 7b3d 2f9a 183c 683f 08be 2342 0d3b
00000350: b713 38bd 6a88 573e 1d7c a53d 3849 cfbb
00000360: 706b cf3d 3c9c 0a3e da17 cabd 1518 dd3d
00000370: 83e7 fc3d 498e 58bd fdd9 cbbc 81ea b63c
00000380: c92c 283e c26f 1a3d 4228 bf3d baee 483e
00000390: b862 013d 3253 91bd 6ee2 67bd 9ea1 263e
000003a0: bf63 183d 0d88 95bd 8b2f 043d 6d3f 1d3e
000003b0: 2985 393d 801f 853c 4480 2d3d 91e1 0d3e
000003c0: d361 533d ddac 17bb 8c69 edbd 30f6 03be
000003d0: 78c0 2fbb bd39 1e3e 9c9c 383e 52a8 48be
000003e0: 54ed fb3d ea66 983d d54e bb3c f72d 1abe
000003f0: 5609 353d 129c 373b 6bd5 233e 7be2 c23c

bias f4 [64]
0.021091484 0.19193314 -0.09067988 0.01475435 8.470169e-06 -0.05371861 0.16074887 0.13837218
0.12216823 -0.054257922 0.016982084 -0.063303575 0.09012169 -0.005155806 -0.109117806 0.025484655
0.13636447 -0.008110922 0.02910171 0.02810687 0.11696734 0.021409255 -0.16501808 -0.09915208
0.13455138 -0.11795114 0.081335284 -0.23095778 -0.12503535 0.03092553 -0.10412063 -0.06695307
-0.12613885 -0.04541967 -0.12251703 0.02093058 -0.06500173 -0.09244501 0.07605033 -0.06884979
0.013837749 -0.1697385 -0.17679591 0.0969091 0.0412724 0.06383145 0.06302021 0.012068237
-0.06394723 -0.06265052 -0.08237497 -0.05209662 0.054546766 0.016242275 0.012854865 -0.07464147
0.11699772 -0.042595297 -0.072141804 0.20245542 -0.056014486 0.07788427 0.088284604 -0.11533081
00000000: 0cc8 ac3c 1f8a 443e 5fb6 b9bd 3bbc 713c
00000010: 191b 0e37 0c08 5cbd 5a9b 243e 70b1 0d3e
00000020: 5633 fa3d 8e3d 5ebd 031e 8b3c 4ea5 81bd
00000030: b891 b83d 09f2 a8bb 2879 dfbd 32c5 d03c
00000040: 21a3 0b3e ace3 04bc b666 ee3c 6140 e63c
00000050: 938c ef3d 7662 af3c 80fa 28be 3f10 cbbd
00000060: d6c7 093e 5e90 f1bd 1d93 a63d 3280 6cbe
00000070: 4409 00be 8957 fd3c 323d d5bd b11e 89bd
00000080: 8b2a 01be fa09 3abd 35ea fabd 9c76 ab3c
00000090: a11f 85bd cf53 bdbd 47c0 9b3d 1e01 8dbd
000000a0: bab7 623c eecf 2dbe fd09 35be 4778 c63d
000000b0: 400d 293d 10ba 823d bd10 813d dbb9 453c
000000c0: c4f6 82bd ea4e 80bd 35b4 a8bd 4463 55bd
000000d0: 6e6c 5f3d 850e 853c 369d 523c a1dd 98bd
000000e0: 809c ef3d 6878 2ebd 15bf 93bd 7950 4f3e
000000f0: 726f 65bd ca81 9f3d 8fce b43d 8f32 ecbd

weight f4 [12, 64]
0.5501738 0.45885715 -0.8537454 -0.04103047 0.4735765 0.03576619 0.40315577 0.37529624
0.38420543 0.093675435 0.02473265 -0.35022283 0.30651894 0.100947015 -0.47213417 -0.43022776
0.2121723 0.4028077 -0.30596444 -0.45120397 0.62190455 0.5411152 -0.49339998 -0.12578347
0.38405666 -0.14955059 0.51712227 -0.45544693 -0.34393877 0.3953766 -0.3128463 -0.33837774
-0.29621714 -0.37058333 -0.35583687 0.25222838 0.24027249 -0.4330742 0.2925462 0.35700393
-0.39959517 -0.36233017 -0.4885177 0.29600284 -0.10995978 0.5426339 0.06680502 0.38972735
-0.3999564 0.013748674 -0.257961 -0.4801845 0.4907285 -0.24802648 0.37063807 -0.38493466
-0.07639602 -0.3079375 0.33546507 0.4754607 0.4191285 -0.12163066 0.21492048 -0.31687093
-0.22071631 -0.082795545 0.24596106 -0.022985231 0.03705234 -0.19486146 0.067430615 -0.03345983
-0.070486896 0.17515533 0.034396254 -0.2249457 -0.050129134 -0.033935703 0.10148618 0.18263504
0.23109913 0.47221166 0.13132128 0.080500394 0.035532873 -0.13070618 0.06449353 -0.5478549
-0.07708681 0.16552396 -0.21477282 -0.048149996 -0.053555753 -0.07370019 -0.042758886 0.033337783
0.03465532 0.13486587 0.0515998 0.23610485 0.023297243 0.21794377 0.026869966 -0.046108317
0.30911773 0.119250506 0.10256124 0.12376916 0.039985713 -0.0012814018 0.05576646 -0.18028066
-0.0054383404 -0.20634839 -0.00077356474 -0.10738521 -0.11645689 0.113898136 0.25385895 0.09333833
-0.07401657 0.10797945 0.11531517 -0.11408161 -0.026232377 0.37085795 -0.19577254 0.09482111
0.16134334 0.6359479 -0.8228678 1.301479 -0.43195236 1.3996344 0.49517712 1.244769
0.43649143 0.057388734 0.52940917 -1.1302377 0.86640275 0.7236138 -0.3706395 -0.49130845
0.24499427 0.8611909 0.23931067 -0.99475765 0.23004934 0.22109675 -0.67058855 -0.15301137
0.2921266 -0.46095547 0.36862493 -0.20440216 -0.53469425 0.42782012 0.029361703 -0.8739582
-0.84494823 0.20895399 -0.47327638 0.83994263 1.4749544 -0.9064824 -0.4389625 -1.290146
-0.8436753 -0.46772268 -0.7457983 1.2516646 -0.26752257 0.055095967 -0.18241774 1.0258945
0.8355206 1.3453767 -0.6770726 -0.7548442 0.9026701 -1.3921512 -0.7854785 -0.94780815
0.8285124 -0.9552936 -1.4395219 0.6125091 -0.052951552 1.0502406 1.224801 -0.64986885
0.071125664 0.14970627 0.0146560585 -0.10137203 0.12829556 0.019513166 0.08823922 0.114705086
-0.030116012 -0.15178888 0.229696 0.04477584 0.1574439 -0.036125995 -0.07949061 0.06674669
0.2948446 0.31231034 0.06268956 0.008693088 -0.09840851 -0.046744492 -0.014103206 0.24146178
0.009423162 0.044363342 0.08689023 0.078443155 -0.04870774 -0.18152405 0.16547267 -0.06179885
0.084404334 0.036885634 -0.097753994 0.050394267 0.089267775 -0.058460157 0.20900765 0.07985979
0.15046707 -0.06931014 0.0665052 0.0355291 -0.15821083 0.054984428 0.091512226 0.0041295043
0.024381924 0.043972977 0.037251424 -0.10943906 0.0041067055 0.001990912 0.027322944 -0.09511042
0.1771975 -0.02627487 0.00082373974 -0.02192763 0.11107891 -0.044433266 0.12807329 -0.11501221
00000000: 31d8 0c3f 53ef ea3e 0f8f 5abf 910f 28bd
00000010: 9e78 f23e 927f 123d 6f6a ce3e d426 c03e
00000020: 93b6 c43e e8d8 bf3d 209c ca3c 6850 b3be
00000030: 0df0 9c3e 4fbd ce3d 92bb f1be d046 dcbe
00000040: b243 593e d03c ce3e 5fa7 9cbe 3504 e7be
00000050: 2335 1f3f 8786 0a3f ec9e fcbe 62cd 00be
00000060: 13a3 c43e ca23 19be 2062 043f 5730 e9be
00000070: be18 b0be cd6e ca3e 642d a0be d93f adbe
00000080: c6a9 97be 19bd bdbe 4030 b6be 1424 813e
00000090: fe09 763e e7bb ddbe 9ec8 953e 38c9 b63e
000000a0: bd97 ccbe 5783 b9be fe1e fabe af8d 973e
000000b0: 9832 e1bd 0eea 0a3f 12d1 883d 588a c73e
000000c0: 16c7 ccbe 1e42 613c 7713 84be beda f5be
000000d0: c440 fb3e a7fa 7dbe 46c4 bd3e 2816 c5be
000000e0: 8475 9cbd fca9 9dbe 14c2 ab3e 966f f33e
000000f0: 0398 d63e 7f19 f9bd 1d14 5c3e e83c a2be
00000100: 7503 62be b690 a9bd 37dd 7b3e 864b bcbc
00000110: 32c4 173d c389 47be 1019 8a3d 2d0d 09bd
00000120: 6f5b 90bd eb5b 333e 16e3 0c3d 2a58 66be
00000130: 3554 4dbd 2a00 0bbd fdd7 cf3d ae04 3b3e
00000140: 40a5 6c3e bac5 f13e 1679 063e 64dd a43d
00000150: eb8a 113d d7d7 05be 2f15 843d 3840 0cbf
00000160: b0df 9dbd 1d7f 293e 68ed 5bbe ee38 45bd
00000170: 475d 5bbd 20f0 96bd f123 2fbd 338d 083d
00000180: bdf2 0d3d 471a 0a3e 505a 533d 78c5 713e
00000190: dcd9 be3c a72c 5f3e 671e dc3c 13dc 3cbd
000001a0: ae44 9e3e 9c39 f43d a10b d23d af7a fd3d
000001b0: 0fc8 233d b6f4 a7ba 5f6b 643d 7e9b 38be
000001c0: 1b34 b2bb fe4c 53be 0dc9 4aba c7ec dbbd
000001d0: f380 eebd 6d43 e93d cdf9 813e 2b28 bf3d
000001e0: 0096 97bd 5424 dd3d 5c2a ec3d 9fa3 e9bd
000001f0: 48e5 d6bc 18e1 bd3e 9978 48be 9231 c23d
00000200: 3037 253e 7bcd 223f 77a7 52bf dd96 a63f
00000210: dc28 ddbe 3827 b33f db87 fd3e 9754 9f3f
00000220: ce7b df3e 7310 6b3d 5c87 073f a1ab 90bf
00000230: 92cc 5d3f c13e 393f 76c4 bdbe c88c fbbe
00000240: c7df 7a3e 0277 5c3f db0d 753e 70a8 7ebf
00000250: 0e92 6b3e 3067 623e b1ab 2bbf 03af 1cbe
00000260: 9e91 953e 5b02 ecbe 68bc bc3e cd4e 51be
00000270: b9e1 08bf 3d0b db3e f487 f03c b9bb 5fbf
00000280: 874e 58bf 09f8 553e 4851 f2be 7b06 573f
00000290: 4ecb bc3f 3b0f 68bf b1bf e0be 8123 a5bf
000002a0: 1bfb 57bf 5979 efbe a3ec 3ebf 8c36 a03f
000002b0: b8f8 88be 4fac 613d b7cb 3abe 8350 833f
000002c0: aee4 553f 4e35 ac3f a154 2dbf 783d 41bf
000002d0: 6315 673f 0332 b2bf 1e15 49bf 8ea3 72bf
000002e0: 6319 543f 1f8e 74bf 4142 b8bf 65cd 1c3f
000002f0: bae3 58bd 496e 863f 47c6 9c3f ce5d 26bf
00000300: 55aa 913d 9a4c 193e f71f 703c 249c cfbd
00000310: e95f 033e 13da 9f3c c4b6 b43d 80ea ea3d
00000320: dbb5 f6bc 8b6e 1bbe 6e35 6b3e df66 373d
00000330: f938 213e daf8 13bd f9cb a2bd 7db2 883d
00000340: dff5 963e 24e7 9f3e 6263 803d 746d 0e3c
00000350: 678a c9bd 2777 3fbd 2211 67bc c241 773e
00000360: 9b63 1a3c 56b6 353d 81f3 b13d cea6 a03d
00000370: c481 47bd 71e1 39be ab71 293e ca20 7dbd
00000380: 2edc ac3d 6415 173d 3f33 c8bd 386a 4e3d
00000390: 06d2 b63d eb73 6fbd 1a06 563e 888d a33d
000003a0: 0a14 1a3e 7af2 8dbd e133 883d f686 113d
000003b0: 0502 22be 5a37 613d c36a bb3d cb50 873b
000003c0: 9abc c73c 021d 343d f394 183d 9621 e0bd
000003d0: 8b91 863b f679 023b 5ed4 df3c 40c9 c2bd
000003e0: 4373 353e 653e d7bc 3df0 573a 93a1 b3bc
000003f0: 577d e33d a8ff 35bd a525 033e 868b ebbd

bias f4 [12]
0.527584 -0.09589781 0.52614576 0.13968058 0.10891441 -0.07117659 0.20558909 0.02423688
1.5077956 0.6430491 0.19365108 0.8103747
00000000: bf0f 073f 1266 c4bd 7db1 063f 6d08 0f3e
00000010: 850e df3d 08c5 91bd f285 523e 6c8c c63c
00000020: 72ff c03f de9e 243f 784c 463e b774 4f3f
