logs/a1_amp_example/exported/policies/policy_1.pt (torch, 253704 bytes, 8 tensors)

weight f4 [256, 72]
0.048481498 -0.012566586 0.014011853 -0.051002353 0.07427054 0.099506095 -0.11164766 0.11819762
0.03642731 0.07884579 -0.03899789 0.077690534 -0.03566971 -0.06724415 -0.022925293 0.046006136
-0.10962111 -0.090097085 0.101805635 -0.069218144 -0.117770486 0.04670358 -0.077510215 0.05874333
0.08781756 0.051742774 -0.07481716 0.09889696 -0.1185903 0.033312485 -0.007938037 0.020203006
0.0070802155 -0.11743246 0.027348759 -0.06842873 0.10431153 0.042936526 -0.104791336 -0.031677585
-0.011882925 -0.09224144 0.11707103 -0.02260598 -0.06123582 -0.046705723 0.07789866 -0.08886734
0.08493379 0.020010104 0.021782743 -0.084385395 0.0290999 0.036307234 -0.091818415 -0.078624725
0.061890144 0.023008503 0.067767024 -0.02347204 0.029621413 -0.005425647 0.10732329 0.033399105
-0.024960557 0.08244059 0.11147604 0.00076831674 -0.022969443 0.11231462 -0.092224166 0.08126034
0.099201806 -0.062430803 -0.103999555 0.025117878 -0.058512405 0.0053382763 0.08695558 0.012170449
-0.07089821 -0.10339982 0.057845004 0.035326604 -0.03185449 -0.06940375 0.001052836 -0.014312587
0.061244126 -0.061106745 -0.024047038 0.12171231 -0.10742511 0.0023278892 -0.104013264 0.10320467
-0.08204016 -0.099327154 -0.111391924 0.031739827 -0.01806424 0.090903565 -0.114753366 -0.069539666
0.0705388 -0.061123066 -0.0569204 -0.036702458 0.08082955 0.10275248 -0.10902324 -0.02949413
-0.115250155 0.03401873 0.017500008 -0.049901463 0.024033371 0.09623395 0.08508643 0.007815079
-0.074049346 0.07147816 -0.11364396 0.067976266 -0.09671185 0.07105688 0.084805675 -0.05672876
0.105269484 -0.10901299 0.046570916 -0.08258466 0.100698054 -0.043327387 0.052984867 0.060629
0.035221167 -0.0073398687 -0.078498825 0.0569376 0.061592124 -0.006580774 -0.08238836 -0.09588055
-0.025251199 -0.015651802 0.042575605 -0.059313774 0.0031397624 -0.11558587 -0.08697493 -0.1174843
0.03940972 -0.07512439 0.011047968 0.008667373 -0.114684105 0.057587277 0.029465394 -0.023453543
0.055290885 -0.08430904 -0.044346858 0.053862106 0.016419584 -0.108427346 0.047995485 -0.073258996
0.017106347 0.0772121 -0.086939774 -0.04404083 0.08624805 0.090995155 0.0573131 -0.05982425
-0.11148108 0.0041172113 0.0055776243 -0.038074598 -0.07240925 0.051672023 -0.055039056 0.10918907
0.0042670704 0.11193217 0.07349334 0.056399588 -0.03382195 0.10018225 -0.013919259 -0.05339607
0.035952833 -0.036600295 -0.07729931 -0.00101184 -0.02387093 -0.006351437 -0.078123175 -0.037968304
0.035307948 0.014123234 -0.06305538 -0.05722445 -0.039031252 -0.089840256 0.023626963 -0.082089506
0.05859771 0.07098371 0.030391239 -0.006381491 0.0774132 0.057906505 -0.007046126 0.09280466
-0.05520065 -0.124240026 0.08612589 -0.06116523 -0.073884815 0.06287683 0.045386195 0.030731685
0.07464971 -0.0714275 0.09980024 -0.091573216 -0.093904786 0.056254465 0.09441521 0.027066244
-0.03997849 0.058270358 0.07278396 -0.0011388274 -0.066100106 0.07286212 0.035650477 -0.06986188
0.024800237 -0.065753944 -0.02415191 0.1039075 -0.032762624 0.019005062 -0.11322811 -0.06358676
0.04147011 0.08299933 0.07876542 -0.10570464 -0.09109471 0.026160652 -0.05820799 0.0030081344
00000000: 8994 463d 15e4 4dbc f991 653c d8e7 50bd
00000010: 271b 983d dac9 cb3d 87a7 e4bd 9811 f23d
00000020: ce34 153d e779 a13d 40bc 1fbd 371c 9f3d
00000030: 671a 12bd 4db7 89bd d3cd bbbc ee70 3c3d
00000040: 0881 e0bd d284 b8bd 797f d03d 3ec2 8dbd
00000050: a731 f1bd 414c 3f3d adbd 9ebd d99c 703d
00000060: b1d9 b33d 3bf0 533d bd39 99bd 7d8a ca3d
00000070: 79df f2bd ac72 083d 8a0e 02bc c680 a53c
00000080: 2701 e83b 6e80 f0bd 810a e03c 5d24 8cbd
00000090: 49a1 d53d 36de 2f3d d79c d6bd 5bc0 01bd
000000a0: 9ab0 42bc 15e9 bcbd f0c2 ef3d 2d30 b9bc
000000b0: 69d2 7abd 804e 3fbd 5589 9f3d 1400 b6bd
000000c0: c4f1 ad3d 3bec a33c b971 b23c 40d2 acbd
000000d0: ea62 ee3c e5b6 143d 4b0b bcbd 0006 a1bd
000000e0: 8580 7d3d 547c bc3c 70c9 8a3d 7048 c0bc
000000f0: 9ba8 f23c a0c9 b1bb 50cc db3d 80cd 083d
00000100: 157a ccbc 9dd6 a83d 8d4d e43d dd68 493a
00000110: 6a2a bcbc 3505 e63d 06e0 bcbd d26b a63d
00000120: 512a cb3d 71b7 7fbd b8fd d4bd 02c4 cd3c
00000130: b4aa 6fbd b5ec ae3b c415 b23d 9066 473c
00000140: 1533 91bd 49c3 d3bd e2ee 6c3d a1b2 103d
00000150: db79 02bd 8e23 8ebd 50ff 893a 577f 6abc
00000160: 1fdb 7a3d 114b 7abd 4bfe c4bc 4e44 f93d
00000170: b201 dcbd 808f 183b e804 d5bd f85c d33d
00000180: ac04 a8bd 096c cbbd 7321 e4bd 9f01 023d
00000190: 75fb 93bc a62b ba3d d003 ebbd d06a 8ebd
000001a0: a576 903d 2e5c 7abd 5e25 69bd 5155 16bd
000001b0: f789 a53d e46f d23d 9447 dfbd ac9d f1bc
000001c0: 4608 ecbd 3957 0b3d 2d5c 8f3c 7a65 4cbd
000001d0: a2e1 c43c 4e16 c53d cb41 ae3d d10a 003c
000001e0: 2fa7 97bd 2463 923d 2abe e8bd 2437 8b3d
000001f0: dd10 c6bd 4586 913d 99ae ad3d 6b5c 68bd
00000200: 8797 d73d 3442 dfbd 25c1 3e3d 2522 a9bd
00000210: c83a ce3d 0f78 31bd a906 593d 1d56 783d
00000220: 1244 103d 4883 f0bb fec3 a0bd 6737 693d
00000230: 0648 7c3d 89a3 d7bb 3abb a8bd 065d c4bd
00000240: 9adb cebc 3538 80bc c263 2e3d 00f3 72bd
00000250: 79c4 4d3b 49b8 ecbd e91f b2bd 9c9b f0bd
00000260: 166c 213d d1da 99bd 8902 353c 9901 0e3c
00000270: 80df eabd a3e0 6b3d 6961 f13c a521 c0bc
00000280: b278 623d 38aa acbd 0da5 35bd 839e 5c3d
00000290: 5d82 863c 280f debd ea96 443d d008 96bd
000002a0: 9c22 8c3c 6121 9e3d 7b0d b2bd 2864 34bd
000002b0: d1a2 b03d ab5b ba3d 24c1 6a3d 460a 75bd
000002c0: 3150 e4bd ace9 863b 81c4 b63b 1cf4 1bbd
000002d0: 4d4b 94bd 0ba6 533d a270 61bd 859e df3d
000002e0: c8d2 8b3b b23c e53d ad83 963d 4103 673d
000002f0: e388 0abd 5a2c cd3d 9b0d 64bc d6b5 5abd
00000300: 4743 133d 31ea 15bd 1a4f 9ebd b79f 84ba
00000310: f88c c3bc b71f d0bb 0bff 9fbd a784 1bbd
00000320: 119f 103d 2365 673c 2e23 81bd 2f64 6abd
00000330: 3cdf 1fbd 2bfe b7bd 558d c13c 8b1e a8bd
00000340: 2704 703d e85f 913d 0cf7 f83c d41b d1bb
00000350: d08a 9e3d 5f2f 6d3d 30e3 e6bb 5f10 be3d
00000360: 141a 62bd 8e71 febd c562 b03d 6488 7abd
00000370: ec50 97bd 91c5 803d e0e6 393d 04c1 fb3c
00000380: f2e1 983d 9548 92bd 1164 cc3d bd8a bbbd
00000390: 2751 c0bd 156b 663d c35c c13d 07ba dd3c
000003a0: 7cc0 23bd e6ac 6e3d c20f 953d b544 95ba
000003b0: 7e5f 87bd bc38 953d 3c06 123d bf13 8fbd
000003c0: de29 cb3c 01aa 86bd 3ada c5bc 75cd d43d
000003d0: 1a32 06bd 81b0 9b3c 24e4 e7bd c639 82bd
000003e0: 90dc 293d 8dfb a93d c44f a13d ad7b d8bd
000003f0: dd8f babd dd4e d63c 806b 6ebd 1f24 453b

bias f4 [256]
0.037294146 -0.055724252 -0.09167449 -0.039690588 -0.11946815 -0.008134905 -0.08666661 -0.018065384
-0.11594553 -0.083946556 -0.0028808115 -0.03950829 0.00713835 -0.019470584 -0.0849378 0.09444548
-0.098254405 -0.010196845 -0.10253505 -0.0035460952 -0.0040160837 0.045772165 -0.027356636 0.09228735
-0.096015 0.031420283 0.09861947 0.013137316 -0.08251332 0.015387086 -0.010805225 -0.022215884
0.08647121 -0.051555566 -0.06711493 0.07460671 0.089513555 -0.039940048 0.122660555 0.012982473
0.077251494 -0.08758788 -0.09114403 0.07270503 -0.067986764 0.07246571 -0.024611447 0.10601729
-0.031154009 0.097635455 0.05877027 -0.05501854 0.0727971 0.112552114 0.0793441 0.044638637
-0.105827674 -0.0191246 -0.11030245 -0.007957086 -0.01975329 -0.00895725 0.061678294 0.057285998
-0.038812377 -0.052792147 -0.11109156 -0.05135721 0.11076897 -0.06413258 -0.04213383 0.05184976
0.10113064 0.06583115 0.006167026 -0.10745518 0.017077982 -0.10629654 -0.1053767 -0.033085823
0.064648315 -0.056310315 -0.03639122 0.08482206 0.041081417 0.050351195 -0.11673642 -0.0750146
0.054087576 -0.075575486 0.10942411 0.06605251 -0.112314306 -0.07997203 0.01585141 0.0026799229
-0.090102494 -0.052266374 -0.059220772 0.054435294 0.11115124 0.024964307 -0.057083815 0.021852022
0.08555235 -0.046006657 -0.05846986 0.087127075 0.10986246 -0.01968796 0.080153346 0.015273329
0.09238079 0.03953687 -0.013628398 -0.07029457 0.0015865795 0.112636216 -0.059280448 0.09808242
0.10134259 0.014829821 -0.06950631 0.11736454 -0.03671046 0.06589191 -0.0070430664 -0.024065264
-0.021214629 0.0011968057 0.083978355 0.09793956 -0.0040432126 -0.045756858 -0.0025990023 0.10980468
0.027811322 -0.063930735 0.052296694 -0.00045912195 0.09942803 0.05066068 -0.03691702 -0.054719433
0.08248638 -0.028459849 0.05174979 -0.06275573 -0.034657232 -0.08308257 0.11015423 -0.10004412
-0.089743614 -0.024545696 0.03246895 -0.1006982 0.063557744 -0.015640067 -0.091627754 -0.09272658
-0.10201096 0.08873406 0.08686817 0.08291844 0.026449397 -0.007824049 -0.11796531 -0.08399841
-0.023570176 0.10913281 -0.111715734 0.0006580427 -0.061165992 0.0018433301 0.06697406 0.083145745
-2.1944974e-05 0.07265496 -0.1035534 -0.035225686 0.029943364 0.065982476 0.06676544 -0.10995636
0.017455682 0.11455236 0.097742364 -0.059240162 0.07480197 0.05194882 0.101770416 0.03369603
0.026093457 0.012171159 0.049674336 0.09959974 -0.0026692871 0.013951814 0.10355127 -0.008277291
0.040700927 0.08288328 -0.058590513 0.0710605 -0.08438253 0.091701515 0.06282573 0.023635922
0.09592076 0.0016215123 -0.10969307 0.014626158 0.10384197 -0.015356258 0.024684692 -0.036873996
0.046373148 0.03428544 0.06799419 -0.09911311 -0.05419944 0.04348603 -0.07805045 0.090661794
-0.08894347 -0.050011 0.096130036 -0.052806552 -0.014958198 0.018426437 -0.08985937 -0.08366079
-0.08060358 -0.06737221 -0.06649262 -0.016792139 0.042944293 0.035948407 -0.06992916 0.029146891
-0.012466457 0.03768665 0.029396852 -0.0799154 -0.0963841 0.030195829 0.03901995 -0.11067204
0.10978937 0.061301317 0.0064996923 -0.0062589375 0.09872153 0.050593376 0.075868696 0.040407814
00000000: bfc1 183d 1d3f 64bd d6bf bbbd 9992 22bd
00000010: b8ab f4bd 4448 05bc 437e b1bd dbfd 93bc
00000020: da74 edbd 2cec abbd ffcb 3cbb 72d3 21bd
00000030: d2e8 e93b c680 9fbc dff3 adbd a26c c13d
00000040: 9b39 c9bd ab10 27bc e5fd d1bd 9b65 68bb
00000050: 5a99 83bb 987b 3b3d 061b e0bc 2601 bd3d
00000060: 83a3 c4bd 8eb2 003d 01f9 c93d e63d 573c
00000070: befc a8bd 1e1a 7c3c 6608 31bc 16fe b5bc
00000080: d117 b13d ee2b 53bd 8d73 89bd 67cb 983d
00000090: e252 b73d 2d98 23bd 7535 fb3d 70b4 543c
000000a0: 0836 9e3d 4661 b3bd b9a9 babd 60e6 943d
000000b0: a53c 8bbd e768 943d f29d c9bc 981f d93d
000000c0: b136 ffbc 19f5 c73d 18b9 703d 1f5b 61bd
000000d0: a516 953d b981 e63d 297f a23d 01d7 363d
000000e0: 2ebc d8bd 31ab 9cbc 40e6 e1bd 705e 02bc
000000f0: a7d1 a1bc 6ec1 12bc 61a2 7c3d b9a4 6a3d
00000100: baf9 1ebd 943c 58bd f983 e3bd f05b 52bd
00000110: d7da e23d f157 83bd 8694 2cbd 6a60 543d
00000120: 951d cf3d 7bd2 863d c314 ca3b 7611 dcbd
00000130: 20e7 8b3c 00b2 d9bd bdcf d7bd 0085 07bd
00000140: 5666 843d a5a5 66bd f60e 15bd 30b7 ad3d
00000150: fd44 283d 0e3d 4e3d 8113 efbd 41a1 99bd
00000160: ef8a 5d3d 52c7 9abd bf19 e03d 8a46 873d
00000170: 0b05 e6bd 60c8 a3bd d1da 813c a5a1 2f3b
00000180: a887 b8bd 4415 56bd 7b91 72bd 8bf7 5e3d
00000190: 43a3 e33d f281 cc3c b8d0 69bd 0303 b33c
000001a0: 1236 af3d 7a71 3cbd 187e 6fbd ae6f b23d
000001b0: 92ff e03d a548 a1bc 7027 a43d fc3c 7a3c
000001c0: 2432 bd3d 6af1 213d a549 5fbc 99f6 8fbd
000001d0: c6f4 cf3a d1ad e63d 0ed0 72bd 70df c83d
000001e0: b48c cf3d c7f8 723c 5359 8ebd d25c f03d
000001f0: b55d 16bd 56f2 863d 86c9 e6bb 8424 c5bc
00000200: 4dca adbc 23de 9c3a d8fc ab3d 8994 c83d
00000210: ed7c 84bb 8b6b 3bbd 0654 2abb 47e1 e03d
00000220: 92d4 e33c 1eee 82bd 0f35 563d 4eb6 f0b9
00000230: eca0 cb3d 9381 4f3d 4d36 17bd 7c21 60bd
00000240: 9fee a83d a124 e9bc 96f7 533d 1386 80bd
00000250: bef4 0dbd 3227 aabd 8a98 e13d eee3 ccbd
00000260: 80cb b7bd 0e14 c9bc 29fe 043d dc3a cebd
00000270: 902a 823d 991f 80bc 55a7 bbbd 6fe7 bdbd
00000280: 1feb d0bd 34ba b53d f0e7 b13d 25d1 a93d
00000290: 68ac d83c 7130 00bc cc97 f1bd 5c07 acbd
000002a0: 3e16 c1bc 0681 df3d 38cb e4bd 8080 2c3a
000002b0: 3189 7abd e59b f13a b229 893d 5148 aa3d
000002c0: 7916 b8b7 20cc 943d ce13 d4bd cf48 10bd
000002d0: c94b f53c d221 873d 52bc 883d cd30 e1bd
000002e0: 38ff 8e3c 6d9a ea3d 262d c83d d0a5 72bd
000002f0: c631 993d 49c8 543d 026d d03d d904 0a3d
00000300: f2c1 d53c 8a69 473c 5177 4b3d f3fa cb3d
00000310: 35ef 2ebb 2696 643c b012 d43d 7a9d 07bc
00000320: 04b6 263d b6be a93d 9bfc 6fbd 2b88 913d
00000330: bfd0 acbd 01ce bb3d c7aa 803d 1fa0 c13c
00000340: 1a72 c43d ed88 d43a c3a6 e0bd 8ea2 6f3c
00000350: 19ab d43d d098 7bbc 8d37 ca3c 3009 17bd
00000360: c5f1 3d3d e46e 0c3d 8a40 8b3d d0fb cabd
00000370: 3b00 5ebd 681e 323d ead8 9fbd e4ac b93d
00000380: fe27 b6bd 56d8 4cbd d3df c43d af4b 58bd
00000390: 3b13 75bc 0af3 963c 3008 b8bd 5956 abbd
000003a0: 7d13 a5bd 71fa 89bd 482d 88bd ab8f 89bc
000003b0: 5be6 2f3d a33e 133d 0537 8fbd 76c5 ee3c
000003c0: 1c40 4cbc 515d 1a3d abd1 f03c afaa a3bd
000003d0: 0765 c5bd 3e5d f73c 62d3 1f3d 06a8 e2bd
000003e0: 40d9 e03d 1717 7b3d 5ffb d43b c617 cdbb
000003f0: 832e ca3d 003b 4f3d 0c61 9b3d aa82 253d

weight f4 [128, 256]
-0.03401812 -0.011222069 -0.04652762 -0.044547737 0.040600974 -0.041646898 0.047339886 -0.03419092
0.06275464 -0.058398847 -0.054327637 -0.012059718 -0.0030098723 0.023186378 0.016832983 0.050394483
0.01249766 0.033138424 0.023858665 0.056910034 -0.006669165 0.016766932 0.057375655 -0.0327312
0.047652584 -0.032779384 0.03658452 0.006495738 0.056653872 -0.00997917 -0.03430509 0.057278432
-0.014707031 0.059642036 -0.035805926 0.011970687 -0.006358382 0.033402212 -0.008417621 0.001630339
-0.012335222 -0.028684482 0.06416281 -0.011814042 0.009789059 0.025643997 0.028963307 0.00812475
-0.033398304 -0.021791775 0.017109549 -0.025063453 0.036818165 0.021674862 0.05355829 0.051096432
0.00899856 -0.05131904 -0.056059886 -0.063693725 0.02611818 -0.011930031 -0.019306421 -0.028847698
0.007923723 -0.052813508 0.0556826 -0.04018272 -0.05679934 0.013787961 0.06394689 -0.04711384
0.0037416827 0.04191329 0.00025017504 0.013130976 -0.0026321765 -0.04026441 -0.05591697 -0.05912385
0.03247884 -0.054450814 -0.048919495 0.04707813 -0.038247906 0.064460434 -0.040521443 -0.0023089736
0.037859082 0.034415774 -0.046526488 0.050644334 -0.04117882 -0.020000428 -0.001585253 -0.0010717208
0.029921828 -0.043111473 0.01984048 0.0076976228 -0.053904425 -0.05507809 -0.008618111 -0.016002081
0.025523927 -0.018349541 0.04556379 0.0069909585 0.060892053 -0.061050676 0.056583792 -0.046375863
0.010367847 0.053466238 -0.03444369 -0.038029235 -0.026840743 -0.055878155 0.023974486 -0.038690146
-0.03888363 0.028299807 0.038707905 -0.014056717 0.013494251 0.05921179 0.060543828 -0.031072594
0.064721674 0.064052634 -0.011020045 -0.038928173 -0.053619042 -0.028580163 0.045408495 0.0015741314
0.03666957 -0.054010738 0.0040871566 -0.060586486 0.0041865273 -0.0008306141 0.046333812 0.022075325
0.0015716703 0.033408664 -0.03197447 -0.041978322 -0.010608297 0.029163264 -0.025168847 0.033803668
-0.043834087 -0.007063361 0.00046195576 -0.0069572246 -0.0120348055 -0.052634057 -0.0023011025 0.051886745
0.0327085 0.02467813 0.038603004 -0.006656196 0.0045300755 -0.031645294 0.04728118 0.061533373
0.043841444 -0.04135877 0.05077512 -0.04616693 -0.025147524 -0.010175247 0.0099501405 0.032742288
0.029328616 0.03783606 0.019661821 -0.028664641 0.023523724 0.045976017 0.035545886 -0.02080822
0.063115574 -0.039049126 -0.047951642 -0.034551725 0.067488335 0.061102454 0.04498446 0.05379197
-0.017870503 -0.051629532 -0.059368663 -0.02779352 -0.03756175 0.04001366 0.035018962 -0.034985583
0.013394966 -0.015222611 0.032095525 0.012948806 0.016762206 0.05098694 -0.002624704 0.02005498
0.03381062 -0.029290695 -0.025373334 0.02774264 0.008395918 0.030332893 0.0071547255 -0.05270609
-0.0035926641 -0.021893313 -0.043240577 -0.024716174 -0.0056728553 0.024083003 -0.0077675246 -0.037522364
0.0512489 0.02634799 0.00224328 -0.012831312 0.062955394 -0.021229878 -0.04456978 -0.020636547
-0.027280467 -0.03534679 -0.053105276 -0.025935415 -0.03623206 -0.035005014 -0.042024754 0.04336125
-0.05910195 -0.008947866 -0.05462413 -0.02329075 -0.019366512 -0.01777528 0.030524038 -0.00836856
-0.020693537 -0.049865488 0.025026305 -0.05273222 -0.0055589275 0.04702922 -0.01347931 0.011543959
00000000: 9656 0bbd c5dc 37bc bf93 3ebd b077 36bd
00000010: 354d 263d f095 2abd 78e7 413d c70b 0cbd
00000020: 8185 803d a133 6fbd a886 5ebd 2096 45bc
00000030: 4741 45bb 5cf1 bd3c 53e5 893c 726a 4e3d
00000040: fcc2 4c3c 28bc 073d 3f73 c33c 7f1a 693d
00000050: 0389 dabb ce5a 893c bc02 6b3d 2711 06bd
00000060: 5b2f 433d ad43 06bd a6d9 153d 33da d43b
00000070: e40d 683d ac7f 23bc 7e83 0cbd ca9c 6a3d
00000080: c2f5 70bc 354b 743d 3ca9 12bd b320 443c
00000090: f959 d0bb c2d0 083d 10ea 09bc 19b1 d53a
000000a0: ac19 4abc b8fb eabc cb67 833d af8f 41bc
000000b0: 4a62 203c 5c13 d23c 7544 ed3c ac1d 053c
000000c0: a9cc 08bd aa84 b2bc 5329 8c3c df51 cdbc
000000d0: a5ce 163d 7b8f b13c f05f 5b3d 7e4a 513d
000000e0: b26e 133c ea33 52bd 0d9f 65bd db71 82bd
000000f0: cbf5 d53c 2d76 43bc 8028 9ebc 0252 ecbc
00000100: 81d2 013c fa52 58bd 7013 643d a396 24bd
00000110: 6da6 68bd e6e6 613c 96f6 823d 71fa 40bd
00000120: 0537 753b 45ad 2b3d ed29 8339 4e23 573c
00000130: 9880 2cbb 4bec 24bd 3109 65bd da2b 72bd
00000140: 8808 053d d107 5fbd cf5f 48bd ffd4 403d
00000150: d6a9 1cbd d503 843d d0f9 25bd 2652 17bb
00000160: 2012 1b3d 8ef7 0c3d 8f92 3ebd 6f70 4f3d
00000170: 1fab 28bd f0d7 a3bc 44c8 cfba fc78 8cba
00000180: 9f1e f53c a895 30bd 8188 a23c 573c fc3b
00000190: e3ca 5cbd 9099 61bd fa32 0dbc cc16 83bc
000001a0: 8e17 d13c c751 96bc 19a1 3a3d 6914 e53b
000001b0: f269 793d 4610 7abd 68c4 673d 9ef4 3dbd
000001c0: e7dd 293c 6aff 5a3d d414 0dbd 8bc4 1bbd
000001d0: 1ee1 dbbc 7ee0 64bd 2466 c43c 8f79 1ebd
000001e0: 7144 1fbd ffd4 e73c 2e8c 1e3d 254e 66bc
000001f0: fe16 5d3c 1088 723d cefc 773d f48b febc
00000200: cc8c 843d 072e 833d 6b8d 34bc 2673 1fbd
00000210: a49f 5bbd f220 eabc 42fe 393d 1653 ce3a
00000220: d532 163d 5d3a 5dbd 8eed 853b 8929 78bd
00000230: 232f 893b 92bd 59ba 86c8 3d3d 50d7 b43c
00000240: 8100 ce3a 86d7 083d a9f7 02bd 76f1 2bbd
00000250: 6cce 2dbc cce7 ee3c e62e cebc b775 0a3d
00000260: 5f8b 33bd c473 e7bb a732 f239 6ef9 e3bb
00000270: a22d 45bc cf96 57bd 18ce 16bb 3287 543d
00000280: 59f9 053d ca29 ca3c 2f1e 1e3d 381c dabb
00000290: 0771 943b 7f9e 01bd e9a9 413d 6b0a 7c3d
000002a0: 1693 333d d067 29bd 92f9 4f3d 8919 3dbd
000002b0: 2e02 cebc 14b6 26bc ea05 233c c71c 063d
000002c0: 9142 f03c fcf9 1a3d d411 a13c 1cd2 eabc
000002d0: d3b4 c03c 5951 3c3d 9098 113d 0076 aabc
000002e0: bd42 813d faf1 1fbd f168 44bd 1c86 0dbd
000002f0: 5337 8a3d 9146 7a3d a041 383d f854 5c3d
00000300: 2965 92bc 7d79 53bd 8e2c 73bd 3caf e3bc
00000310: 59da 19bd 5de5 233d 0b70 0f3d 0b4d 0fbd
00000320: 8f76 5b3c 4268 79bc 9976 033d 3b27 543c
00000330: e550 893c aed7 503d 3a03 2cbb 574a a43c
00000340: 017d 0a3d 0af3 efbc bddb cfbc 8844 e33c
00000350: 088f 093c b07c f83c 3072 ea3b 57e2 57bd
00000360: e772 6bbb 9b59 b3bc 081d 31bd 9379 cabc
00000370: 5ce3 b9bb b849 c53c b886 febb 0db1 19bd
00000380: 5eea 513d bdd7 d73c fe03 133b 6c3a 52bc
00000390: c2ee 803d 48ea adbc cd8e 36bd fa0d a9bc
000003a0: 497b dfbc ccc7 10bd eb84 59bd 8276 d4bc
000003b0: 1268 14bd 6b61 0fbd 2622 2cbd 919b 313d
000003c0: e314 72bd 129a 12bc 8dbd 5fbd 3ecc bebc
000003d0: 85a6 9ebc 779d 91bc 8c0d fa3c 491c 09bc
000003e0: 7e85 a9bc c13f 4cbd f703 cd3c befd 57bd
000003f0: aa27 b6bb b6a1 403d 53d8 5cbc e022 3d3c

bias f4 [128]
0.0032550525 -0.010530196 -0.008334753 0.0016318037 -0.0065604914 -0.007873425 0.014365011 0.04804753
0.0067965225 -0.042226013 0.035455476 -0.06104806 0.056431323 -0.05082543 -0.047514398 -0.052857716
-0.006851274 -0.057792857 -0.0352153 0.001809586 -0.04282497 -0.025570193 0.010484613 0.0059176614
-0.04916667 -0.053318955 -0.05694538 -0.019224426 0.048973605 0.0068354136 -0.011273522 -0.03354781
0.025866838 0.015345131 -0.011093705 -0.036280524 0.01823013 0.04682964 -0.032620516 0.04467755
-0.05161487 -0.015683172 0.057086762 0.012830473 -0.018999247 -0.019877482 0.059935234 -0.026253194
-0.037632857 -0.020998944 0.04092418 -0.05864014 -0.0063604037 0.03430386 -0.0604876 -0.004102912
0.033134293 -0.031425282 -0.0034214826 -0.052404296 0.021509616 0.0058062207 -0.04524942 -0.046812665
-0.008898545 -0.01592535 -0.009189385 0.025356265 -0.00615193 0.041651692 0.049693856 0.041555803
0.009519901 -0.005864545 0.060822055 0.011756073 0.055446804 0.0046659578 -0.03616262 0.045882396
0.03724334 -0.020700708 -0.062067308 0.040677458 -0.024745816 -0.041363068 -0.04249835 -0.05397971
-0.006518291 -0.057906915 0.047453225 -0.051268682 0.055047423 -0.015586719 -0.052788343 -0.020606844
-0.033153493 0.028882187 0.00255768 0.045335047 0.04578604 0.026962547 0.03719019 -0.013912194
0.028393097 0.038849294 -0.05921312 -0.023416564 0.038057897 -0.020878693 0.03762023 -0.009627774
0.05938345 0.029385194 0.0069564236 0.021816326 -0.06081035 -0.033458043 -0.040891923 0.008880122
0.030470973 -0.019350357 0.032426026 0.04136023 0.04718462 0.046409816 -0.062010683 0.008208342
00000000: b852 553b d886 2cbc 7d8e 08bc 3fe2 d53a
00000010: 64f9 d6bb 8aff 00bc 395b 6b3c 7dcd 443d
00000020: 5db5 de3b 2ff5 2cbd c339 113d 880d 7abd
00000030: 8824 673d 532e 50bd 759e 42bd 5581 58bd
00000040: a780 e0bb 34b8 6cbd eb3d 10bd a12f ed3a
00000050: 3c69 2fbd 9578 d1bc a7c7 2b3c f1e8 c13b
00000060: fd62 49bd fa64 5abd 8f3f 69bd 8b7c 9dbc
00000070: 8c98 483d 9bfb df3b 94b4 38bc 6e69 09bd
00000080: b1e6 d33c 256a 7b3c 5fc2 35bc e39a 14bd
00000090: 5b57 953c 70d0 3f3d 179d 05bd cfff 363d
000000a0: 1d6a 53bd ff79 80bc cfd3 693d e736 523c
000000b0: 4fa4 9bbc 1ad6 a2bc a67e 753d f010 d7bc
000000c0: e924 1abd fa05 acbc 1da0 273d a530 70bd
000000d0: ef6a d0bb 3482 0c3d d8c1 77bd b871 86bb
000000e0: d3b7 073d ccb7 00bd f43a 60bb e3a5 56bd
000000f0: ef34 b03c 1c42 be3b 7557 39bd a3be 3fbd
00000100: 34cb 11bc e175 82bc 138f 16bc f1b7 cf3c
00000110: 2196 c9bb f79a 2a3d c98b 4b3d 6b36 2a3d
00000120: 5cf9 1b3c 5e2b c0bb 8c20 793d 8b9c 403c
00000130: 301c 633d e4e4 983b 411f 14bd 2eef 3b3d
00000140: 798c 183d 8894 a9bc 4a3a 7ebd 689d 263d
00000150: bdb7 cabc 526c 29bd c012 2ebd d419 5dbd
00000160: 6397 d5bb cd2f 6dbd 505e 423d 1cff 51bd
00000170: 6879 613d 705f 7fbc 9738 58bd afcf a8bc
00000180: f5cb 07bd 569a ec3c c09e 273b 3eb1 393d
00000190: 258a 3b3d 8fe0 dc3c be54 183d f9ef 63bc
000001a0: a498 e83c 7020 1f3d 7589 72bd 18d4 bfbc
000001b0: 99e2 1b3d cb09 abbc ac17 1a3d d0bd 1dbc
000001c0: 0f3c 733d 38b9 f03c b6f2 e33b 27b8 b23c
000001d0: 4614 79bd 4d0b 09bd 4a7e 27bd ee7d 113c
000001e0: 439e f93c a484 9ebc 27d1 043d 5869 293d
000001f0: a944 413d 3818 3e3d eafe 7dbd 487c 063c

weight f4 [64, 128]
-0.030274652 0.037519984 -0.048008148 0.073161505 0.035274956 -0.08220932 0.06425887 -0.011208079
0.086999856 -0.04946227 0.047442194 0.039927047 0.06361896 0.062441148 -0.069596305 0.06916491
0.068505 0.0039535784 0.07706535 -0.014667146 0.02965265 -0.08267341 0.0454656 0.07381672
0.077541195 -0.058044277 0.07389274 0.029759968 0.06543414 0.032921728 -0.009880106 -0.0132781705
-0.024973463 0.027787548 0.021986093 -0.049388416 -0.064827405 0.021086764 -0.008648974 -0.07957972
-0.082232304 -0.07843086 0.08755193 -0.016251272 -0.045480013 0.082698844 0.08765184 -0.03851798
0.015065719 -0.058081713 0.021607518 0.064776815 0.0141346855 -0.08662914 0.07726873 -0.055030964
-0.008709219 -0.08654983 -0.010128585 -0.03296046 -0.06032231 -0.04515661 -0.0054555065 0.040082764
-0.043044504 0.05340879 0.052175064 -0.08481094 -0.022467604 -0.06305492 0.017131219 -0.033244267
0.045804005 0.0865023 -0.055677008 -0.07414873 -0.08495947 0.04557056 -0.02791952 0.061259948
-0.031085031 -0.05340158 0.050079077 0.03553265 0.016698923 -0.032806635 0.017775157 0.017611952
-0.08379875 -0.032217257 0.018443614 0.019843284 -0.0027293914 -0.045646552 0.0719227 0.068575986
0.007029064 0.048978556 -0.055842783 -0.046637744 -0.07554056 0.0091182 0.080407985 0.07649124
-0.06762643 -0.065194234 -0.057795603 0.029248951 -0.044560656 0.054722764 -0.04353644 -0.017414704
-0.012111408 -0.06419897 -0.06578095 -0.07349816 -0.08271267 0.041799486 0.061726216 0.054809585
0.02371302 0.05448089 -0.043067325 -0.03425907 -0.024199763 0.03247763 0.07344803 -0.048014782
0.023187207 0.058351044 -0.07213652 -0.026231946 -0.08292773 -0.07869552 -0.02789341 -0.035050124
0.038423292 -0.0134644825 0.052182235 -0.058081225 -0.04388401 0.047025226 0.028651405 0.002123039
0.02669561 -0.0701795 -0.04770311 -0.02305055 0.001576342 -0.01568257 0.03396725 -0.032266773
0.027018622 -0.07775297 0.020530432 0.09150595 0.031659726 -0.056972552 -0.04251069 0.016085107
-0.04265469 0.012691968 0.049005225 -0.0058170874 -0.052515004 0.003076072 -0.0794808 -0.06389376
-0.03262574 0.04055698 0.004261288 0.0151446 0.0036650829 -0.057332925 -0.01607324 -0.000614949
0.0542943 -0.06343909 -0.059638888 -0.075296625 0.05940536 0.003950498 0.036658745 -0.07658977
0.07080768 -0.060815588 0.0832677 0.036281493 -0.01524649 0.08079138 0.07483575 -0.053460494
-0.013626941 -0.055280875 -0.05207705 0.029525595 -0.07079421 -0.033294026 0.076714635 -0.032390025
-0.008238581 -0.077114165 0.011431811 -0.08037877 -0.031560473 0.07846713 0.0105828615 -0.05042605
0.0152354725 0.08007189 -0.013875943 -0.053254355 0.075989895 -0.085309304 0.023848744 0.0006059043
-0.021485912 -0.06765407 0.030133022 0.035757855 0.03129677 0.047158565 -0.046040736 -0.028974997
0.045154206 0.005684964 -0.07562868 -0.08672716 0.011946717 0.008358847 0.055893786 0.0026846759
0.07574114 -0.04326915 0.050796516 -0.056221966 0.062283084 0.062175296 -0.010813928 0.012564158
-0.07570819 0.002391439 -0.02392855 -0.019354355 -0.049862873 0.051427834 -0.052839935 -0.033122372
-0.0145096695 -0.0092533035 0.022141214 0.051516134 0.0076097525 -0.04490535 0.044606853 0.028438136
00000000: 8c02 f8bc 8eae 193d 31a4 44bd b3d5 953d
00000010: 797c 103d 5c5d a8bd 289a 833d 17a2 37bc
00000020: fb2c b23d f398 4abd bf52 423d 8b8a 233d
00000030: a84a 823d 4ac2 7f3d 8288 8ebd 55a6 8d3d
00000040: 594c 8c3d 058d 813b 70d4 9d3d 784e 70bc
00000050: 1dea f23c ad50 a9bd 233a 3a3d 382d 973d
00000060: ebcd 9e3d d6bf 6dbd 1455 973d 2dcb f33c
00000070: 5602 863d efd8 063d 2be0 21bc af8c 59bc
00000080: 2695 ccbc b6a2 e33c 2e1c b43c 824b 4abd
00000090: 3bc4 84bd 26be ac3c 6db4 0dbc b1fa a2bd
000000a0: 6969 a8bd 5ca0 a0bd 6d4e b33d 6321 85bc
000000b0: 4049 3abd 035e a93d cf82 b33d 08c5 1dbd
000000c0: 35d6 763c 17e7 6dbd 4002 b13c b5a9 843d
000000d0: 2b95 673c 9e6a b1bd 113f 9e3d 2668 61bd
000000e0: 1db1 0ebc 0a41 b1bd 5df2 25bc 8c01 07bd
000000f0: 8714 77bd 23f6 38bd 1bc4 b2bb d32d 243d
00000100: 6f4f 30bd 2dc3 5a3d 85b5 553d 5cb1 adbd
00000110: fb0d b8bc f022 81bd c556 8c3c 242b 08bd
00000120: fb9c 3b3d 1e28 b13d 930d 64bd 4adb 97bd
00000130: 3bff adbd 32a8 3a3d 7ab7 e4bc b6eb 7a3d
00000140: 09a6 febc 9dbb 5abd b81f 4d3d af8a 113d
00000150: 2ecc 883c 4060 06bd 359d 913c f146 903c
00000160: ae9e abbd 3ef6 03bd 1017 973c 628e a23c
00000170: 97df 32bb e1f7 3abd 354c 933d 9171 8c3d
00000180: 1054 e63b bd9d 483d 67bb 64bd 3807 3fbd
00000190: 02b5 9abd 8164 153c f1ac a43d 70a7 9c3d
000001a0: ba7f 8abd 8e84 85bd 15bb 6cbd 7f9b ef3c
000001b0: 3c85 36bd fa24 603d 4453 32bd 48a9 8ebc
000001c0: ed6e 46bc c07a 83bd 2ab8 86bd 3486 96bd
000001d0: 4365 a9bd f035 2b3d a1d4 7c3d 0480 603d
000001e0: cf41 c23c 5b27 5f3d 5d67 30bd 3d53 0cbd
000001f0: 953e c6bc 4307 053d ec6b 963d 26ab 44bd
00000200: 19f3 bd3c 8101 6f3d 50bc 93bd 61e4 d6bc
00000210: 04d6 a9bd 1e2b a1bd b880 e4bc b890 0fbd
00000220: be61 1d3d 229a 5cbc 0abd 553d 94e6 6dbd
00000230: b8bf 33bd 869d 403d 5ab6 ea3c af22 0b3b
00000240: c0b0 da3c 45ba 8fbd 5664 43bd 82d4 bcbc
00000250: 439d ce3a bc78 80bc 3e21 0b3d 2a2a 04bd
00000260: 2856 dd3c f33c 9fbd 702f a83c 7967 bb3d
00000270: a1ad 013d 0d5c 69bd b01f 2ebd eac4 833c
00000280: afb6 2ebd f9f1 4f3c b4b9 483d 449d bebb
00000290: f919 57bd ed97 493b d4c6 a2bd bbda 82bd
000002a0: 91a2 05bd 131f 263d 46a2 8b3b 0e21 783c
000002b0: e331 703b eed5 6abd 07ac 83bc 8734 21ba
000002c0: b363 5e3d 5bec 81bd e847 74bd 1e35 9abd
000002d0: 0953 733d 2e73 813b 7b27 163d 19db 9cbd
000002e0: 9e03 913d c419 79bd 4288 aa3d e79b 143d
000002f0: 6acc 79bc f375 a53d 7c43 993d 64f9 5abd
00000300: 8843 5fbc 336e 62bd bf4e 55bd a9df f13c
00000310: 8efc 90bd 515f 08bd 901c 9d3d 67ab 04bd
00000320: 1dfb 06bc 08ee 9dbd 7e4c 3b3c a09d a4bd
00000330: 8e45 01bd 60b3 a03d bd63 2d3c 8c8b 4ebd
00000340: 349e 793c bbfc a33d ec57 63bc 3d21 5abd
00000350: 97a0 9b3d a5b6 aebd 715e c33c 8dd5 1e3a
00000360: 3903 b0bc 388e 8abd 87d9 f63c d476 123d
00000370: 0b31 003d 5729 413d 3695 3cbd f95c edbc
00000380: 9ef3 383d ef48 ba3b 36e3 9abd 029e b1bd
00000390: 2abc 433c 8cf3 083c e2f0 643d 63f1 2f3b
000003a0: 2c1e 9b3d fe3a 31bd 0210 503d 0149 66bd
000003b0: 8c1c 7f3d 86ab 7e3d e72c 31bc e6d9 4d3c
000003c0: e50c 9bbd b0b9 1c3b ce05 c4bc 068d 9ebc
000003d0: 033d 4cbd fea5 523d b06e 58bd 53ab 07bd
000003e0: f7b9 6dbc 2b9b 17bc 7e61 b53c 9502 533d
000003f0: 3b5b f93b acee 37bd adb5 363d 18f7 e83c

bias f4 [64]
0.06453004 -0.04136462 0.07723842 -0.0600536 0.056011796 -0.031196281 -0.03840597 0.06983815
0.030374935 0.05423199 0.048196092 0.011773202 0.058675162 -0.04908488 -0.0148683125 0.04086686
0.027763005 0.0050097415 0.07130254 -8.817062e-05 0.030145572 -0.082819395 0.0255178 -0.0060778395
0.05564722 0.08816434 0.07363007 0.04045575 0.013496614 -0.067048624 -0.06778939 0.082063094
0.0051881643 -0.032813475 -0.018991232 -0.01312376 0.054440644 -0.059831835 -0.07800963 -0.049935516
0.062236723 -0.0070140464 -0.035711966 0.016703185 -0.062460236 -0.03994976 -0.0756743 -0.0044999523
0.022850228 -0.040250253 0.051081434 0.08214497 0.021260925 -0.076314874 -0.03366587 0.025235372
0.06345574 -0.08847664 0.019306282 -0.020609064 0.06987778 0.07468556 -0.0075187725 -0.06412343
00000000: 5328 843d f36d 29bd 2d2f 9e3d c4fa 75bd
00000010: a06c 653d 588f ffbc 944f 1dbd 4e07 8f3d
00000020: dbd4 f83c 5d22 5e3d 4469 453d 63e4 403c
00000030: 5e55 703d 3a0d 49bd 399a 73bc 0264 273d
00000040: 3e6f e33c c228 a43b 1107 923d 3ee8 b8b8
00000050: d9f3 f63c 379d a9bd b50a d13c 9d28 c7bb
00000060: 57ee 633d 818f b43d 5dcb 963d eeb4 253d
00000070: e720 5d3c ca50 89bd 2ad5 8abd b210 a83d
00000080: 7a01 aa3b 6c67 06bd 8093 9bbc 0a05 57bc
00000090: 27fd 5e3d 3a12 75bd 83c3 9fbd 2f89 4cbd
000000a0: efeb 7e3d 16d6 e5bb b646 12bd 1ed5 883c
000000b0: 4ed6 7fbd 5ca2 23bd 21fb 9abd 5674 93bb
000000c0: 6730 bb3c 73dd 24bd c43a 513d 9f3b a83d
000000d0: 642b ae3c f94a 9cbd 39e5 09bd 69ba ce3c
000000e0: 15f5 813d 3e33 b5bd 3528 9e3c 57d4 a8bc
000000f0: 151c 8f3d bef4 983d 0960 f6bb 2553 83bd

weight f4 [12, 64]
0.0577891 -0.016072934 0.086726554 -0.014610898 0.013642742 -0.08375782 0.11141144 0.012894141
-0.11627719 0.10743145 0.060301557 -0.11329978 0.032735463 0.04392438 0.028473107 -0.03884615
0.110059254 -0.096748546 0.08961372 -0.039833654 -0.08955413 0.027179727 -0.03282658 0.017773597
0.067747734 0.062635414 0.018578272 0.07399101 0.0047601224 -0.06675575 -0.011203829 0.064856194
0.081076 -0.02074681 0.03600609 0.10865941 0.03823594 -0.023380026 0.10528401 0.068909734
-0.1071565 -0.07080516 -0.10794385 -0.01946099 0.05555239 0.11322196 0.040722977 -0.054121792
-0.04653431 -0.05976487 0.008022252 -0.08494313 0.12714526 0.039212923 -0.03771309 -0.10901802
-0.012227886 0.008936852 0.0749387 0.025147086 -0.0018673238 -0.08983923 -0.018576095 -0.072263256
0.02664878 -0.11698366 -0.08520933 0.04673792 -0.08191678 -0.08596551 0.031201081 0.10433275
0.067167796 -0.09992996 0.022213934 -0.035011165 0.11001074 -0.019183682 -0.05015575 -0.1210951
-0.023984743 -0.122253284 0.06289567 0.023348916 0.11528446 0.024581801 -0.0086508375 -0.054527592
-0.10569845 -0.11057725 -0.098979704 0.04270851 -0.055491082 0.11171827 0.06279124 0.067652255
-0.052757405 -0.1186104 0.043340247 -0.027173603 -0.11127273 0.11265013 -0.09964509 -0.079127856
-0.02873727 -0.035681978 -0.01930427 0.08944322 0.03576493 0.00084100873 -0.09894151 -0.029061517
-0.06420115 0.104268655 -0.11708358 -0.04700407 0.085176244 -0.03401153 -0.032771684 -0.027624661
0.0124541065 0.017152553 -0.05830203 0.07172315 0.0038006697 -0.11080333 -0.007555566 -0.10007931
0.11468577 0.120970346 0.068206936 -0.072960645 0.024928201 -0.044717457 0.061287895 -0.116571456
0.06652896 -0.09151407 0.11415207 0.10732383 -0.07055036 0.097608306 -0.0035318376 -0.03924796
-0.025421826 -0.09678502 0.068511724 -0.013919199 0.09181591 -0.07947396 0.06313814 -0.03009795
0.013104597 0.10116562 0.086761095 -0.10629996 -0.06394011 0.0187665 -0.005821659 0.0039427043
0.11225019 -0.086235635 -0.019217242 -0.12235948 0.0150465155 -0.00065753557 0.0023399994 -0.019811124
0.10120774 0.071992904 -0.090762235 0.07996388 0.08415529 0.005955048 0.053286243 0.03265507
-0.11463098 -0.041122537 -0.12874013 -0.10909393 -0.07903756 -0.026800523 -0.0881916 -0.07262682
-0.088657096 -0.06747441 0.049982738 -0.0061464645 0.056829944 0.04027418 0.043052457 0.1080332
-0.080147944 -0.05275974 0.07812149 -0.08527185 0.04265086 0.01521378 -0.009595761 0.044874072
0.016631594 0.0476782 0.041906804 -0.04741773 0.054775804 -0.11755542 0.079008706 -0.0026087991
0.005342427 -0.030225357 0.07225131 0.08664838 -0.06763915 -0.023558918 -0.117405094 0.05293353
-0.060587782 -0.045813225 0.015420372 -0.032043356 0.028523723 0.094809145 -0.003311924 0.051507566
-0.10467836 0.022111105 0.09459895 -0.12045766 -0.020135283 0.0065644924 0.0057678535 0.060633607
-0.100635275 0.015965132 -0.051514626 0.07548851 -0.081644595 0.04954202 -0.031741247 0.060380895
0.08797864 0.09430191 -0.11931836 -0.008946336 -0.10235983 -0.074930474 0.09728449 -0.08621906
-0.051462125 0.09328792 0.10238992 0.063513376 -0.090236366 0.04574259 0.01746056 0.02257856
00000000: 43b4 6c3d 63ab 83bc b19d b13d 8c62 6fbc
00000010: cf85 5f3c 3889 abbd ae2b e43d f241 533c
00000020: bc22 eebd 0505 dc3d c4fe 763d b709 e8bd
00000030: 9f15 063d 0dea 333d 6f40 e93c 241d 1fbd
00000040: bf66 e13d 1a24 c6bd 6687 b73d 9d28 23bd
00000050: 2868 b7bd 05a8 de3c 2a75 06bd ef99 913c
00000060: 53bf 8a3d ff46 803d 7631 983c 9988 973d
00000070: cdfa 9b3b 3db7 88bd 4490 37bc 53d3 843d
00000080: 2d0b a63d 37f5 a9bc 1f7b 133d d388 de3d
00000090: 4a9d 1c3d 7887 bfbc 259f d73d 8c20 8d3d
000000a0: de74 dbbd 4c02 91bd aa11 ddbd a76c 9fbc
000000b0: e78a 633d eae0 e73d 23cd 263d d0ae 5dbd
000000c0: c39a 3ebd 02cc 74bd c36f 033c aaf6 adbd
000000d0: 5e32 023e bb9d 203d 0b79 1abd d744 dfbd
000000e0: 7957 48bc e06b 123c 7679 993d 4301 ce3c
000000f0: fdc0 f4ba a1fd b7bd e52c 98bc c2fe 93bd
00000100: 8b4e da3c 2195 efbd 3b82 aebd 4370 3f3d
00000110: fcc3 a7bd af0e b0bd 6999 ff3c 69ac d53d
00000120: 458f 893d 14a8 ccbd fff9 b53c de67 0fbd
00000130: 504d e13d 1927 9dbc 1e70 4dbd b500 f8bd
00000140: a77b c4bc ee5f fabd 72cf 803d 3a46 bf3c
00000150: 421a ec3d c65f c93c 3ebc 0dbc 5358 5fbd
00000160: 6e78 d8bd 5376 e2bd dfb5 cabd 1eef 2e3d
00000170: 9e4a 63bd 8ccc e43d b298 803d 448d 8a3d
00000180: 2618 58bd 02ea f2bd 8b85 313d 2d9b debc
00000190: f5e2 e3bd 1db5 e63d ba12 ccbd c90d a2bd
000001a0: 6c6a ebbc 4427 12bd fd23 9ebc 022e b73d
000001b0: 3f7e 123d 2477 5c3a d9a1 cabd 6b12 eebc
000001c0: e47b 83bd ce8a d53d 84c9 efbd 5787 40bd
000001d0: e270 ae3d ad4f 0bbd 9a3b 06bd 1d4d e2bc
000001e0: 4f0c 4c3c 8383 8c3c 1cce 6ebd 96e3 923d
000001f0: a814 793b dbec e2bd ae94 f7bb 62f6 ccbd
00000200: 5fe0 ea3d 4dbf f73d 14b0 8b3d 646c 95bd
00000210: 3a36 cc3c a729 37bd 0409 7b3d 04bd eebd
00000220: 5640 883d bb6b bbbd 8fc8 e93d 99cc db3d
00000230: b57c 90bd dde6 c73d 6776 67bb 78c2 20bd
00000240: 6f41 d0bc 3937 c6bd e04f 8c3d 5a0d 64bc
00000250: fb09 bc3d 3ec3 a2bd 924e 813d fa8f f6bc
00000260: aab4 563c ec2f cf3d cdaf b13d cbb3 d9bd
00000270: 08f3 82bd 34bc 993c 9ec3 bebb cd31 813b
00000280: 6de3 e53d 4f9c b0bd 7a6d 9dbc 9b97 fabd
00000290: a985 763c 775e 2cba ad5a 193b f04a a2bc
000002a0: 0146 cf3d 0471 933d 8de1 b9bd 1ac4 a33d
000002b0: 9c59 ac3d 9022 c33b ad42 5a3d 53c1 053d
000002c0: a6c3 eabd 1b70 28bd 74d4 03be a36c dfbd
000002d0: 72de a1bd c58c dbbc cc9d b4bd 5fbd 94bd
000002e0: da91 b5bd 0630 8abd b3ba 4c3d 4868 c9bb
000002f0: 84c6 683d 8af6 243d c657 303d 8340 dd3d
00000300: 9b24 a4bd 991a 58bd 29fe 9f3d 02a3 aebd
00000310: abb2 2e3d 3843 793c 8a37 1dbc e0cd 373d
00000320: fb3e 883c 374a 433d 78a6 2b3d 1839 42bd
00000330: 985c 603d e5c0 f0bd 51cf a13d 63f8 2abb
00000340: 870f af3b 2b9b f7bc 7ff8 933d b574 b13d
00000350: 6586 8abd a2fe c0bc 1572 f0bd d4d0 583d
00000360: e52a 78bd a6a6 3bbd baa5 7c3c e53f 03bd
00000370: 95aa e93c 4c2b c23d dd0c 59bb 99f9 523d
00000380: 9c61 d6bd 5922 b53c 18bd c13d 81b2 f6bd
00000390: c0f2 a4bc f41a d73b 4300 bd3b f25a 783d
000003a0: de19 cebd 4fc9 823c 0001 53bd b899 9a3d
000003b0: 4835 a7bd 93ec 4a3d 1c03 02bd f551 773d
000003c0: 252e b43d 5c21 c13d 2f5d f4bd a793 12bc
000003d0: 08a2 d1bd 2675 99bd 173d c73d 9e93 b0bd
000003e0: f3c9 52bd bd0d bf3d ceb1 d13d 4d13 823d
000003f0: d8cd b8bd 955c 3b3d 7309 8f3c acf6 b83c

bias f4 [12]
-0.038918015 -0.12302311 -0.043069802 0.10151451 0.041191302 0.052026857 0.038853742 -0.016131684
-0.026701575 0.06518852 0.10247723 0.077044696
00000000: 7f68 1fbd 8af3 fbbd f669 30bd d7e6 cf3d
00000010: 36b8 283d 1d1a 553d 1a25 1f3d 9826 84bc
00000020: 43bd dabc 8f81 853d 95df d13d 9cc9 9d3d
