logs/a1_amp_example/exported/policies/policy_1.pt (torch, 253704 bytes, 8 tensors)

weight f4 [256, 72]
00000000: 8fe3 bcbb 141d 183e e795 b6bd 8350 2fbe
00000010: 5e31 98bd ece5 21be bb2c 44ba 151e e03d
00000020: e157 4abd 799f 9fbd 4153 cbbd 588c e5bd
00000030: 8466 a73c 4f29 103d 2c8e 9fbd 5a7a aa3d
00000040: e12f 4cbd 5e84 8bbd 05f0 443d fe7e 293e
00000050: 7273 583d 662e 04be d7a0 803e 513d 043e
00000060: 15ce cdbb d3f1 cabd f92d d5bd 697b 9d3a
00000070: 5700 c2bd e86f b23d 8cbb 01bd e709 433e
00000080: 0cec 263e 6dcd 2abe 9fae eb3d 7ffc 713d
00000090: 5060 d33d 51d5 d1bb 0dc6 d2bd 14c5 0dbd
000000a0: 8257 8cbd 4430 473d 2ae0 ea3d da10 673d
000000b0: 7cf0 243c e23c a13d e3af 1a3e d8dc d4bd
000000c0: 7830 9a3d 8663 a0bd 67d6 8cbd 60aa 023c
000000d0: 9411 50bd af9e 8d3d 098e dbbc 75fa 813d
000000e0: 749d 3d3d 68be 323d afe4 f0bc e4cb b23d
000000f0: 7793 c93c 7ca3 783d ce26 c4bd 7658 a33d
00000100: 0978 8fbd 6423 af3d 8aaa ffbd 4c65 483d
00000110: 5921 adbd 10cf a9bd a8a7 aabc 00b4 2fbd
00000120: 232a c4bc 0b19 b03d 062e 333d 7628 ecbd
00000130: 702f 01bd ad44 2d3d 58de 263d 669a 823d
00000140: f4ac 2dbd b5aa cfbd 2514 0c3d c84b 1bbd
00000150: 2bb0 17be e6c9 38bd cb2a 7cbd 28d0 6abd
00000160: 63ae 96bc d937 8ebd b6ea 333e eed5 833e
00000170: 19a9 543e 8648 4e3e 9cb2 45be 9810 26be
00000180: 978c 163e 99d0 55bd 6d23 d93d 1d98 5e3d
00000190: c944 71bd 4936 bebd 25ec 903c dfe3 7a3b
000001a0: aad0 68bb 711d f7bd b684 3dbe d10b d8bc
000001b0: c4b9 cb3d 3f11 913d 2446 bebd d062 8abd
000001c0: 836b f33d 61e9 efbb db6f e93c cd72 97bd
000001d0: 760d d63d 3168 703d 4147 07be 2534 98bc
000001e0: dfb6 1bbb 7ddf 6f3c b1cc 8b3d c0fb dcbd
000001f0: 5f8d e5bc 65f2 703b c876 b1bd 3985 d73d
00000200: 92a8 7bbd 934c 2ebc 0ca4 2cbd 42aa 003d
00000210: b712 f53d e2a5 263d 89a8 02be 9e86 0e3e
00000220: 88bb ce3b 6f22 a5bd 99a1 a13d a6ca 96bb
00000230: 6727 e4bd a690 42bd 6d44 013e 55ff 4ebc
00000240: 9c0a 69bd a65b 873e a3f2 07bd 2301 bbbe
00000250: 441b 073e f300 a43d 74e4 e33d dcee d63d
00000260: 6ef5 63bd 31ad d83d 2895 57be 377e 1fbe
00000270: d669 433c 9bd7 a53d e9b8 8abd da37 57bd
00000280: 6ee1 ccbc 2382 083e 2042 fdbd b228 383d
00000290: 3b8d 02bd 0ae7 053e 40e4 d13d e9b1 4b3e
000002a0: 40cf 373e 9013 24bd 11e3 ffbd f934 d7bd
000002b0: 4b9f 4b3d fa5f ba3d f3f9 6fbe 5e5a 473c
000002c0: 75a7 203d d35e 91bd c273 ee3b 96f4 973d
000002d0: 3ba6 a23d 0afe 62bd 7240 10bd bab6 28be
000002e0: 4b41 f1bb 8cd1 0abd b889 aabd 59e1 19bd
000002f0: db86 a03d f64e 673c 60ed d03d 1d59 00bc
00000300: b881 0bbd 41df ccbc 622a 9abd 9401 a9bd
00000310: 840a f6bc 05c4 71bc ff14 883b 9ed5 b7bd
00000320: 781e 04bd 4f37 8abd 4a77 f5bd f6e7 613c
00000330: a520 41bd 766f e7bc 0120 273d 7c94 54bd
00000340: c215 9b3d f2cc 68bc 1024 c6bd 9061 b53d
00000350: cb61 7b3d 2852 c0bd 1b74 fb3c e96a 553c
00000360: d7c2 12be 0654 f2bd cd68 c5bd 91ec 6bbc
00000370: 4192 0d3d da09 623d a3f1 96be 88b5 8b3d
00000380: be06 0fbe f7f9 743d c430 0d3d 7599 8d3c
00000390: 6dd8 9f3c 3666 053b 2856 7ebc a0af adbd
000003a0: fd34 57bc 14c9 e2bd 2a3f 8abe fe11 f93c
000003b0: e509 d73d f551 d43c 0ae4 e13c fee6 3a3d
000003c0: 2f5d 1f3e 69f9 8f3c bad6 50bc 0c37 9d3d
000003d0: c7f5 143e d84d d6bd 9eab f1bd 9856 3f3e
000003e0: a261 03bd 9d40 723e b638 3d3e 73cf 1a3e
000003f0: 91bf 96bd 66a0 433d b161 8fbb 508c 49bd
-0.005764432 0.14854842 -0.0891531 -0.17120557 -0.07431291 -0.15810364 -0.0007483472 0.10943238
-0.049400214 -0.07794089 -0.09927989 -0.11208409 0.020434625 0.035195645 -0.07790789 0.08324118
-0.04985035 -0.068123564 0.048080463 0.1655235 0.052844472 -0.12908325 0.2512271 0.12914015
-0.0062806704 -0.099094056 -0.10409159 0.0012014929 -0.09472721 0.08712751 -0.031673 0.19046746
0.16300982 -0.16679926 0.11507916 0.05907869 0.103211045 -0.006403603 -0.102916814 -0.034611776
-0.06852628 0.048630014 0.11468537 0.056412555 0.010067102 0.078729406 0.15106158 -0.10393685
0.07528776 -0.078314826 -0.068768315 0.007975191 -0.050798014 0.06915032 -0.026801126 0.06346599
0.046292737 0.043638617 -0.02940592 0.08730295 0.02460645 0.060702786 -0.09577714 0.07975857
-0.07005317 0.08551672 -0.124836996 0.04892473 -0.08453626 -0.08291447 -0.020831898 -0.04289627
-0.023945874 0.085985266 0.043745063 -0.11531155 -0.03153938 0.042301822 0.040739387 0.063771054
-0.04240127 -0.10139982 0.0341989 -0.037914068 -0.14813296 -0.04511442 -0.061564248 -0.05732742
-0.018393701 -0.06944246 0.17570004 0.25749153 0.2076763 0.20144853 -0.19306415 -0.16217268
0.14702068 -0.052200887 0.1060246 0.054344285 -0.05890349 -0.09287698 0.017690727 0.0038282794
-0.0035524764 -0.120661624 -0.18507656 -0.026372822 0.09947541 0.070833676 -0.09290722 -0.06757128
0.118857406 -0.007321522 0.02849572 -0.073949434 0.10451786 0.058693115 -0.13210775 -0.018579552
-0.0023760123 0.014640686 0.06826151 -0.10790205 -0.028021513 0.0036765572 -0.08665234 0.10523457
-0.061440058 -0.010638374 -0.042148635 0.03141237 0.1196646 0.040685542 -0.12759604 0.1391854
0.0063089766 -0.08063208 0.078921504 -0.0046017943 -0.11140328 -0.04750123 0.12623759 -0.012634118
-0.056894884 0.2643711 -0.03319038 -0.36524305 0.13193995 0.080079935 0.11127558 0.104947776
-0.055653982 0.10579909 -0.21052992 -0.15575491 0.011927089 0.08097764 -0.0677355 -0.0525435
-0.025009837 0.13330893 -0.12366128 0.044960685 -0.03187297 0.13076416 0.10248613 0.19892086
0.17950153 -0.04005772 -0.12494481 -0.105081506 0.04971246 0.09100337 -0.23435192 0.012167541
0.0392222 -0.070981644 0.007276983 0.07419698 0.07941862 -0.05541805 -0.03521771 -0.16475955
-0.00736252 -0.033891246 -0.08327049 -0.037568424 0.07838222 0.014117947 0.10201526 -0.007833746
-0.034059256 -0.0250088 -0.07527615 -0.08252254 -0.030034311 -0.014756207 0.0041528936 -0.08976291
-0.03225562 -0.067488305 -0.11985643 0.013788214 -0.047150273 -0.02825139 0.040802006 -0.05189942
0.07572509 -0.014209019 -0.09674847 0.08856499 0.06137256 -0.0939067 0.030695012 0.013025978
-0.14332138 -0.118324324 -0.0963913 -0.014399664 0.034563307 0.055185176 -0.2948123 0.06821734
-0.13967416 0.059808698 0.034470335 0.017285088 0.01951238 0.0020355112 -0.015523471 -0.084807634
-0.013135192 -0.11073509 -0.27001315 0.030404087 0.10499934 0.025917986 0.027574558 0.045630448
0.1556289 0.017574983 -0.012746507 0.07676515 0.14546882 -0.10464066 -0.118003115 0.18685377
-0.03207553 0.2365746 0.18478665 0.15118198 -0.07360757 0.04776039 -0.0043756594 -0.049206078

bias f4 [256]
00000000: b523 923d 9f27 e4bd 5350 54bd c811 a1bc
00000010: 4711 4fbd 0927 aa3d 5675 08bd d741 20bd
00000020: f3f7 a0bd 0c87 223c d6d2 3cbc c284 023e
00000030: 7db8 99bd ff96 793d a504 943d c00c 033d
00000040: 1d4b 97bc 5b5f 0a3d e1a9 0d3d cf75 1e3d
00000050: 99cf 9bbd 8503 b9bc 5e38 933d 3086 7d3d
00000060: 3490 293d a6c2 933d e888 fabd ef98 cabd
00000070: ddd4 68bd 9ec2 96bd 083a 2bbd a160 91bd
00000080: 31c5 a13d 471c 053d 8175 2fbd 54ca 693c
00000090: 3eee 2abd bd7a 0bbb 71c9 a1bd a78b 423d
000000a0: 26dc 533b 8ed5 06be a732 7bbc 2329 19bd
000000b0: 1cb3 ffbb 8216 d43c c062 c1bd 35aa a33c
000000c0: efb8 8a3d 056d dabd faf9 e6bd d2ed b63c
000000d0: 5873 a33d d55f ffbc f036 a23d 2898 cb3d
000000e0: 5590 e83c c11d 97bc c564 a73d 0ba1 39bc
000000f0: a4c7 bf3d 5497 cdbd bdd7 aa3d 8151 c03c
00000100: 7f6e 313d 3c5c 6fbd 5844 54bd 07c8 6c3d
00000110: 9542 ea3d 3ef8 f5bd 1ddb a83d 0f04 923d
00000120: 510f a0bd 4a81 e53c 721a db3d 36d6 c33d
00000130: 14d5 36bb b26e d23d b60f c73d b931 853a
00000140: bdca 92bd f16c 2f3d b4c6 683d 0cbc 92bd
00000150: 2c19 82bd a7a2 7a3d 5f36 ff3d cb39 10bd
00000160: 237a 8d3c 862e a83d 812b fb3d ce7e 203c
00000170: 5978 02bd d011 97bc 30f5 8b3c f746 02bd
00000180: 85df d6bc b8fd 9dbc 8279 a13c 406e 9bbd
00000190: 1a4f c9bc 97d3 babd 7355 b23d c352 71bd
000001a0: e3ea d83d 8f39 b3bd 724c 713c fb41 553d
000001b0: baa7 9b3d 0285 c73d 7743 b6bd fb14 103d
000001c0: e161 60bd 65f4 09bc eed8 903d 3474 15be
000001d0: f71d c53d 39cf 99bc 88b7 9a3d d3dc b1bd
000001e0: d9b4 073e 241f 2f3d 9686 7e3d 32a6 39bd
000001f0: 9df5 a3bc eb11 0abc f474 013d 835b 2e3a
00000200: ace0 7b3d 37db ad3d 18aa 153d 421c ec3c
00000210: 8b45 05be 2723 173d 82e5 a83c 1b44 753d
00000220: 2eb7 8d3d 7dac 9a3a 45ab 19bd 2267 bbbd
00000230: 53eb c03d f4ca 283d 1e69 c83d 0263 28bc
00000240: 34f5 223d 877e 803d e28c a8bd 38e3 5ebd
00000250: 3753 50bd a353 a23c c649 8d3d 9822 99bd
00000260: ba9f bc3d 69b1 8dbd e404 d5bd 8524 763d
00000270: a4ba aabc 2ff7 643a c711 b13d ced5 f23c
00000280: 6c81 10ba 8c11 51bd 8dee ce3d 926a a3bd
00000290: 309c d63c f63e 2b3d 1941 553c 9da5 843d
000002a0: cdba 8fbd 9d1a f7bc 78e9 503c 2673 813d
000002b0: a61d 6a3b 812a 873d 41c7 cc3c 91f3 d93d
000002c0: 5c3b 223d cf19 22bd 7608 b33d 8f3c bfbd
000002d0: c6c4 3abd 52e1 d03d 8bfe 80bc ea94 bc3d
000002e0: d3a6 193d a8ec 8b3d 5921 e1bb 87fe b6bc
000002f0: 7dc8 08be dc1e 28bd db96 d2bd ead1 00be
00000300: d506 00bd d5a3 d6bd a2c4 f1bd d508 583c
00000310: ffa8 7bbd 3711 353d fabd cfbd 70be b73d
00000320: 7f8b 8fbd 282e 913d 8dad b83b be6c a5bd
00000330: 5e72 b93d efe5 5fbd 199b 63bc eb27 64bd
00000340: f2ab c5bd 5cd9 b43d 5873 2c3d 65a4 a63a
00000350: 9ff7 103c c7f6 fabd 2963 bcbd 8c13 00bd
00000360: abcb a93d 4411 bbbd 26fb 02be de2e 083d
00000370: 3784 80bd 6c2c 4b3d 9129 a9bc 7e4d a0bc
00000380: 81e3 8f3d d4f6 95bb b94a b1bd 6bc7 863d
00000390: dc37 633d c475 bdbd 6c35 0a3c 6379 b7bc
000003a0: ccc1 91bd cfbb ab3c 4f9e 963d caf0 be3b
000003b0: 62c1 0e3c f5b0 b7bc 1363 133d 5bb8 13bc
000003c0: a05f a1bc 2f0f 0d3d 7c0b ba3d be34 143d
000003d0: e98f a93d 0a87 bb3d 6ecb de3d 1af7 8b3d
000003e0: 7337 e4bd 4276 f33d 7393 ba3c 5213 9a3d
000003f0: a25d 8bbd 44ef e93c 269d d83d d2ff 8a3d
0.07135717 -0.111403696 -0.051834416 -0.0196618 -0.050553586 0.083082266 -0.033315025 -0.03912529
-0.078597926 0.009919893 -0.011524877 0.12745956 -0.075058915 0.060935017 0.072274484 0.03199458
-0.018468434 0.033782344 0.034585837 0.03868657 -0.076079555 -0.022584686 0.071884856 0.06189555
0.04139729 0.072148606 -0.12233144 -0.09892451 -0.056843627 -0.07361339 -0.04180339 -0.070985086
0.078989394 0.03249767 -0.04283667 0.01426943 -0.04173111 -0.0021282875 -0.0789975 0.047496464
0.0032327264 -0.13167402 -0.015331901 -0.037392747 -0.007803334 0.025889639 -0.09442663 0.019978622
0.067735545 -0.10665325 -0.11278148 0.022330198 0.079809844 -0.031173626 0.07920635 0.09941131
0.028389135 -0.018446805 0.08173517 -0.0113299 0.0936425 -0.10038629 0.0834193 0.023476364
0.043318268 -0.05843757 -0.05182299 0.05780795 0.11438481 -0.12010239 0.082449175 0.0712968
-0.078154214 0.028015751 0.106984034 0.09562342 -0.0027898 0.1027502 0.097197935 0.0010161913
-0.071675755 0.042828504 0.056830123 -0.07164773 -0.063524574 0.061190274 0.12461542 -0.035211366
0.017270153 0.08211999 0.12264157 0.009795858 -0.031853054 -0.01844111 0.017084688 -0.03180596
-0.02622963 -0.019286022 0.01971126 -0.07589388 -0.024573851 -0.09122389 0.087077044 -0.05891682
0.10591676 -0.08751213 0.014727699 0.052064877 0.07600351 0.09742166 -0.08899587 0.03517626
-0.054780845 -0.008420085 0.07072626 -0.14595109 0.09624856 -0.01877557 0.07554537 -0.08684697
0.13252582 0.042754307 0.06214007 -0.04532451 -0.020014578 -0.008427124 0.031605676 0.00066512096
0.06149356 0.084890775 0.036539167 0.028822068 -0.1301481 0.03689876 0.02061725 0.059879404
0.069197044 0.0011800673 -0.03751685 -0.091505304 0.094198845 0.041209176 0.097856745 -0.010277512
0.039784625 0.06274133 -0.08229996 -0.05441591 -0.05086061 0.019815272 0.06898837 -0.07477301
0.09210153 -0.06918604 -0.104013234 0.06009342 -0.02084095 0.0008734343 0.08645969 0.029642966
-0.00055124494 -0.051042125 0.10104094 -0.07979311 0.026197523 0.04180809 0.013016009 0.06476901
-0.07018051 -0.030164057 0.012750976 0.06320791 0.0035723238 0.06599904 0.024997355 0.1064216
0.03960739 -0.039575394 0.08741848 -0.093377225 -0.045597814 0.101992264 -0.015746376 0.092080906
0.03751261 0.06832248 -0.0068704304 -0.022338165 -0.1335773 -0.041045055 -0.1028268 -0.12580076
-0.031256516 -0.10480467 -0.11805083 0.0131856995 -0.061440464 0.04420587 -0.10143657 0.0897187
-0.07009029 0.07088882 0.0056359232 -0.080773816 0.09055017 -0.05466264 -0.013891959 -0.05570213
-0.096519366 0.088305205 0.042102188 0.0012713788 0.0088481 -0.122541 -0.09198601 -0.03126864
0.082908 -0.091341525 -0.12791118 0.03324782 -0.06275218 0.04960291 -0.020649703 -0.019568201
0.07025815 -0.0045765433 -0.0865683 0.06581005 0.055473194 -0.09250978 0.008435588 -0.022396749
-0.07117042 0.020963578 0.07354414 0.005827044 0.008713098 -0.022423247 0.035983156 -0.009016122
-0.019698918 0.03443831 0.09084222 0.03618311 0.08279402 0.09156616 0.10878645 0.0683424
-0.111433886 0.1188779 0.022775387 0.07523216 -0.068049684 0.028556474 0.10576849 0.06787075

weight f4 [128, 256]
00000000: 4661 8cbc b1d0 aebd c5e4 ca3c 849f 1cbd
00000010: fbe2 54bd 260a 66bd aa71 58bc d015 bb3d
00000020: 1670 d03c 39c1 6ebd 5ef9 42bc 6a2f 263d
00000030: d1b1 80bd defc ec3d d56e 593c 31fa 04bd
00000040: a1ff 163a d8d4 0ebe 717d 813d 315d 783d
00000050: 73be 8d3d f68f 703b 8470 96bd efd7 a4bc
00000060: 8e11 123d f81c 23bd 4c8b 013e 88ea 03bd
00000070: c96a b5bc 59fb 613d d33e b2bb 1d05 923d
00000080: 8055 a6bd a9dd b5bd 4199 753c ed77 db3c
00000090: 6a65 1d3d eb71 b43d 33a5 c3bc 437d 17be
000000a0: 73f7 ad3c cbf3 b13d 6e11 9dbc ec8a 4dbd
000000b0: e716 d33c db46 063d 946e 11bd 7b82 8cbd
000000c0: 69bf bcbc b42c 5fbd 5564 12bc 5151 df3d
000000d0: 54e9 b5bb 7b1b 633d a688 683d 2401 d5bc
000000e0: 1f11 c83d 133e 8e3d 6adb 35bd f6d5 97bc
000000f0: 82fb 2abc ae59 873d 4514 dd3d 7b7c 583d
00000100: 769a 173e b96d fcbc 8ee1 5fbb 487f 063d
00000110: 7ca3 ec3d 7c91 273d d923 683c e21f 88bd
00000120: e5a1 dcbc be2d 94bd 51e4 d33c 998c 18bd
00000130: 838b fa3c 2472 bc3c 17e3 c63d a285 4dbc
00000140: c264 58bb c419 11bd 455b d73d 3fc2 33bd
00000150: c638 e33d 4f0a c53c e8e2 d8bc 32dc 3e3c
00000160: 08cd 683d 9216 463d 6174 93bd b7cc 9f3d
00000170: 6b00 00bd 073d 973c 6dd9 d23d 8884 953d
00000180: a082 873d ab3e c33d d3fe 9b3d 37ed 273d
00000190: 5ce8 c4bc aaab 013d 16ab 963d a540 adbc
000001a0: 872e dabc 3aeb 0dbc dd2d ba3d 8c77 29bd
000001b0: fa89 48bd b080 c43d 791e 993d d656 a0bd
000001c0: c8fe 11bd c590 2f3c 7583 d43d fc5e ca3d
000001d0: 4403 933d 216b dfbc c855 85bd c3d2 dfbc
000001e0: bbaf 73bc 4a3e 46bc a1b1 8fbc 8f6c fb3d
000001f0: 77f6 4abd e418 e5bc edbb 21bd 1165 acbc
00000200: a115 4bbd 8af2 76bc be12 893d 6432 2b3d
00000210: ff04 a33c b7fc c23c 8057 823d a160 c13c
00000220: 5ef8 2b3d 3051 07bd 7605 3a3d 9633 bc3d
00000230: b757 4c3d 99bc 56bd 43f2 b53d 61f6 db3d
00000240: a499 953c c18d 423d 35e5 173a c5c7 9a3c
00000250: c85c 99bd 7316 5e3d 5c48 d73d bdf9 873d
00000260: f779 163d 5ae2 0abc fdf7 a63c 30c3 2f3d
00000270: f09f a53c 0c5e 313d d42a b1bd 48e9 93bc
00000280: 0842 c13d c49c efbc bcea 4e3d bac7 183d
00000290: 4a37 31bd 08de 423d 8546 11bc b510 833d
000002a0: 044d 6fbc 2f6e f9bc 448f c6bd 3075 fc3c
000002b0: 6205 853c a80e dd3c b8e8 e73c 2477 dcbd
000002c0: f449 70bc 764a 6c3c ca70 603b 031d 39bd
000002d0: 3a46 503d 14e3 723c 908f 423c 61ee 9f3d
000002e0: fd9b 413c 0bea 31bd 9eb2 083e 70cd b93c
000002f0: 27ba 003d 2965 08bb a216 cfbc 37d4 5ebd
00000300: ab26 55bc c9d6 b4bc 6f7d ff3c 85db 763d
00000310: 4142 3e3c 9cfa c53b a21f fb3b 3f5f 933b
00000320: 4ad3 80bd e5f8 b13b b801 203b 833e 1a3d
00000330: 4b4a b63c dd0d 43bd 566e 7ebd 3829 883d
00000340: fd86 523d c091 e5bc a996 d13c 3419 12bd
00000350: 2113 31bd 2465 773d 723e 07ba e0cf ccbd
00000360: ab3b 573d bd2f 8e3d ba2a ec3c 23c9 983d
00000370: 4351 f0bc 2c9f 0dbe 895c 35bd f536 523d
00000380: c159 673d 631a 733d c171 65bd 5216 b3bd
00000390: 92d1 e83a 7881 cb3c ac42 3e3d 8635 093c
000003a0: e0c7 813d 0cdc 5c3d ec35 913c 5cfc 4dbc
000003b0: 9128 833d e450 a43c 73b8 033e 8f77 02bd
000003c0: db61 7fbb f22a 013e f13c 593d c4b1 e7bd
000003d0: 94c7 b8bb d92e d93c 9a0e 8a3d fad7 1bbd
000003e0: 3d27 bcbd 1fe1 3a3d da3f 1cbd d6e2 5b3a
000003f0: ebfe 7039 d74d 1e3e ea5b b53c a36b abbc
-0.017136227 -0.085358985 0.024767289 -0.038238063 -0.051974278 -0.056162022 -0.013210693 0.0913502
0.025444072 -0.05828974 -0.011900274 0.04057256 -0.06283916 0.11571668 0.013271053 -0.032465164
0.00057601376 -0.13948381 0.06322754 0.06063575 0.06921091 0.00367069 -0.073456794 -0.020122496
0.035661273 -0.03982255 0.12650794 -0.03220609 -0.022145646 0.055171344 -0.005439618 0.071298815
-0.081217766 -0.08880169 0.014990152 0.026790584 0.038426794 0.08810791 -0.023882484 -0.14793877
0.021236157 0.08689078 -0.01917335 -0.050181314 0.025767757 0.032782417 -0.035505846 -0.06860825
-0.02304049 -0.05448599 -0.008935054 0.10904182 -0.0055514965 0.05544613 0.056770943 -0.02600152
0.097688906 0.069454335 -0.044398703 -0.018534642 -0.010435941 0.06608902 0.10794882 0.05285309
0.14805016 -0.030814039 -0.003416154 0.03283623 0.1155462 0.04091023 0.014168703 -0.06646706
-0.026932666 -0.07235287 0.025865706 -0.03724346 0.030584102 0.023003645 0.09711283 -0.012544068
-0.003301904 -0.035424963 0.10515455 -0.04388642 0.11094813 0.024052767 -0.026475385 0.011649178
0.056836158 0.04836137 -0.07199932 0.07802718 -0.0312504 0.018461717 0.10295377 0.07300669
0.066167116 0.09533437 0.07616963 0.04099771 -0.024036579 0.031657852 0.07356851 -0.021148989
-0.026633514 -0.008662039 0.09090779 -0.041373774 -0.04895971 0.09594858 0.07476515 -0.07829063
-0.03564337 0.010715668 0.10376636 0.09881398 0.07178357 -0.027272763 -0.06510502 -0.027322179
-0.01487344 -0.012099812 -0.017540755 0.12276565 -0.049551453 -0.02796597 -0.03948586 -0.021044286
-0.049581174 -0.015072474 0.06693028 0.041796103 0.019899843 0.023802144 0.063643456 0.023605647
0.04198491 -0.03303641 0.045415364 0.09189527 0.04988834 -0.052425954 0.088840984 0.107403524
0.018261738 0.04749847 0.00057943474 0.018894086 -0.074884 0.054220628 0.10511848 0.06639431
0.03673741 -0.008476818 0.020381922 0.042910755 0.020217866 0.04330258 -0.08650747 -0.018055573
0.094364226 -0.029249556 0.05051683 0.03729985 -0.04326562 0.047575027 -0.008866911 0.06399671
-0.014605764 -0.030448047 -0.096952945 0.030817598 0.016237918 0.026984528 0.028309211 -0.10764912
-0.014666069 0.01442205 0.0034246915 -0.045193683 0.050848223 0.014824647 0.011875048 0.07809139
0.011816976 -0.04343609 0.13349387 0.022680968 0.03142753 -0.002081225 -0.025279347 -0.054401603
-0.013009707 -0.022075074 0.031187741 0.060267944 0.011612476 0.006041838 0.007663683 0.004497438
-0.062903 0.005431282 0.0024415087 0.037657272 0.022252223 -0.047620643 -0.062116943 0.06648487
0.051398266 -0.0280236 0.025584536 -0.035668567 -0.043231133 0.06039919 -0.00051591464 -0.100005865
0.05254714 0.06942699 0.028828967 0.07460239 -0.029335624 -0.1383025 -0.0442777 0.051321942
0.05648208 0.059351336 -0.056016687 -0.08744492 0.0017762652 0.024842009 0.046450302 0.008374577
0.06336951 0.05392079 0.017725907 -0.012572374 0.06404222 0.020058103 0.1286333 -0.0318523
-0.0038968239 0.12614039 0.053036634 -0.11313203 -0.005639026 0.026511597 0.06741066 -0.03804777
-0.091871716 0.04562485 -0.03814683 0.0008387988 0.00022983148 0.15459381 0.022138555 -0.020925349

bias f4 [128]
00000000: 512d 883d 2d83 943c 5657 ebbc cf12 c5bc
00000010: ae87 423a 8808 41bd 915a 5abd 38ed e73b
00000020: 50d5 343d 59c8 58bd 8f78 a8bc 1aa4 1f3d
00000030: 1c58 213d b232 a63c fa23 1ebd cf80 52ba
00000040: 08ac 7ebd 3868 463d d348 57bc d8ad 0f3c
00000050: 4f20 403d 008c dd3b d703 23bd 5529 ecbb
00000060: 5322 03bc 4907 a13d 0df0 3cbd 4015 dfbc
00000070: 02d3 a63d b899 25bd 98f7 493a f7f9 e93c
00000080: 3427 b93d 665a 60bb 8c62 a0bd 57de f0bc
00000090: 5b89 673c 9712 0a3d 2061 30bd d5fb 8abd
000000a0: 937b 753d 30ab e2bb 719d efbb a200 e9bc
000000b0: 62dc 89bc 13b0 be3c 4d2b 493d 0b23 933d
000000c0: 68dd 1b3d 52ed 9cbd 4e14 e23c 98cf 0f3d
000000d0: c368 bb3a 7fc3 d6bb 0c2e 95bc 9c22 19bd
000000e0: 54bb d6bc a73b b93b 4ab4 8d3d 5508 4fbd
000000f0: bba5 a4bc d27b 203c c157 d73c c8bb c7bd
00000100: 8806 81bc 785d 64bd b22d 3e3d 423a b8bd
00000110: 0ab9 debb a28a 81bd b23e 243d 3c4c 67bd
00000120: 617c a13c ec2f 3abd 9398 e83c 397d d5bc
00000130: a5ed 123b ca5c 0cbd 6b34 a3bc 03db 053c
00000140: 92ae cfbc 7e87 42bb 860c 6cbd aadb c23c
00000150: 0f5d 6dbd cfad 863d 3f88 603d 259a 813c
00000160: 0bcc a5bc 1d03 9dbd e921 883b 4397 9c3c
00000170: a861 00bd e8a5 a5bc 4395 6fbd 8be6 813c
00000180: f16c 37bd d181 d3bb ca19 0fbd 4c6a 15bd
00000190: 93b8 94bb bbbf c1bb 2ea9 34bd fed5 c83c
000001a0: 67aa fdbb 6590 44bd 4d0f 7fbd f6a0 d1bc
000001b0: 363a 97bc d370 d0bd 4ddc 87bd d749 97bd
000001c0: 3f5a cebc b16f 81bd 4da0 f23b e1cf 3b3d
000001d0: 5624 fdbc 2061 b2bd b1f1 40bc 1b53 89bc
000001e0: 2a6e d2bd e311 1a3d 3fe1 5abd 31e4 11bd
000001f0: 5165 afbc 3b3a 76bd feee 52bd af32 2e3d
0.066492684 0.018128956 -0.028728168 -0.02405682 0.00074207305 -0.047127277 -0.053309027 0.007077839
0.044148743 -0.05292544 -0.0205653 0.03897486 0.03939067 0.020287845 -0.03860853 -0.0008030058
-0.06217578 0.048439234 -0.013139921 0.008769475 0.046905812 0.006761074 -0.039798584 -0.0072070756
-0.008003789 0.07862718 -0.046127368 -0.027231812 0.08145715 -0.0404298 0.0007704436 0.028561575
0.090406805 -0.003423357 -0.07831296 -0.029402895 0.014131869 0.033709135 -0.043061376 -0.067863144
0.059932303 -0.00691738 -0.0073124697 -0.028442685 -0.01682872 0.023277318 0.04911356 0.07184418
0.038052946 -0.07662453 0.027597573 0.035110086 0.0014298189 -0.0065540667 -0.018210433 -0.03738652
-0.026212372 0.005652863 0.06919153 -0.050545055 -0.020098558 0.009795146 0.026286962 -0.09752613
-0.015750185 -0.0557532 0.046430297 -0.08995487 -0.0067969607 -0.0632527 0.040098853 -0.056469187
0.019712629 -0.045455858 0.028393066 -0.026060687 0.002241948 -0.034268178 -0.019922456 0.008169892
-0.025351796 -0.002968281 -0.05762913 0.023786385 -0.057950076 0.0657612 0.054817434 0.015820572
-0.020238897 -0.076666094 0.004154433 0.019115096 -0.031343132 -0.020220712 -0.058491956 0.015857002
-0.04478163 -0.0064546843 -0.034936704 -0.036478326 -0.0045386045 -0.0059127486 -0.044106655 0.024516102
-0.007741261 -0.047989268 -0.06227045 -0.025589447 -0.018460374 -0.101777695 -0.06633816 -0.07387131
-0.025189517 -0.063201316 0.0074043632 0.045852546 -0.030901115 -0.087099314 -0.011776374 -0.01676326
-0.102749184 0.037614714 -0.053437468 -0.03561801 -0.021410616 -0.060114127 -0.051497452 0.042528804

weight f4 [64, 128]
00000000: f471 773d 7686 953d ce38 aabd 11f9 b2bd
00000010: 16a8 a8bd bc74 12be d3e7 013e 0561 77bd
00000020: 0b4f 913c d3b2 1e3d 24a1 25be 234e 5c3d
00000030: b09a 923a 43b6 863d 96d1 523d 3e82 e93d
00000040: fd77 a23d afa0 153d 696f 343d eeb8 913d
00000050: b5f1 0b3d 127d cb3b c26b 743d 7b05 af3c
00000060: e396 283e 1b18 0bbc f020 53bd 2832 07bd
00000070: 2eca 893b 9e58 653d 6d6b 633d 60bf ddbd
00000080: 5cd5 df3d 6691 143d e8f4 403d ad37 d7bb
00000090: 9066 86bd 02c4 83bc 9e42 29bd a74b ffbc
000000a0: 641a d2bc e110 41bb a3a2 a83d cbc7 0cbb
000000b0: 5d6a ccbc 1334 783d 4a6c 813d 7f43 593e
000000c0: 1821 66bd 0df7 6cbd 6622 be3d 2319 993d
000000d0: ee3a b33d 6b74 093d 0bd4 5e3c 5292 2abd
000000e0: 49e1 143d 40da 973d cc6c 8b3d 8a02 53bd
000000f0: 8d81 35be 413d 383b 0196 ac3d 3cb2 75bd
00000100: 7536 5f3b 0ef6 82bd 8c5e eb3d 2479 54bc
00000110: 609c b7bd 1009 1dbe 43e6 6fbd 65c2 83b9
00000120: a4b9 c33d f748 dd3d a9e2 dc3d b54a 0c3e
00000130: 19f8 23bd d0c2 0b3e 315a 533d 293d fc3a
00000140: f85c a23d dea8 eebd e035 9dbd f556 98bd
00000150: f6dd 23bd c3b0 1a3e 4797 463e bff6 de3c
00000160: 3ae6 f5bd 6aa6 31bd f722 66bc c058 0e3e
00000170: b060 94bd 83db 2abd 6bd8 b5bd 0a55 01bd
00000180: d50d b7bd 2fe0 52bd d595 7bbd 6f63 0a3d
00000190: 7abc a23d 9123 bf3c 299b 8b3d 3702 3dbd
000001a0: 071e 3e3e 7db0 c63b 6e1c 3f3c 163b 363e
000001b0: 705a 803d 739e 943d 7f79 bb3c 9948 97bd
000001c0: 0a3b b2bd 4e37 a8bd 2161 47bd 1a45 d6bc
000001d0: cf67 d6bd f620 d9bd 3cd1 81bc 7f8b b43d
000001e0: e1c6 2dbd a86c f43d 423f cdbc 5883 c53d
000001f0: a9c0 b3bd 6d33 fa3c 9539 573c ee45 8abd
00000200: aff1 c4bd b4b7 dc3d 631e 2abd a095 9e3d
00000210: 7694 973c 28bf 103d ba46 eebc 966c b3bc
00000220: 3d0c cabc fdc6 0abe 2775 babd 1e19 2c3c
00000230: 8218 e9bd 5504 203d 2ca6 ccbd 6c7b f53d
00000240: 37c2 8d3c 9d5d 16bd 24c1 0f3e a4f6 85bd
00000250: d724 89bd ab51 33bc 74cc ea3d eec8 16be
00000260: d7b8 483d 9fb4 e63d 006a f3bd 7f87 f2bd
00000270: 4575 71bc 6524 0c3e 808a 0f3c 36af d53c
00000280: 4354 dabc c445 e53d a905 e3bd 18d7 153d
00000290: 766c a0bd eaac 943d 8b04 b4bd dcda 453d
000002a0: 1f02 a63d 9dd4 63bd 50b4 c4bb e929 b23d
000002b0: a98b abbc 10cb c33c 3041 bebc af4e a53b
000002c0: 269e 9fbd cad5 33bd 8b77 843c 5cab 4ebd
000002d0: fa28 55bd cb81 8bbd f9fc 29bc 09a9 b4bd
000002e0: bc04 55bd cdc7 71bd 6e59 80bd 3e10 c1bc
000002f0: 3a9f 00be 887b ad3d b348 3a3d 726e a13d
00000300: f6a3 e9bc 83a6 0dbc b993 6d3d 9541 03bd
00000310: fa20 34bd c966 863d 3099 0dbe 86ae b9bd
00000320: 9fb9 043d 0a43 fcbd ee90 e73d cda1 bfbc
00000330: f533 c0bd d778 06bd e8b1 b5bd 1bec e43c
00000340: cc7b 8e3c a09d 55bd bbf9 61bd 9868 d9bc
00000350: e29f 5ebd 99ca dc3d 05ed de3c f922 8abc
00000360: 455c 74bd 4d66 a5bd f2d1 8f3d 1058 e83d
00000370: 7988 9bbc 7327 0bba a469 90bd a7c0 933d
00000380: bac0 833b 2eaf 1abd 4a89 bcbd 0489 dc3d
00000390: 6094 f0bd 5925 243d c109 e03a b283 a9bd
000003a0: 3f45 da3d d7cc 98bd 950a bfbd 80cf 673d
000003b0: 9e5d 9a3c 939e cebb d49e 4d3d 7fca b03d
000003c0: 2bbd 03be 779c 3f3d 0e9e 323d 0794 c23d
000003d0: 6fe1 9cbd 4a5e c2bd 828d db3d db6d cc3d
000003e0: aa4b f93d 7567 2b3c 1d46 9c3d 6460 a3bd
000003f0: 990d 623d a693 a3bd 433f 99bd 93cb 09bd
0.06041141 0.07301037 -0.08311616 -0.08738912 -0.08235185 -0.14302343 0.1268609 -0.06039526
0.017737886 0.03874476 -0.16174752 0.053785454 0.0011185016 0.065777324 0.051469408 0.11401795
0.07933042 0.036530193 0.04405156 0.07115351 0.034166057 0.006209978 0.05967308 0.021364918
0.16463809 -0.008489634 -0.051545084 -0.033006817 0.00420501 0.055992715 0.05552237 -0.108275175
0.10929367 0.036271475 0.04710856 -0.0065679164 -0.06562531 -0.016084675 -0.041323297 -0.031164004
-0.02564735 -0.0029459524 0.082341455 -0.002148139 -0.024953062 0.060596537 0.063194826 0.21217154
-0.056183904 -0.057852793 0.09283905 0.074754976 0.08751474 0.03355829 0.01360036 -0.04164345
0.03634766 0.07414675 0.06807861 -0.051516093 -0.17725201 0.0028112682 0.084270485 -0.05998443
0.0034059559 -0.063945875 0.11492643 -0.012968335 -0.08965373 -0.15335488 -0.058569204 -0.00025131102
0.095568925 0.108049326 0.107854195 0.13700373 -0.040031526 0.13648534 0.051599685 0.0019244301
0.07927889 -0.116533026 -0.076762915 -0.07438461 -0.0400066 0.15106492 0.19393645 0.027217267
-0.12006803 -0.043371595 -0.014046422 0.13901043 -0.07245004 -0.04171325 -0.08879169 -0.03157524
-0.08938185 -0.05148333 -0.061422188 0.033786234 0.07946105 0.02333239 0.06816704 -0.04614469
0.18566142 0.0060635195 0.011664493 0.17795977 0.062672496 0.07256784 0.022885082 -0.07386894
-0.08702667 -0.082136735 -0.048676614 -0.026155997 -0.10469019 -0.1060199 -0.015846841 0.08815669
-0.042425994 0.11934787 -0.025054578 0.096441925 -0.087769814 0.0305421 0.013136287 -0.06751619
-0.0961641 0.10777226 -0.041532885 0.077433825 0.018503409 0.03533855 -0.02908646 -0.021902364
-0.024664039 -0.1355247 -0.09104376 0.010504035 -0.113816276 0.03906663 -0.09992632 0.119864315
0.017304523 -0.03671037 0.14038521 -0.065411836 -0.0669648 -0.010944764 0.114647776 -0.14725086
0.049004402 0.112649195 -0.11885452 -0.1184225 -0.014737432 0.13685758 0.008761048 0.026084524
-0.026651507 0.11194947 -0.11085064 0.036582083 -0.07833187 0.07259543 -0.08789929 0.048304424
0.08105873 -0.055622686 -0.0060029402 0.086994 -0.020940619 0.023900539 -0.023224443 0.00504478
-0.07793836 -0.043905057 0.016170284 -0.05045639 -0.05204103 -0.068118654 -0.010375255 -0.088213034
-0.05200647 -0.059028435 -0.06267057 -0.023567315 -0.1256074 0.08470827 0.045479488 0.07882394
-0.028520565 -0.0086456565 0.058002207 -0.032044966 -0.04397676 0.065625735 -0.13827968 -0.09066491
0.032403585 -0.12317474 0.1130694 -0.023392582 -0.0938491 -0.032830086 -0.088718235 0.027944615
0.017393015 -0.052152276 -0.055169802 -0.026539132 -0.054351695 0.1078083 0.02721263 -0.01686238
-0.059658308 -0.08076153 0.07022466 0.113449216 -0.018985974 -0.00053083076 -0.07051399 0.0721448
0.0040207775 -0.03776472 -0.09205873 0.10768321 -0.1174705 0.04007468 0.0017092751 -0.08277072
0.10657739 -0.07460945 -0.0932819 0.05659437 0.018843468 -0.0063055246 0.0502003 0.08632373
-0.1286513 0.046780076 0.043607764 0.0950089 -0.076601855 -0.094906405 0.1072035 0.09981891
0.12172635 0.010461678 0.076305605 -0.079773694 0.05518875 -0.07987146 -0.07482769 -0.03364141

bias f4 [64]
00000000: 7c1a 88bc f02f cf3d b23d 62bd 3393 babd
00000010: 03fa 993d 33cb ea3d bdc7 80bd 57db f0bc
00000020: f218 a7bd ef25 92bd 64cc 61bd be16 ca3c
00000030: f945 06bd dc70 fb3b 377e 44bd 170a 08be
00000040: b970 1abc 2594 93bb e47e a8bd e32b 7bbd
00000050: f3e1 7fbd 9f74 a53d 0d1b de3d 2ab9 d83c
00000060: 980e 35bd 5d6f 7db9 4cdd 94bd 6345 08bb
00000070: 38c3 ec3d f73d 0d3d 2951 b73d 8825 2a3e
00000080: bf67 cc3d 9ec1 c13d 3a26 93bd 627b 20bd
00000090: e6df b83d 0ae0 a73c e549 7e3d 4831 b2bd
000000a0: b51f cc3d 7022 c73c 6dba c5bd b0fe debd
000000b0: 146f cebc 8033 dc3c 0243 c93d bb48 a53d
000000c0: fce0 acbd 68d3 e4bb 1a7a d13b 9dc8 bfbd
000000d0: efba 8cbd 516f 38bd 7323 d8ba 2e22 9e3d
000000e0: 8cba c63d 7bd5 c8bb daa9 d43d 84c2 853d
000000f0: 05b3 8dbd e1df 79bd 8159 b03b 5e08 a73d
-0.016614191 0.10116565 -0.05523462 -0.09110107 0.07518389 0.114645384 -0.06288097 -0.029401464
-0.08159055 -0.071361415 -0.055126563 0.024669047 -0.032781575 0.007673366 -0.04797193 -0.13285099
-0.009426289 -0.004503744 -0.082273275 -0.06132115 -0.06247134 0.08078884 0.10845003 0.02645548
-0.04420337 -0.00024169446 -0.072687715 -0.002079331 0.115606725 0.034482922 0.08951027 0.1661588
0.099807255 0.09460758 -0.071850255 -0.039180167 0.0902708 0.020492572 0.06208219 -0.08700806
0.09966985 0.024308413 -0.096546985 -0.108884215 -0.02519945 0.026880026 0.09827234 0.08070513
-0.0844135 -0.0069832094 0.0063927295 -0.09364436 -0.06871592 -0.045028035 -0.0016490057 0.07721363
0.0970355 -0.0061289645 0.10383959 0.065312415 -0.06918911 -0.061004523 0.0053817634 0.08155893

weight f4 [12, 64]
00000000: 60ec a03d d324 3ebe 8f58 a1bd c5f0 bf3c
00000010: 421a af3d 5b22 1c3e 4a31 183e 8789 da3d
00000020: e6b0 dfbd d406 ae3d 6e00 05be f391 d7bd
00000030: ca29 b93d 2c8c 84bd acf6 3c3e 5e1c 0a3e
00000040: e881 dcbc 0eda 2e3e f160 923d 9b40 c13c
00000050: e271 6f3d 3b2f 7b3e 4a16 4cbc aced c93d
00000060: 1c22 013c b6a7 f03d 3180 bbbc 923d 10be
00000070: 2cd1 bb3b ba85 f03d da46 a4bd e044 f3bc
00000080: 1c29 c73b a260 453d 501e 143e f3a5 c6bd
00000090: 59ab 87bd 01c8 e23d 1f6f f53d a130 d73c
000000a0: 7fb3 073d 41e2 86bd 8933 82be 30e0 9ebd
000000b0: bf93 27bd 58b6 0fbe d145 153c 2e04 b7bd
000000c0: a056 2c3e 0a9d 463d 0ce5 6d3e f69f e1bc
000000d0: 5e5d 5cbd f877 49bd 124f 98bd 569e ccbd
000000e0: ca10 283e b3e1 c53c 0fb7 38be b02d 383d
000000f0: 8db2 823d bae4 edbc 8edc 323d 4567 7d3d
00000100: bbf7 b7be 9734 aabe 3e1a 14be 24ce d33d
00000110: 54ee 8c3c 9f76 12be bc70 ad3e b6ed 1b3e
00000120: c242 92be 45c8 4d3e df36 4e3d 7202 c43d
00000130: 8050 7bbe 01d2 1bbe 132a a13e 857c 8f3e
00000140: 8d6e 6e3e ae0d 77bc 037b ba3e 59d8 9d3e
00000150: 13a9 803e a455 903e 9424 43be 1150 bd3c
00000160: 50dc 233e 7328 7d3d b213 fa3d 8bea fbbd
00000170: 2863 c9be 27d3 693e 0cb0 01bd c9a1 91be
00000180: 93af 83be bed4 61be 0b23 1f3e 0d67 f4ba
00000190: 9b14 19be 9902 be3d 4317 8c3e 92c4 e83a
000001a0: 5497 73be ee50 853d 5bd6 2d3e 213f b23e
000001b0: 0a65 eabe 2ca3 f4bd 137d 59be 6ee0 b9be
000001c0: 44f5 e33e 3924 35be a81b d73e 717d 86bb
000001d0: 7d91 c03d fddc ce3d 84f1 31be 7349 89be
000001e0: 4c55 77be f227 ba3d b8fa 06be 3fc7 adbe
000001f0: 836d bc3e 392e 4bbe 8568 a43d 360c 753e
00000200: 1fd9 4ebe 511e 5fbe 18b9 e5bb da1c 0f3d
00000210: 6e4d 1c3c 0793 5cbe e177 9f3e 5ae2 963e
00000220: 2d6c aabd 2702 bc3d dc56 443e 3d14 453e
00000230: 6672 14be af1a 97bd 0d50 823e cc7d 303e
00000240: 279e b03e b691 ccba b987 cb3e d281 513e
00000250: 4556 843d 1da0 ef3d 41a4 30be d217 32bd
00000260: f42d a83e e4d9 55bc 938d 163e 8950 043d
00000270: 1e77 1abe 8f02 853e 3991 f1bd 592c a5be
00000280: 5151 fabd d215 9dbe 2981 223e addf f43d
00000290: 49bd 03be 8fc1 643e 7a1d fa3d 4e75 133d
000002a0: be8d 68be 5a49 673d f4a8 2f3c 1a0d 973e
000002b0: 0714 5fbe 677f d7bd d6e3 db38 79fe aebe
000002c0: 61fa fc3d 25b4 81be 88b8 9c3d 3437 dc3d
000002d0: dc12 65bc 6a86 8f3d d548 3bbe dbe6 b3bd
000002e0: 60da 60be c3ec 373d 88f4 6dbe fdf7 dabe
000002f0: eabf ce3e d940 5bbe 4022 c73d a2ac 883e
00000300: 80ca c5bd 0afb cd3b 1bc2 51bd 44ff aebc
00000310: 6760 89bd e371 623e d164 76bd 7727 98bc
00000320: 650d 8fbc 8fc0 bebc c5d4 13be b547 453a
00000330: 0ec6 ba3d a36e 5bbd 6d94 793d c06e 46bd
00000340: 478a a5bd 7175 b13c f8c3 b2bd e28b 703d
00000350: a919 6c3d 7544 98bd 0c28 ff3d 2efe ff3d
00000360: f873 1d3d 6681 583d 6b12 203e 8d42 27bd
00000370: 4f63 b5bd dce5 22bd 3555 713d 8f36 6b3c
00000380: 673e c43c eca2 a33d 8544 d93d 2bfe 29be
00000390: 7b87 533d 543a 233e 836d a7bd f260 4abd
000003a0: 1d0c a9bb 451e 11bd 2415 edbd 99d9 06bd
000003b0: cce4 febd 556b 56be 639e bd3c e322 0bbe
000003c0: f7ce 68bc 0a92 413d 9c30 463d 7744 30be
000003d0: 6917 9f3d 818d a23d 728a d93c 6ff2 66bd
000003e0: ef75 743e 0e75 8d3d 139b 13be 76e7 06bd
000003f0: 01dd e9bd b09c f5bd 9c9d 7b3c 0c37 64bd
0.07857585 -0.18568735 -0.07878219 0.023430238 0.0854993 0.1524748 0.14862552 0.106707625
-0.109224126 0.08497396 -0.12988445 -0.105258845 0.09041174 -0.06472048 0.18453473 0.13487384
-0.026917413 0.17075369 0.07147396 0.023590377 0.058458216 0.24529736 -0.012456486 0.098597854
0.007881667 0.11750738 -0.022888275 -0.14085987 0.0057317223 0.11744256 -0.08021326 -0.029695928
0.0060778987 0.04818786 0.14464688 -0.09699621 -0.06624479 0.11073304 0.11984085 0.026268305
0.033130165 -0.06586123 -0.25429943 -0.07757604 -0.040912386 -0.14034402 0.009110884 -0.08936344
0.1682992 0.048489608 0.23231906 -0.027542096 -0.05379998 -0.049186677 -0.074369565 -0.09991138
0.16412655 0.024155473 -0.18038581 0.044965446 0.06381712 -0.02903973 0.04366737 0.061866064
-0.3593119 -0.33243248 -0.14463136 0.103420526 0.017203487 -0.14303063 0.33875072 0.15227398
-0.28566557 0.20095928 0.050345298 0.09570779 -0.24542427 -0.15216829 0.31477413 0.28024688
0.2328436 -0.015078945 0.36421975 0.30829123 0.25128993 0.2819034 -0.19056922 0.023109468
0.16002011 0.061806154 0.12210788 -0.12300595 -0.39333463 0.22834454 -0.031662032 -0.28443745
-0.2571989 -0.22053811 0.15540712 -0.0018646434 -0.14949267 0.09277839 0.27361497 0.0017758778
-0.23788196 0.06509577 0.16976301 0.3481379 -0.45780212 -0.11945185 -0.21239118 -0.3630404
0.4452306 -0.17689599 0.42013288 -0.0041043092 0.0940275 0.10100744 -0.17377287 -0.2681385
-0.24153632 0.0908965 -0.13181579 -0.33941075 0.368023 -0.19841851 0.08027748 0.2393044
-0.20200013 -0.21788909 -0.0070105903 0.034939624 0.009539945 -0.21540461 0.31146148 0.29469568
-0.08321414 0.09180098 0.19173759 0.19246002 -0.14496765 -0.07378136 0.254517 0.17235488
0.3449566 -0.001560739 0.39751986 0.20459679 0.06461767 0.11700461 -0.17250158 -0.043479748
0.3284756 -0.013052437 0.14702444 0.032303367 -0.15084502 0.25978515 -0.11795277 -0.32260397
-0.12222541 -0.3068071 0.15869583 0.11956725 -0.12865175 0.22339462 0.122126535 0.036000542
-0.2271032 0.056466438 0.010721434 0.29502183 -0.21784984 -0.10522347 0.000104851715 -0.34178522
0.123524435 -0.25332752 0.07652384 0.10752717 -0.013981547 0.07008059 -0.18289502 -0.087842666
-0.21958303 0.044903528 -0.23237813 -0.42767325 0.40380794 -0.21411456 0.097233295 0.26694208
-0.096577644 0.0062860297 -0.051210504 -0.021361955 -0.067078404 0.22113757 -0.06015474 -0.018573506
-0.017462442 -0.023285178 -0.14436634 0.0007525639 0.09119807 -0.05357231 0.060932565 -0.048445463
-0.08083015 0.021662446 -0.08728784 0.058727153 0.05764166 -0.07434932 0.1245881 0.12499653
0.038440675 0.05285778 0.15632026 -0.040834952 -0.08856832 -0.039769992 0.05891915 0.0143562695
0.023955537 0.07990059 0.10608772 -0.16600864 0.051642876 0.15940219 -0.081751846 -0.04940886
-0.0051589147 -0.035429258 -0.11576298 -0.03292236 -0.12445983 -0.20939381 0.023146814 -0.13587527
-0.0142095005 0.047258414 0.0483862 -0.17213617 0.07768137 0.07937146 0.026555274 -0.056383546
0.23873113 0.06907092 -0.14414625 -0.032935582 -0.11419106 -0.119927764 0.015357401 -0.05571656

bias f4 [12]
00000000: d6a0 9d3d 301c 32be 88cb cfbe eb01 033d
00000010: 8d8d 92be 20c2 d1bc ea9a 0abd 56d9 233c
00000020: aed5 743c da14 f93b 7ebc 193d 395d f63d
0.07696693 -0.17393565 -0.4058497 0.03198425 -0.2862362 -0.025605261 -0.033839144 0.010000547
0.014943523 0.0076013627 0.037533276 0.120294996
